SAC/oldmodels/actor.pth (torch, 22452 bytes, 6 tensors)

fc1.weight f4 [64, 10]
000000 f5 2d 9a 3c 46 e5 73 be f1 8e 2a 3e 6e c7 a1 be
       0.018820742 -0.2381793 0.1665609 -0.31597465
000010 29 6a 0c 3e b1 eb 8b be e7 53 7f bd 2c 7c 9f bd
       0.13712372 -0.27328256 -0.062335875 -0.07787356
000020 d6 f1 79 bc 4e ac a6 3e 54 9b 5c 3d 5c 74 4c 3e
       -0.015255412 0.32553333 0.05385907 0.19966263
000030 dd d6 69 bc 01 30 23 3e 99 0c 9e be 5d fc 2c bd
       -0.014272419 0.15936281 -0.30868986 -0.04223286
000040 ae 40 52 bd 32 5d a0 be ef e9 31 3b 4c 74 17 be
       -0.051331215 -0.31321102 0.0027147492 -0.14790457
000050 69 89 2c be f5 89 ce 3d 75 b3 5e 3e e1 a8 1a be
       -0.16849293 0.10084907 0.21748145 -0.15103485
000060 5b 29 b1 be 92 2c c7 be 9e c4 18 bf 6a 09 9a 3e
       -0.34601864 -0.38901192 -0.59675014 0.30085307
000070 24 ff 00 3e a1 9d 9b bc 71 b8 6b 3e a6 0d 62 3e
       0.12597328 -0.018996062 0.23019578 0.22075519
000080 da b3 b7 ba a7 e8 7f be 42 af 03 be a6 a8 42 3e
       -0.0014015392 -0.24991094 -0.12859824 0.19009647
000090 38 7c fd 3d cd 31 41 3e d4 e7 5f 3c 3f c8 f9 be
       0.123772085 0.18866654 0.013666112 -0.48785588
0000a0 84 d8 c4 bc 44 b0 11 bf e6 6b 8b bd 2f 97 9f be
       -0.024029024 -0.56909585 -0.06807689 -0.3117003
0000b0 81 c0 ac be 47 0b 9d 3e 86 d0 09 3d bb 9b ad be
       -0.3374062 0.30672666 0.03364613 -0.33907875
0000c0 d6 01 16 bd 2d e5 e7 bd e7 d4 19 3e f8 fe e7 3d
       -0.036622845 -0.11323009 0.15022622 0.11327928
0000d0 43 73 c2 be e7 eb 97 bd 43 0c 4b be ce ae ef be
       -0.37978563 -0.07418042 -0.19828896 -0.46813053
0000e0 c6 09 18 3d 26 0d 8a 3e ee e1 43 bc fc 29 d0 39
       0.037118696 0.26963156 -0.011955721 0.00039704132
0000f0 1f 95 61 be 2c e4 71 3e f6 1f 25 3d 49 a6 4d bd
       -0.22029541 0.23622197 0.040313683 -0.05020741
000100 be eb d5 bd 56 33 b7 be a1 21 a2 bd 5a 32 29 bc
       -0.10445355 -0.35781354 -0.079165705 -0.010326946
000110 f8 aa 47 be 2f 66 45 be 1d 91 52 3e 40 57 70 be
       -0.19498813 -0.19277261 0.20563169 -0.23470783
000120 1d d0 6f 3e 22 20 60 be db 63 c2 3e c0 9e 54 be
       0.23419233 -0.21887258 0.3796681 -0.20763683
000130 3e 47 3b be 69 c1 c2 bd 3c b4 e9 bd 13 11 29 3d
       -0.18288895 -0.09509546 -0.1141133 0.04127605
000140 d0 b1 e0 bd 90 de 0d 3f 1b d8 dc 3d 3e b1 82 bd
       -0.10971415 0.5541773 0.10783406 -0.063814625
000150 43 7b 0c 3e 15 5e 90 3d c1 7c a5 bd f8 64 53 3d
       0.13718896 0.07049195 -0.080804355 0.051609963
000160 f6 d2 18 be 56 24 b2 3e 9f 97 80 be 11 06 92 3e
       -0.14924225 0.34793347 -0.25115678 0.28520253
000170 63 ad 05 be cf 5e 5a be cd be 6b be 61 09 97 3d
       -0.13054423 -0.21325229 -0.23022003 0.07374836
000180 2f 7a f0 bd ad ad 08 3e 80 b8 27 be e5 8c 7b 3c
       -0.11742055 0.13347502 -0.16378975 0.015353416
000190 af 9e 24 3d 31 25 40 be 00 49 69 3e 54 69 64 3e
       0.040190395 -0.18764187 0.22781754 0.22305804
0001a0 95 26 e9 bd fc d9 4c 3d a9 30 eb bd bc 9f 73 3e
       -0.11384312 0.050012574 -0.114838906 0.23791403
0001b0 62 50 1f be 65 22 a1 3e 4a ee d3 bd 11 d9 6a be
       -0.15558007 0.31471553 -0.103481844 -0.22934367
0001c0 98 6c 7f bd d0 b7 44 be bd 77 f2 be 91 bd be bd
       -0.062359422 -0.19210744 -0.47356978 -0.09313501
0001d0 cc 63 98 3e 4d 04 92 3e 69 37 2c 3d be 8d 29 be
       0.2976364 0.28518906 0.04204503 -0.16557977
0001e0 6a 1d 9e 3d 25 68 53 3e f5 97 b0 3c dc 7a ad bd
       0.07720454 0.20645197 0.021556834 -0.08470699
0001f0 4e 79 20 3e b2 aa a0 be 13 88 bc bd 74 0f 7f 3e
       0.15671274 -0.3138023 -0.092056416 0.24908239
000200 46 17 41 bd 6f 83 20 be 42 0e 4e be 7a 12 b3 3e
       -0.047141336 -0.15675138 -0.20122626 0.34975034
000210 13 40 df 3d 72 77 a6 be 38 4b bd be d8 8e 9c bd
       0.10900893 -0.32513005 -0.3697145 -0.07644433
000220 d7 48 01 3e 0c f8 fc 3e 9f ba 8c bd 25 c2 55 3e
       0.12625442 0.49407995 -0.06871533 0.20874842
000230 19 d6 c8 3d 18 dc d3 be bb aa ee 3d e0 b4 46 be
       0.09806461 -0.41378856 0.11653658 -0.19404936
000240 17 4f ae bd e7 af 8f be cf 56 94 3c 4d 77 36 be
       -0.08511179 -0.2806389 0.0181078 -0.17818947
000250 fc b2 05 3e 89 b4 a2 be dd bd 29 3e a9 0f 22 bf
       0.13056558 -0.31778362 0.16576333 -0.63305146
000260 2d 0f 73 bd f8 96 6c bd 25 cd e7 bd 87 27 60 3e
       -0.059340645 -0.057761163 -0.11318425 0.21890078
000270 49 ef 8b be f3 9f c4 3e eb a4 45 be 2f 83 44 3c
       -0.27330998 0.38403282 -0.19301192 0.011994167
000280 86 a9 c0 bc 92 ba 17 be 0e c4 63 be 26 64 bc bd
       -0.023518335 -0.14817265 -0.22242758 -0.09198789
000290 93 4a ab 3e 36 59 fc bd e8 24 b5 be 36 a9 03 be
       0.33455333 -0.12321703 -0.3537972 -0.12857518
0002a0 d9 40 2c be 15 d1 63 be f5 b7 03 be 6d 19 99 be
       -0.16821612 -0.22247727 -0.12863143 -0.2990221
0002b0 a0 3d 3a 3e 08 da 42 be a1 18 9b 3e 05 73 82 3d
       0.1818757 -0.19028485 0.30292228 0.063695945
0002c0 6e 41 21 3c 6c 71 3e be 56 ef 00 be 33 47 86 3e
       0.00984226 -0.18597955 -0.125913 0.26226196
0002d0 da 39 60 bd 3f ab bf be b0 b3 35 be ec 57 de 3c
       -0.05474267 -0.37435338 -0.17744327 0.027141534
0002e0 88 ad 60 be ca ba 41 be 07 63 d7 3e e5 d8 79 3e
       -0.21941197 -0.1891891 0.4206774 0.24399145
0002f0 9c 26 74 be 86 25 73 be 0e f7 42 3e a8 78 d9 3e
       -0.23842853 -0.23744783 0.19039556 0.42474866
000300 2c 83 41 3d 08 29 06 bf e7 61 a0 be f8 7e 81 bd
       0.047244236 -0.5240636 -0.31324694 -0.063230455
000310 92 fb 8d 3e c7 d5 76 be da a8 31 3e d6 f6 71 3e
       0.27730995 -0.24104987 0.17349568 0.23629317
000320 45 c3 59 3e 12 4e 50 be 13 e6 92 be e2 d4 de be
       0.21265896 -0.20342281 -0.28691158 -0.43521792
000330 65 fb 0b bf 43 6f 49 be c5 28 ae 3e b3 00 cf 3e
       -0.5468047 -0.19671349 0.3401548 0.4043022
000340 68 f5 e2 bd b7 66 a0 3e fa ff 9a 3e b8 9e ea 3e
       -0.11081964 0.31328365 0.3027342 0.45824218
000350 03 1a 13 3e 6f bb f7 be 0b 1a d8 be 67 7a a1 bd
       0.14365391 -0.48385188 -0.4220737 -0.078846745
000360 86 e8 84 bd f6 2b 7f be 31 61 18 3e 9a 6e 3d be
       -0.06489663 -0.24919114 0.14880826 -0.18499222
000370 17 dd ae be a8 0c 8b 3e cb 65 88 bc c5 78 82 be
       -0.34153053 0.27158093 -0.016650101 -0.25482765
000380 ca 37 09 be 70 fc cf 3e 1b 20 c0 be af f9 fb 3c
       -0.13400188 0.40622282 -0.37524495 0.030758707
000390 ec 52 33 3e ea 3e b0 3e f5 2d 45 3d 33 40 93 3e
       0.17512101 0.34423 0.04813953 0.28759918
0003a0 31 a4 80 be e0 54 a5 be 0c e0 06 be 55 6b 03 bf
       -0.25125268 -0.32291317 -0.13171405 -0.5133565
0003b0 15 ce 87 3d 6b 2e 07 3d de fe 3d bb 82 22 7c 3d
       0.06631104 0.033003252 -0.0028991024 0.061556347
0003c0 bf 55 d9 3d 34 49 d3 3e d6 62 9c 3c 94 c9 76 be
       0.10612058 0.41266787 0.019090097 -0.24100333
0003d0 a9 78 70 be 7d b6 c3 bd ae b4 ec be 23 c0 d3 3d
       -0.23483528 -0.09556291 -0.46231598 0.103393815
0003e0 02 06 ad 3d f3 6c b4 3e e8 a1 f4 bc 84 7f db be
       0.084484115 0.35239372 -0.02986236 -0.42870724
0003f0 9a e4 04 bf 0f ad 36 be a1 db 44 3f be a4 84 3e
       -0.5191132 -0.17839454 0.7689763 0.25906938

fc1.bias f4 [64]
000000 d0 09 48 bd a1 ce 42 3e 3f 69 73 be 96 41 18 3e
       -0.048837483 0.19024135 -0.23770617 0.14868769
000010 30 a5 05 3e a9 f0 87 3d 2b ea c4 3e a3 fa 6e 3e
       0.13051295 0.06637699 0.38459906 0.23337798
000020 5c f3 1f 3e b5 94 58 3e bc 38 6c 3e 0d 82 82 3e
       0.15620178 0.21150477 0.23068517 0.25489846
000030 16 02 de bd b3 db 0c bd 32 a1 94 be e4 7d 11 3e
       -0.108402416 -0.03438921 -0.29029232 0.1420818
000040 d8 d1 8f be 03 e0 a7 be 9b 51 a5 3d c5 8e e4 3d
       -0.28089786 -0.32788095 0.08072206 0.111600436
000050 1d 09 e0 3e 2e c6 ac 3e ca 1f 19 bd 13 8d b1 bd
       0.43756953 0.3374495 -0.037383832 -0.08669486
000060 2a b2 1c 3e b3 53 89 be fd 1c 2e 3d 6d 0b 5f be
       0.15302339 -0.2682167 0.042508114 -0.21781702
000070 aa d7 a3 be e2 c1 9d bd a7 ce b4 bd 5e f6 42 3e
       -0.32000476 -0.07702996 -0.08828478 0.19039294
000080 3c 56 2e be 19 7f 09 3e e8 ae ea bd 86 5b 0e be
       -0.17025083 0.1342739 -0.11459142 -0.13902101
000090 bb bc 7b bd e9 70 26 be 03 35 a4 bd 49 6f a3 3e
       -0.061459284 -0.1625401 -0.08017924 0.3192084
0000a0 63 1c c2 3e 79 0c 09 bc 0f 62 d4 be b2 3c 66 3e
       0.37912282 -0.00836479 -0.41481063 0.22484091
0000b0 dc 62 80 3e 5f 78 b9 3e 2d 58 1b 3e e7 5e 0a bd
       0.25075424 0.36224648 0.15170355 -0.033781912
0000c0 b5 92 02 bd 32 bd 45 bd c4 38 7c 3e 9a f3 a1 3e
       -0.031878192 -0.048276134 0.2463103 0.31631166
0000d0 b2 87 8d bc 57 a6 bf 3e 7e ad 87 bd 2e 18 91 3e
       -0.017276619 0.37431595 -0.06624888 0.2833876
0000e0 9f f5 88 be 27 1a 54 3e 93 32 b4 3d b2 24 64 3e
       -0.26749894 0.20713101 0.08798709 0.22279623
0000f0 4a 10 66 3e da 3e d2 bd dc a5 eb bd 20 d6 8c be
       0.22467151 -0.10265894 -0.115062445 -0.27507114

fc2.weight f4 [64, 64]
000000 7f 59 45 3e 05 fe 1c 3d 0e c0 89 be 11 13 3a 3e
       0.19272421 0.03832819 -0.2690434 0.18171336
000010 a0 8a 52 bd 51 d1 90 3e ff b0 81 3c f0 e9 1a 3e
       -0.051401734 0.28284696 0.015831469 0.15128303
000020 07 9a 22 be bd fd 28 3e c8 c2 b9 bd ea 38 a8 3d
       -0.1587907 0.16503043 -0.09070355 0.082139805
000030 d0 5c cc 3e 57 c0 42 be e5 3e 42 bd be 79 bf 3e
       0.3991456 -0.19018684 -0.047423262 0.3739757
000040 f4 62 d4 3d 5b a7 d0 3e f4 85 54 3e aa 32 d1 bd
       0.10370436 0.40752682 0.20754224 -0.102147415
000050 71 c9 a5 3e 38 a3 e6 3c cb 7f 99 3e 15 c7 81 bd
       0.3238025 0.028154 0.2998031 -0.063368
000060 ee c1 ab bc 53 6e ab bd 80 6d f0 3d 58 a5 67 3e
       -0.020966496 -0.08370652 0.117396355 0.22621667
000070 99 b9 30 bd 6f bb 35 3d ea c8 0b 3e 6f 45 ff 3d
       -0.04314575 0.044368204 0.13650861 0.12464415
000080 7c 58 e5 b9 f2 57 0f 3d 9e 46 79 3e 87 b0 01 be
       -0.0004374421 0.03499598 0.24343345 -0.12664996
000090 91 b7 60 3e 6e 15 e0 3d 13 c6 38 3d 84 9c e2 3d
       0.21945025 0.109415874 0.045110773 0.11065009
0000a0 7c d4 a5 3d 19 6c 8d be 49 4b ed 3d 11 e2 28 bc
       0.08097169 -0.27621534 0.11586625 -0.010307805
0000b0 99 b4 27 3d f7 4e dd 3d a5 fb c2 3d 95 08 8f 3d
       0.040943716 0.10806077 0.09520654 0.06984059
0000c0 4a fe 8a 3e 2d fc ea bd e5 91 88 bd 26 17 9f 3e
       0.27147132 -0.1147388 -0.06668452 0.31072348
0000d0 c3 14 83 3d da c6 b4 3d 2e 84 70 3e d7 b3 87 3d
       0.06400444 0.088269904 0.23487923 0.066260986
0000e0 55 3d 1b 3e 32 53 55 3e 00 52 92 3d 65 e5 71 bc
       0.15160115 0.20832518 0.071445465 -0.014764165
0000f0 79 46 a1 3e 59 63 ef 3d 05 a5 68 bd 19 5c 16 be
       0.3149908 0.11688871 -0.056798 -0.1468357
000100 8e f9 52 3d a9 39 c9 bd 98 ea 29 3e a7 f5 14 3e
       0.051507525 -0.09825451 0.16593397 0.14546834
000110 0f 3d a1 3d a4 1a 48 3e 54 3d 31 be 2d 1e 0d bd
       0.07872974 0.19541413 -0.17308551 -0.034452606
000120 cb 54 3d 3d f3 3a 81 3d ad 30 67 3e d6 4c 4d 3e
       0.046223443 0.06310072 0.22577162 0.20048842
000130 ac d0 fc 3d 06 f6 87 bc 25 bc cc 3d 85 a8 ec 3d
       0.123444885 -0.016596805 0.09996823 0.1155558
000140 19 bf 8c bc 74 89 74 3e 7b 19 cf bd 75 5e 5e 3d
       -0.017180966 0.23880559 -0.10112282 0.0542893
000150 f6 32 ca 3c ff 50 1f be f8 fb 20 3e 9a a1 e0 3d
       0.024682503 -0.15558241 0.15721118 0.10968323
000160 2a a2 b1 3d b6 23 e5 3d 89 65 59 bc 3d 7e 4c 3e
       0.086735085 0.11188452 -0.013268837 0.19970031
000170 b6 28 8b 3e 15 29 07 bc 5f d2 2b 3e 4a 3d 71 3d
       0.27179497 -0.008249541 0.16779469 0.05889634
000180 05 f8 a0 3e d9 f3 62 3c 42 36 c4 bc 90 dd 54 bd
       0.31439224 0.013852083 -0.023951653 -0.05196911
000190 c0 b0 ad 3e 13 aa a0 bc f9 3a 49 3d 1b 62 2a be
       0.33923912 -0.019612348 0.049128506 -0.16638987
0001a0 60 37 10 3c b9 b4 4c 3e ca d2 c6 3d ec 09 7e be
       0.008802265 0.19990815 0.097081736 -0.24808472
0001b0 76 57 89 bc e3 ee 85 be 89 78 c5 3e 76 b2 3c 3e
       -0.016765337 -0.2615882 0.38568524 0.18427452
0001c0 35 79 80 bd 1f 54 d1 3b 96 28 59 3d 80 c5 0c bd
       -0.062731184 0.006388202 0.05301722 -0.03436804
0001d0 94 09 be bd 1b 3a 09 bd 6e 18 23 3e c0 2b 6d be
       -0.09279171 -0.03350268 0.15927288 -0.2316122
0001e0 9c f2 25 3e be 1e c4 bd 14 32 e0 3c 30 db 20 be
       0.1620583 -0.09576176 0.02736763 -0.15708613
0001f0 bd df 2c bd 32 58 d9 3d 21 43 69 3e bd b6 5f 3d
       -0.04220556 0.10612525 0.22779514 0.054617632
000200 99 66 b2 3d cf 8b 22 3d 4e e5 aa 3d 3f 13 8b bb
       0.08710975 0.039684113 0.08344518 -0.0042442377
000210 92 66 c6 3e 61 78 c7 3d 81 03 8b 3b 21 36 fe 3d
       0.3875013 0.09739757 0.004242361 0.12412668
000220 bd 03 3c 3e e3 c4 ce 3d 35 67 00 3e ef ec 91 bd
       0.18360801 0.10096147 0.1253937 -0.071252696
000230 ce 8d 62 3e 76 d4 52 3e 5e d8 11 be 0e 1d 52 bd
       0.22124407 0.2058886 -0.14242694 -0.05129724
000240 3a a7 47 bd c2 a6 0d 3d b7 c7 1b 3d 17 dc 2a bd
       -0.048743464 0.03458286 0.03803226 -0.0417138
000250 d0 db 06 3e d0 98 66 3d 4b 1b f4 bc f1 65 9d 3d
       0.1316979 0.056298077 -0.02979817 0.076854594
000260 2a 84 81 3d 68 0a 31 be 2b 9f 93 bb b6 12 0a 3e
       0.063240364 -0.17289126 -0.0045050583 0.134837
000270 18 b4 6d 3d 03 41 1b 3e e8 83 11 3e f0 f5 23 be
       0.05803308 0.15161519 0.14210474 -0.16011786
000280 dc a0 c0 3d b0 f1 87 3c fb 6f ae be c8 4a 9f 3d
       0.094056815 0.016594738 -0.3406981 0.07777935
000290 51 fe 2c 3e 2c 53 9f 3b ea f0 28 be f2 d8 0f 3e
       0.16893889 0.00486221 -0.16498151 0.14047602
0002a0 5b dc 9c ba e9 b0 79 3d 9e 86 6f 3e 6e 50 e3 bb
       -0.0011967527 0.06095973 0.23391196 -0.006937078
0002b0 e1 d7 47 3d e1 7e f0 3d b0 ca 8a 3d 58 fa 3e bd
       0.048789863 0.1174295 0.06776941 -0.046625465
0002c0 80 71 02 bd 64 c0 16 3d 59 0d aa 3d ac 7f 8f 3e
       -0.031846523 0.03680457 0.08303327 0.28027093
0002d0 b3 eb c3 bd bf c1 be 3c 81 1c 54 3e 1b 18 cf 3c
       -0.095664404 0.023285745 0.20713998 0.02528005
0002e0 16 0f bf 3e 8d 50 d5 3c eb 61 02 3c 67 2b 3b bd
       0.37316197 0.026039386 0.007957916 -0.04569569
0002f0 77 12 a9 3e 91 e4 47 3d dc d5 2c 3e 56 e4 6d be
       0.330219 0.048801962 0.16878456 -0.23231634
000300 8c 12 b2 bc 08 8a 9e be c4 e7 54 bd 15 3c 21 3d
       -0.02173736 -0.30964684 -0.05197884 0.03936394
000310 3e 5b ce 3d b5 e3 51 be 1a 3b e4 bd 04 66 5b bd
       0.10075997 -0.2049702 -0.11144085 -0.053564087
000320 71 48 23 be 7f da f3 bc 5d 8e 65 bd 27 69 eb 3d
       -0.15945603 -0.029767273 -0.05604397 0.114946656
000330 8a e2 86 bd 24 ac 18 3e 3d be 83 3d b9 e9 38 3d
       -0.06586178 0.14909416 0.064327694 0.04514477
000340 ac ec 05 3e d6 90 f1 bd b6 49 57 3e 61 8a 87 be
       0.13078564 -0.117952034 0.21024212 -0.26472762
000350 42 45 02 be ef 63 c5 bd be 18 3a be 45 e7 8e be
       -0.12721732 -0.096382014 -0.18173501 -0.2791082
000360 f7 5f 78 be b3 e3 49 3e a1 c6 72 bd bc 70 ec be
       -0.24255358 0.19715767 -0.05927146 -0.4617976
000370 95 43 84 3e 02 1b 0e be 9d ba a0 3e 19 b3 95 bd
       0.2583281 -0.1387749 0.31392375 -0.07309551
000380 a4 41 00 be dc 06 0f be 9a 22 ae bd 8c 25 8b bd
       -0.1252504 -0.1396746 -0.085026935 -0.06794271
000390 74 1b 16 3e dd 12 a8 be 82 c6 26 bd 1c d1 a0 bc
       0.1465891 -0.32826892 -0.040716656 -0.019630961
0003a0 9b 20 2e 3d 7a 9a 3d 3e 56 1b e2 3c 68 0b 69 3e
       0.042511564 0.1851596 0.027600925 0.22758257
0003b0 98 43 fd bd 9c af c4 be 9d 11 cf 3d 0f 0e e5 3d
       -0.12366408 -0.3841523 0.10110781 0.11184322
0003c0 3b 5a 25 3e 42 05 65 3e 64 c3 05 3d 53 a2 07 3e
       0.16147701 0.22365287 0.032657042 0.13245516
0003d0 7a 11 a0 3e f6 d7 e2 3d 52 99 24 3d 07 74 7b bc
       0.31263334 0.110763475 0.04018528 -0.015347487
0003e0 4f 30 85 3e b9 8c 1c bd 4b d6 35 3d fe 1b 51 bd
       0.2601342 -0.03822014 0.04439382 -0.051052086
0003f0 91 4d 2e 3d 71 dc 25 3c d3 af 62 3e 9d 42 24 be
       0.04255444 0.010123358 0.22137384 -0.16041036

fc2.bias f4 [64]
000000 08 6e 9b bd 8a 72 57 be 9c 87 10 3e 33 31 8c be
       -0.07589346 -0.21039787 0.14114231 -0.27381286
000010 68 5f d2 bd 8c c7 61 bc 36 f4 29 3d e1 23 8c 3d
       -0.102721035 -0.013780486 0.041492663 0.06842781
000020 15 c3 c9 bd b4 12 cd bd 44 c7 05 3d 02 49 67 3e
       -0.09851662 -0.10013333 0.032660738 0.22586444
000030 89 66 8b 3c 08 79 11 3e 20 db 0b 3c c6 2c 0c 3e
       0.017016666 0.14206326 0.00853613 0.13688955
000040 63 6f 43 bc 8a 80 18 3d e6 41 62 3d eb be db 3d
       -0.011928412 0.03723196 0.055238627 0.10729774
000050 68 42 fb 3d ae 5e 24 3d bf 04 89 3d 07 00 3d 3c
       0.12268525 0.040129356 0.06690358 0.011535651
000060 cb fe 93 3e c9 bf 28 3d a3 1c 73 3d 56 af d8 3d
       0.2890533 0.041198526 0.059353482 0.10580318
000070 60 57 2c 3e bc b2 16 3e 6c 6a 19 be 5b 39 7c 3d
       0.16830206 0.14716619 -0.14982003 0.061578136
000080 36 ac 0a be e4 57 07 3e ce 07 08 bc c7 41 40 3e
       -0.13542256 0.13217121 -0.008302642 0.18775092
000090 10 61 41 3c db f6 45 3e 55 ca 6e bd f9 8d 53 3e
       0.011802927 0.19332449 -0.058298428 0.20659627
0000a0 b0 22 19 3e 59 2e a0 3c ad b7 2c 3e 9c 96 11 bd
       0.14954638 0.01955335 0.16866942 -0.035544023
0000b0 35 d0 cd 3a 43 56 98 bc 9d db 27 3e 5f d2 27 3e
       0.0015702309 -0.01859582 0.1639237 0.16388844
0000c0 ae e9 ac 3d 0d 58 2f 3e 11 2c 16 3c 6e 27 d9 bd
       0.08443008 0.17123432 0.00916578 -0.10603224
0000d0 a8 06 85 3d 9a f3 1f 3d 62 3c b9 bd b9 1b 36 bd
       0.0649541 0.039050676 -0.0904472 -0.044460032
0000e0 2b 0a fa bd e1 01 bc 3c 51 23 64 bd 44 3a c4 3d
       -0.12208971 0.022950115 -0.055697743 0.09581426
0000f0 55 17 db 3d 5d e9 82 bd 3f aa e8 bc c2 4e 25 3d
       0.106978096 -0.06392167 -0.028401492 0.040358312

fc3.weight f4 [3, 64]
000000 11 12 5c 3e 00 fb e0 bd 0c 58 d3 3d d7 e2 80 3e
       0.21491267 -0.109853745 0.10319528 0.25173065
000010 18 c3 d0 3d 67 70 41 be 16 66 81 3e 8a 23 d2 be
       0.10193461 -0.18890534 0.25273198 -0.4104274
000020 c7 68 43 3e 2f 2e 8c be 87 2d 98 bd ed f0 01 3f
       0.19082938 -0.27378985 -0.07430559 0.5075825
000030 1c db c8 3d 4f 61 a4 be 1d c2 74 bd 4b 31 0a bf
       0.09807417 -0.3210549 -0.059755433 -0.53981465
000040 2d d3 a4 3e 79 cb 62 be c0 8e f8 3d 2d 7e 08 bd
       0.32192364 -0.22147931 0.121366024 -0.033323456
000050 94 08 ae 3e 4d b9 13 3e 03 ff 9c bd 00 87 b2 3e
       0.3399092 0.14426155 -0.07665827 0.34868622
000060 14 96 c1 bd 77 2b 3d be 13 98 3f 3e 73 3f 30 3d
       -0.09452453 -0.18473612 0.18710355 0.04302926
000070 13 ca 69 be a5 d4 fc be 2c 7a 1f be a8 f3 65 be
       -0.22830991 -0.49380985 -0.15573949 -0.22456229
000080 be 5c 25 3f 18 56 d0 3e cc 71 fb 3e cd 2c d8 bc
       0.6459464 0.40690684 0.49110258 -0.02638855
000090 d4 dc 38 bd cb 45 24 3f 0c 69 dd 3e 51 ff 8d ba
       -0.045132473 0.64168996 0.43244207 -0.0010833537
0000a0 98 ad d9 3d ba f9 b3 be 0c c2 fa 3d 72 98 c8 bd
       0.106288135 -0.35151464 0.12244043 -0.09794702
0000b0 7c 77 21 be d5 c7 87 3d 3a 6a ce be 4e d4 d8 3d
       -0.15768236 0.06629912 -0.4031542 0.10587369
0000c0 3a 99 41 be ea a3 47 3f 1d 3c 31 3d ec 87 8c bd
       -0.18906108 0.7798449 0.04327022 -0.068618625
0000d0 a1 d3 5b be 1d 1c a7 3e 44 46 d0 be 0c 56 2a be
       -0.21467449 0.32638636 -0.40678608 -0.16634387
0000e0 c7 0e c7 bd 10 db ae 3d 6c e7 58 be 7e be 8c 3d
       -0.097196154 0.085378766 -0.2118203 0.06872271
0000f0 24 36 de 3e db 3c e6 bd 96 ca 09 3e fc 31 15 3f
       0.4340068 -0.11242076 0.13456187 0.58279395
000100 20 1b 85 3d 99 87 4f 3e 5e a7 ca bb 89 a3 b5 3d
       0.06499314 0.2026657 -0.0061845025 0.088690825
000110 c5 d2 b4 3e cd 19 88 3e dc 10 15 bf 0e 89 56 be
       0.35317054 0.26582184 -0.5822885 -0.2095072
000120 50 35 c3 bd 04 20 cf 3d bc 0d 08 be 8e 8c dc be
       -0.09531653 0.10113528 -0.13286489 -0.43075985
000130 0e a7 8f 3e 34 d4 43 be 7b 58 f1 bd d8 83 4d 3e
       0.2805714 -0.19123918 -0.117844544 0.20069826
000140 55 76 98 bc 4a ce 14 be 4e 0a 87 3d a4 0e 33 be
       -0.018611113 -0.14531818 0.06593762 -0.17486054
000150 2f 0c 9f 3d f9 a6 ba be 49 56 11 3f 67 c7 2a 3e
       0.07765996 -0.36455515 0.56772286 0.16677628
000160 bf 5e 04 be e2 73 6b be aa cf 8d 3e 83 01 86 be
       -0.12926768 -0.22993425 0.27697498 -0.26173028
000170 b8 f6 2a 3c 3f f5 8e bd 74 36 17 3e cd a1 01 be
       0.010434799 -0.06980371 0.14766866 -0.12659378
000180 56 10 96 3e 93 77 82 be ac be 16 be 8e 78 a5 be
       0.29309338 -0.25481853 -0.14721173 -0.32318538
000190 c3 64 9c be f1 61 63 be 29 9a a8 bc c0 eb 98 bd
       -0.30545625 -0.2220533 -0.020581322 -0.07466841
0001a0 f1 2f 59 3e 5c 7f 5e bd 33 ca b5 be 7a 7e 98 bc
       0.21209694 -0.054320678 -0.35505828 -0.018614996
0001b0 d1 12 a5 bc 08 d8 a5 3d 63 a4 d7 3d 91 dc fa bd
       -0.020150574 0.08097845 0.10529401 -0.12249101
0001c0 51 5e 45 3e 4b 6f b3 3e 64 cc ee 3d d8 bc b0 3c
       0.1927426 0.35045847 0.11660078 0.021574423
0001d0 fb fc 09 3e 84 f4 1c 3b 14 62 59 3d 38 89 8e be
       0.1347541 0.0023949454 0.05307205 -0.27839065
0001e0 05 35 78 be ee ff 97 be 0f 29 84 bd 9f 47 49 3e
       -0.24238975 -0.29687446 -0.06453144 0.19656228
0001f0 2f 42 03 3d 27 85 87 3d 98 ed 0c 3e f1 f1 35 bf
       0.03204554 0.06617194 0.1376251 -0.710723
000200 0e 99 6c bd 15 9f 43 be 3f 2d 7e be 5b 2b ae 3e
       -0.05776315 -0.19103654 -0.24821948 0.34017453
000210 fc e4 25 3d 04 34 20 be 0b 3a bd be 51 25 21 3e
       0.04050158 -0.15644842 -0.36958346 0.15736891
000220 4f ae 13 3d 4a 39 1d 3d 4d 14 15 3e fe 9d 01 bf
       0.036054906 0.038384713 0.14558525 -0.506317
000230 26 e9 d2 3e 12 91 ca 3d 96 6a 82 bd 88 f9 2e bd
       0.41193503 0.09890951 -0.06367986 -0.04271844
000240 ce c6 bd bd 9f ee 17 3e b1 e0 0a be b8 f9 7a 3e
       -0.092664346 0.1483712 -0.13562275 0.24509323
000250 8e 95 60 bd 04 44 c7 bc c1 61 23 3e 9d bf 57 3e
       -0.054830126 -0.024324425 0.15955259 0.21069188
000260 69 c8 99 3e 6e 50 99 bc f6 c4 61 be 88 28 aa bd
       0.30035713 -0.01871511 -0.22047791 -0.08308512
000270 33 0f 14 bd 92 87 9c bf 99 4c 10 be a0 44 80 3d
       -0.036147308 -1.2228873 -0.1409172 0.06263089
000280 39 99 e7 be 9f 2c c4 be 24 b2 3a bf 93 19 84 3e
       -0.45234087 -0.38315293 -0.7292807 0.25800762
000290 6d 4f 89 3e 53 5d 03 be 79 b1 dd be ec cd 31 3e
       0.2681841 -0.12828569 -0.43299463 0.17363709
0002a0 97 19 87 3e a7 2f e6 3e 2e de 6b 3e 0f f3 b1 be
       0.2638671 0.4495823 0.23033974 -0.34755751
0002b0 b2 ad 4b 3e df 96 ba bd 81 70 66 be 05 fe 55 be
       0.19890478 -0.091108076 -0.22503854 -0.20897682
0002c0 7d c7 91 3d 6d b9 48 be e1 42 f0 3e 55 91 18 3e
       0.071181275 -0.19601984 0.46926025 0.1489919
0002d0 d3 e8 b6 3d 3d 44 e4 bd b6 16 1a be 00 d7 ab 3e
       0.089311264 -0.11145828 -0.15047726 0.3356247
0002e0 c7 c7 99 be 30 04 a7 bd 1c b4 cb 3e 44 b2 d8 bd
       -0.3003523 -0.081550956 0.3978585 -0.105808765
0002f0 b7 ed 47 ba 55 47 03 3d fe 37 80 bd d4 2a 61 bd
       -0.000762667 0.03205045 -0.0626068 -0.054972485

fc3.bias f4 [3]
000000 29 73 ad 3b 2d e3 ea bd ad ef a9 3d
       0.005293269 -0.114691116 0.08297668
