SAC/oldmodels/critic2.pth (torch, 22728 bytes, 5 tensors)

fc1.weight f4 [64, 13]
00000000: 270f a83d 4ecf 003f 7ab4 85bd 2790 73be
00000010: c89a c3be e88c 183f fb61 fbbd 3ab9 4ebe
00000020: f8ea 4b3f 410e 883d e4bb 333b fac9 b33c
00000030: 7572 42bc ef04 d0bc 222f 9ebe fa70 8ebe
00000040: f689 3cbf 797a 2e3e 4dbc f8bd 5ec0 bc3e
00000050: 4656 4fbe a79d b0be 010f 0dbe 5572 833d
00000060: 864b 2abd 5d7d 3fbd 4ca5 28be b4a1 ddbd
00000070: 1910 863e 14ac 45bf cc10 463e 14c2 033d
00000080: deb7 2bbe 0f23 113e 98ed d0bc bcb3 733d
00000090: 19cf 1d3d 39db 103d 02ff 4a3c 1641 72bd
000000a0: 0d45 893e d1b7 95bc 0788 92bf 91bc 91bf
000000b0: d1e6 d0be f237 e63d ab72 d63c dbbf 0cbf
000000c0: ac04 213c 2aad 45be d32d b83d 9e37 abbd
000000d0: a3ce e83e d63a c33e 941f d13e a565 81bd
000000e0: e8c3 aebf 46b5 3fbf 10ac 513d 1c21 26bf
000000f0: fbe9 8bbe bb10 a1bd 456a babd 9703 8d3d
00000100: cc0e 26bb b917 003d 8e7a a33e c06e 813c
00000110: ad71 cc3d da85 2e3e 023f 2ebe a310 94bd
00000120: 020c adbb eb4f 0bbe db46 41bc 6af3 cabc
00000130: 7327 7f3d 66e6 79bd b6cd 763e f08f b3be
00000140: edad 67bd 9276 07bf 42b5 b73e a104 1bbe
00000150: 89ad 943e 5547 58be c4b3 5d3d d415 b7bd
00000160: 7ecf edbc c95d aa3c d4d6 ea3a cd22 34be
00000170: e94e 4abd 4bc4 86be d1f6 67be 1d76 a23e
00000180: 94ec 78be 2137 93bd ce4b 8ebe e1c9 a63c
00000190: 2a0c 12bd dd14 45bc c670 eb3c 185d e1bc
000001a0: 1bec 90be 4dd2 46bc 9ff3 8fbe 1b53 32bf
000001b0: 5dcb 453e 4ac7 abbe c711 953e f499 f43d
000001c0: 7ddc eebe 547c 22be c010 b1bb 0577 a0bc
000001d0: f4c4 17bd af94 61be 0a7e 963e cb0d acbb
000001e0: 0ba1 b03c 11be 6a3e 848d 3c3e 49b2 14bd
000001f0: 1f7f 9abd 8ada cc3f 0659 2abd c7f5 723c
00000200: d736 5d3c a17e bfba 241f 6d3f bebd 88be
00000210: db1f 253e 83ec 2fbf a836 e8be c7b8 a03e
00000220: 4bdc 5abe 8c68 133f c629 173f 8ff6 363f
00000230: f8f4 20bb 295b aeba 7a19 693c ef50 193e
00000240: 8113 ebbf 2765 4ebe 399a 1e3e d443 babf
00000250: f035 063f 5dcf 34be 9209 7c3e 2510 95be
00000260: 0d14 573e 21e2 bdbd 8b28 92bd f70f b7bc
00000270: c9af a83e 3286 51bc 4233 b6be 6183 31bf
00000280: 6eaa 28bf a548 26be 4480 183d affc 883f
00000290: fb02 363e 6b0c 93be 5d78 79bc 45e6 07bc
000002a0: 7d4e e4bb c2ca 66bd 84aa c23e 530c f03d
000002b0: dbfa 363d 7857 8e3d 6bbb b13e cc25 06be
000002c0: 3d16 6fbd 7622 8a3f 1803 75ba 25c1 18bc
000002d0: a26c 123c 53e0 13b9 3ab1 b23e fec2 54be
000002e0: 9976 d23d f1ec b7bf f18a c2bf d5aa f7be
000002f0: e39d 22bd ded3 973f 91c7 c3be 6f6f 94bb
00000300: c26e b23d 9beb ec3c 7fe7 8d3c e4b2 ef3c
00000310: 6bb8 11bf 5853 d83e 0df3 4e3e b8e1 0abf
00000320: d370 26be e69e 15be c304 69be 8d81 85be
00000330: 5add ff3d d008 e8bc 4202 843d dbca 7f3d
00000340: 54b1 e63d e656 063e 2a13 983e be91 93bf
00000350: 98ca 9fbf 8b54 693d 1c08 503d 5b15 cebd
00000360: a093 c83b 9df3 e4be cfee 583d 6d8b a7bd
00000370: 4cfd 48bc 419a 11bf 301d 30bc 38aa b2be
00000380: 7755 31be 5ed9 0ebf c485 cd3e 2918 643e
00000390: 9751 b43c e36d 803b bf69 a6be f793 17bd
000003a0: 7512 0fbc 603d 843a 3b31 bc3c f71a 24bf
000003b0: be58 0d3e 4194 d8be 3dcc ddbc 451b 8dbd
000003c0: 3c62 d3bd b846 8dbd 8707 b8be aa59 a93e
000003d0: 0443 dbbc ae3e 623c 4739 993b a7cf 263d
000003e0: 243c 26bf 4c22 0aba a005 6abf 85c1 d83c
000003f0: 4775 d4be cc97 0abd 5a3b d2bb ee2f 14bf
0.08206015 0.5031632 -0.06528564 -0.23785459 -0.38204026 0.59590006 -0.12274548 -0.20187846
0.7965541 0.06643344 0.0027425224 0.021946896 -0.011868109 -0.025392978 -0.30895334 -0.2782057
-0.7364801 0.17038907 -0.121452905 0.36865515 -0.20247754 -0.3449528 -0.13775255 0.064182915
-0.04157593 -0.046750415 -0.16469306 -0.10821858 0.26184157 -0.77215695 0.19342345 0.03216751
-0.16769359 0.1417353 -0.025503919 0.05949758 0.03852758 0.035365317 0.0123899 -0.059144102
0.26810494 -0.018276127 -1.1447762 -1.1385671 -0.408011 0.112411395 0.026177725 -0.5498025
0.009827774 -0.19304338 0.08993115 -0.083602175 0.4547015 0.38130826 0.40844405 -0.06318215
-1.3653536 -0.74885976 0.051189482 -0.6489427 -0.2732695 -0.07864519 -0.091023006 0.0688545
-0.002533841 0.031272624 0.3192944 0.01579988 0.099826194 0.17043248 -0.17016223 -0.07229736
-0.0052809725 -0.13604705 -0.011796678 -0.024774272 0.06229348 -0.06101074 0.2410191 -0.35070753
-0.056562353 -0.529153 0.35880476 -0.15138485 0.29038647 -0.21120961 0.054126516 -0.0893971
-0.029029604 0.020796673 0.0017916807 -0.175914 -0.04939166 -0.26321635 -0.22652747 0.31730738
-0.24308997 -0.071882494 -0.2779221 0.020359935 -0.03565613 -0.0120289 0.028740298 -0.02751021
-0.28305134 -0.012135101 -0.28115556 -0.6965806 0.19315858 -0.33550483 0.29115126 0.11943427
-0.46652594 -0.1586774 -0.005403608 -0.019588003 -0.037053064 -0.22029375 0.29393035 -0.0052506677
0.021561166 0.22924067 0.18413359 -0.03630284 -0.07543778 1.6004193 -0.041588806 0.014829106
0.013501844 -0.0014609882 0.9262564 -0.26707262 0.16125433 -0.68720263 -0.453542 0.31390974
-0.21373098 0.575814 0.59048116 0.7146997 -0.0024560075 -0.0013302314 0.0142272655 0.1497228
-1.8365327 -0.20155774 0.15488519 -1.455195 0.5242605 -0.17657228 0.24613026 -0.2911388
0.21003743 -0.09271646 -0.07136639 -0.02234648 0.32946613 -0.012788342 -0.35585982 -0.69341093
-0.65885055 -0.16238649 0.0372317 1.0702113 0.17774574 -0.28720412 -0.015226451 -0.008294647
-0.0069673643 -0.05634571 0.38020718 0.11721101 0.04467283 0.06950277 0.347133 -0.13100356
-0.058370817 1.0791767 -0.00093464693 -0.009323393 0.008937033 -0.0001410258 0.34900838 -0.20777509
0.10276527 -1.4369184 -1.5198652 -0.48372522 -0.039701354 1.1861532 -0.38238195 -0.0045298855
0.087125316 0.02892094 0.0173223 0.029260106 -0.56922024 0.42251086 0.20209904 -0.5425067
-0.16253977 -0.14611396 -0.22755723 -0.26075402 0.12493391 -0.028324515 0.06445743 0.062449317
0.112642914 0.13119087 0.2970212 -1.1528852 -1.2483702 0.056965392 0.050788984 -0.10062667
0.006121114 -0.44717112 0.05296212 -0.0818089 -0.012267422 -0.56876 -0.010749146 -0.34895492
-0.17317759 -0.55800426 0.40141118 0.22274841 0.022011561 0.0039193495 -0.32502553 -0.037006345
-0.008732428 0.0010089092 0.022972694 -0.64103645 0.13803384 -0.4230061 -0.027074927 -0.06889967
-0.10321471 -0.06898254 -0.35943243 0.3307622 -0.026765354 0.013808889 0.0046760174 0.040725376
-0.6493552 -0.0005269393 -0.91414833 0.026459465 -0.41495726 -0.03383617 -0.0064157667 -0.57885635

fc1.bias f4 [64]
00000000: fb0f e63d f681 1a3e b1cd 623f 21ec 593f
00000010: eebb c43f c98c 7e3f 2233 683e d5ad a5bd
00000020: 5397 0b3f c4ab 5e3e a319 333f 3b03 ba3f
00000030: a480 393f 6c91 19be 3b74 913f ef70 0abe
00000040: b845 7a3f a1de 1e3f fa93 4dbe 5b8d c63e
00000050: 998b 2e3e 46a9 2f3f 55c7 943f 86bd a73e
00000060: 3839 8e3f cdee 833f 5d1d 583f 71a5 1fbf
00000070: 6dd8 0fbe ddb0 793f c98a 9a3f b765 7b3f
00000080: 912f 943e 6ecd 743f ddb5 88bd 1fbc 8e3f
00000090: 9cd2 5e3e e346 21bd 8bde d83e 3821 0e40
000000a0: 30ef 98bc c34c 9a3f d233 e03e 24bd 5c3f
000000b0: 5a35 35bf 7a16 963f 2d4b 5fbf ee8e 5b3f
000000c0: dc4e 2fbf 6b8d 95be ba10 173e 9e89 763f
000000d0: d2e6 0b3f 2c8f 7c3f 40b7 b8be 355a d13e
000000e0: 6afa 653f 7460 90be f310 943f a172 5d3f
000000f0: fd01 213f 8c96 7d3f b4c1 643f 8ed3 2c3f
0.11233517 0.15088639 0.8859511 0.8512593 1.5369852 0.9943357 0.22675756 -0.080897965
0.5452778 0.21745211 0.69960994 1.4532236 0.72461915 -0.1499688 1.1363596 -0.13519643
0.9776263 0.62058455 -0.2007598 0.3877972 0.1704544 0.68617666 1.1623331 0.32761782
1.1111212 1.0307251 0.84419805 -0.6236182 -0.14047404 0.97535497 1.2073604 0.9820208
0.2894254 0.9562596 -0.06675313 1.115116 0.21760029 -0.039374243 0.42357287 2.2207775
-0.018668741 1.2054676 0.43789536 0.86226106 -0.70784533 1.1725609 -0.87224084 0.8576497
-0.68479705 -0.29209456 0.14752474 0.9630374 0.5464908 0.9865596 -0.3607731 0.40889135
0.89835227 -0.28198588 1.1567672 0.86503035 0.6289366 0.9905784 0.8935807 0.67510307

fc2.weight f4 [64, 64]
00000000: a488 093e 1bc7 8fbe 91ac 573e 1d16 853e
00000010: 36b9 853d efb9 083f 0169 d7bd 9d86 7dbe
00000020: 4b3f 0e3e 1c25 1b3f 233a e53e 6c65 663e
00000030: d2b8 983d df45 473e 646e 883c 56a5 2cbe
00000040: 8737 053e 8f7f a13e 857f 983b dc31 0cbf
00000050: 5aa4 933e ad77 8cbc 89c9 2e3f 0154 e0bc
00000060: 68a2 83bd ca0b c33e 436f ba3e 3fc4 5f3e
00000070: 0712 a63d 20ca a73e d6a6 4fbe afff cc3e
00000080: 30b4 ad3c e5ea 1fbd 9797 943c 0a52 483e
00000090: 006d a4bd 000d 85bd 4c13 943e 82a5 e43d
000000a0: 0e36 4abd 537b 9a3e a7bb a73e 15fb b63e
000000b0: 862e 1cbf cad3 aebb 5b8e 14bf e083 2e3e
000000c0: 0e54 26be b78f 6fbd 4bf3 08bf 6ee9 893e
000000d0: 9091 90bd 3db4 8e3e 9f57 8f3d c1df 85bd
000000e0: 0cdc 6a3e f1dd 653d 11ba 013d efda 213e
000000f0: 4acd 5d3d 7b30 263e f2ed cc3e 1ad3 d43e
00000100: 7ffa 48bc bae9 1f3e f31d 343d 9697 99bd
00000110: 5fc1 1b3d 761e 13bf fb0a c0bd 928d 2f3e
00000120: 20c4 d6bd 21dd 0fbf 7146 b63d 2090 d33e
00000130: c67c 1b3e b7e8 b4bd 31dc 993e 9911 5e3d
00000140: 2bc9 723e f624 5a3d c961 b53e 12be 3d3f
00000150: d10a a03e 7b20 2e3e 8eb0 b9be c232 88bc
00000160: d766 173e 2f43 b93d 0d24 1937 c981 62be
00000170: ffa3 553e dfe1 0dbe 30a5 1b3e 69f9 5d3d
00000180: a913 9b3e 4725 b1bd db2a 7fbe 20bd b33d
00000190: 3bfe 3c3e e3b1 483e 8862 7bbe a102 9d3e
000001a0: 0f37 5c3e 687a 0ebe 322b 753d 61f1 bc3c
000001b0: bf5c 00be 2ca8 2a3d 7a04 953d 612a 9c3e
000001c0: 0f26 9a3e dbee f5bb 23de 0e3f 08db fb3d
000001d0: 695c 093e 5454 babe 5ba7 303e d2fc d9bd
000001e0: 9df9 223e 6d7d 553e 01eb 553e 9dde 123e
000001f0: 91f6 d93d b4fd 643e e0a7 ee3d e64a 08be
00000200: dc29 bfbe d5f0 40be 142e 8c3e 24df 863e
00000210: 3a15 333e 11cc 1d3f 911b 1b3e 82f0 553e
00000220: 702c 813e e4e3 cc3e a8d2 25bf d63a 883d
00000230: 17a3 0c3e 0ee8 28bf ef8c c73e c327 e3be
00000240: 0f1f 323e 29a7 cd3e 2d37 e63d c725 5e3d
00000250: 3dc3 4bbd db3e a4be 1ef3 953e 812b 3dbe
00000260: 558f a13d 8f1b 21be e0ae e03d 0841 793e
00000270: 74a3 75bf 5f14 30be bb8e ad3d b8f1 953e
00000280: 305c 5f3e 7fcb ed3d be31 d73d 1f79 29bd
00000290: 8d12 2fbd a244 e93c aaf8 d33d 7542 d6be
000002a0: d3c7 c63d 5064 453e 6754 a63e f1a4 9d3f
000002b0: b7c4 913e 0902 503e 6112 9abe 98b9 a5bf
000002c0: d7ab 6cbf e500 3fbe 4f0a 81be 58d3 b63c
000002d0: 10b2 ab3d 10d4 183f 5b95 bfbd e6e0 93be
000002e0: aa1e 0e3e c1cd 78bf c78e 67bf 7dcf 86be
000002f0: 2c21 913e df7e 2cbf b23e 253e 24b6 99be
00000300: 5b9a 0d3f 1b7a ccbd fecb 2abe 550d e53d
00000310: 7f10 87bf b2e9 a03e a7b9 17be 9ef5 8bbe
00000320: aa70 e93a 39fc ca3e d05e 34be 652e 16bf
00000330: 38b5 86be 067b 95be 48a6 53bf 8c16 81bf
00000340: f68d 1cbf 343c 05be 7e9f 84bf 1252 60bf
00000350: 5b54 13be 0b35 babe acca 543e 7d2c 583e
00000360: c6a4 9abe b579 77be 19aa f03d 90c5 87be
00000370: d3d0 c7be abcc 67bd 42f7 e1be 78d5 15be
00000380: d96d 09bf 2e30 aabc df73 5abe 1525 18be
00000390: 7114 2ebf bebc d3be 3680 aa3e a11b 10bf
000003a0: c67e 19bd f970 343e 3f94 04be c2b1 af3e
000003b0: 0155 6abe a7b3 05bf 96f5 2b3e 0228 1abf
000003c0: 5f99 1bbe 9903 07bf af08 b1bf a082 73bc
000003d0: 73e2 9dbe 107d eb3e 4d1c 37bf 3495 143f
000003e0: aafb b8bc 405a bdbf fcbf 25bf 919a 6ebe
000003f0: 67f6 28bd e2f6 49be f615 a2bd 1412 f539
0.1343103 -0.28081593 0.21061923 0.25993434 0.06529467 0.5340871 -0.10518075 -0.24758382
0.13891332 0.606035 0.44770917 0.22499627 0.07457127 0.19460247 0.0166542 -0.16859946
0.13009463 0.31542632 0.0046538734 -0.5476358 0.28836328 -0.01714691 0.6827627 -0.027383806
-0.06427461 0.38094932 0.3641301 0.21852206 0.08108907 0.32771397 -0.20278487 0.4003882
0.021204084 -0.039042372 0.01813869 0.19562545 -0.080286026 -0.0649662 0.28920972 0.111643806
-0.049367957 0.30172214 0.32760355 0.35738435 -0.6100849 -0.005335306 -0.5802972 0.17042494
-0.16243002 -0.058486667 -0.53496236 0.26935905 -0.07059014 0.27871886 0.06999134 -0.06536818
0.22935504 0.056119863 0.031671587 0.15806173 0.054150857 0.16229431 0.40025288 0.41567308
-0.012266754 0.15616503 0.043973874 -0.07499616 0.03802621 -0.57468355 -0.09377094 0.17143849
-0.104866266 -0.5619679 0.089001544 0.41320896 0.15184316 -0.08833449 0.30050805 0.054216
0.23709552 0.053257905 0.35426167 0.7411815 0.31258252 0.17004578 -0.36267513 -0.016625766
0.14785324 0.090460174 9.127904e-06 -0.22119822 0.20863341 -0.13855694 0.15199733 0.054192934
0.30288437 -0.08649688 -0.24918692 0.08776307 0.18456356 0.19599108 -0.24549305 0.30666068
0.21505378 -0.13913882 0.059855647 0.023064317 -0.1253538 0.041664287 0.072762445 0.30501083
0.3010716 -0.0075052804 0.55807704 0.12297636 0.13414158 -0.36392462 0.17251341 -0.10643925
0.15915532 0.20848627 0.20890428 0.14342733 0.10642732 0.22362405 0.11653113 -0.13309821
-0.37336624 -0.1884187 0.27378905 0.26342118 0.17488566 0.61639506 0.15147234 0.20892528
0.25229216 0.40017617 -0.6477456 0.06651847 0.13734089 -0.6597909 0.3897471 -0.44366273
0.1739466 0.40166596 0.11240993 0.054235246 -0.04974674 -0.32079205 0.29287046 -0.18473627
0.078886665 -0.15733169 0.10970855 0.24341214 -0.95952535 -0.17195271 0.08474489 0.2928598
0.2181251 0.116110794 0.105075344 -0.041375276 -0.0427423 0.02847511 0.10350163 -0.41847578
0.09706082 0.19276547 0.3248627 1.2315961 0.28470394 0.20313276 -0.30092147 -1.2947264
-0.92449707 -0.18652685 -0.25203177 0.022317573 0.08383572 0.5969858 -0.09354659 -0.2888252
0.13878885 -0.97188956 -0.90452236 -0.26330176 0.2834562 -0.6738109 0.16137198 -0.30021775
0.5531365 -0.09984227 -0.1667938 0.111841835 -1.0551909 0.31428295 -0.14816914 -0.2733583
0.0017810066 0.39645556 -0.17614293 -0.5866454 -0.26310134 -0.29195422 -0.826756 -1.0085006
-0.61154115 -0.13011247 -1.0361173 -0.8762523 -0.14387648 -0.36368594 0.20780438 0.21110721
-0.30203837 -0.24167521 0.117511936 -0.26517916 -0.39026508 -0.05659167 -0.44133955 -0.14632213
-0.5368324 -0.020774927 -0.21333264 -0.14857896 -0.6799994 -0.41354936 0.33300942 -0.5629216
-0.037474416 0.1762122 -0.12947176 0.34315306 -0.22883989 -0.5222725 0.16792902 -0.602173
-0.15195225 -0.52739865 -1.3830775 -0.014862686 -0.3083683 0.45993853 -0.7152756 0.58040166
-0.02258094 -1.4793167 -0.6474607 -0.2330115 -0.041250613 -0.19723085 -0.07914345 0.0004674351

fc2.bias f4 [64]
00000000: 490e 413f 4cae 3dbe e75e 853e e1d6 d3be
00000010: eda8 5a3f 5c46 823d 203c b8bd a723 72be
00000020: 7e76 513f b601 073e dfaf 7dbe 1385 68be
00000030: 63db 1dbe e6bc f03d e928 453f 33b5 76be
00000040: 66bd 5a3f 2f1f dabe 8a77 8abe f78c a9be
00000050: 2c4c 6e3f 6e6d 223f ce5d a13e b0eb c6bb
00000060: 0829 c1be c599 5a3f 9244 bcbe cd19 88be
00000070: 34ba 4a3f 9b0e 273f a2ae cebe 146b 6dbe
00000080: 44d0 7dbe 5848 833d d44a 8bbe 3ec9 4f3f
00000090: 8412 543f 4b53 623f c496 46be a7cd 353f
000000a0: de1a 8bbe 8340 dfbd c00f 723f 55ef 533f
000000b0: c9f2 f83d 1252 103e 743d d9be 52d2 99bd
000000c0: e167 a3be e0dc f73e 2574 a43e 0b5b 373d
000000d0: c9f4 553f 20a7 e83e d626 ac3e 8936 4a3f
000000e0: cc17 5b3f 78a0 b63e 9ee0 aabe 4701 523f
000000f0: b21e 553f 8f93 3b3f 1cd8 413f 4a8f c0be
0.7541242 -0.1852352 0.26048967 -0.41374877 0.8541401 0.06361076 -0.08995843 -0.23646413
0.8182143 0.13184246 -0.24774121 -0.22707014 -0.1541572 0.117547795 0.7701555 -0.2409256
0.8544525 -0.42601916 -0.27044326 -0.3311536 0.9308498 0.63448226 0.3151688 -0.0060705766
-0.37726617 0.85390884 -0.36771065 -0.26582184 0.79190373 0.6525666 -0.4036761 -0.23185378
-0.24786478 0.06410283 -0.27205527 0.81166446 0.8284075 0.88408345 -0.1939345 0.71016926
-0.27168936 -0.109009765 0.9455528 0.82787067 0.121556826 0.14093807 -0.42429698 -0.075108185
-0.3191519 0.48410702 0.3211986 0.04476456 0.8357664 0.45440006 0.3362338 0.78989464
0.85583186 0.35669303 -0.33374494 0.820332 0.8324996 0.7327203 0.7572038 -0.3760932

fc3.weight f4 [1, 64]
00000000: f897 e1be e710 533f db9d 333f b772 c33f
00000010: a4e0 afbe b4cb 533f db3c dd3e 304b 7f3f
00000020: f0d9 f0be 95fb 6a3f 6e96 853f 9a6e 3f3f
00000030: 4977 a53e c24c a63f 3f3a d1be 7aef 5e3f
00000040: 94a0 93bf 87e6 d43e f1a4 573f 9c11 373f
00000050: a3c7 c0be d136 cabe 0235 0940 b2e1 983f
00000060: 00d1 123f 82a1 d3be 62ad af3f 5104 173f
00000070: 0386 cfbe 24d0 ddbe 3f65 893e 09c5 1a3f
00000080: 6b75 c63f 5871 923f b133 d63e c8cb bebe
00000090: 2dbb d2be 053c e2be 3a0f 323f 53aa 9fbf
000000a0: b94e 033f f72d 1d3f 6ee0 a4be 626a cfbe
000000b0: 5134 df3f 5e87 583f 8d64 d73f c2db 773f
000000c0: be01 523f ffb9 58bf b11a 2cc0 2526 a43f
000000d0: c6b1 d3be 2ae2 9abf c3d2 debf 3207 dabe
000000e0: 58df c5be 78fd 033f ae21 b83f 9b71 c8be
000000f0: 92f2 c1be f232 fdbe bdaa ddbe 9475 2c40
-0.44061255 0.82447666 0.70162743 1.5269383 -0.34351075 0.827327 0.43210492 0.997241
-0.47041273 0.91790134 1.0436532 0.7477814 0.3231757 1.2992175 -0.4086475 0.8708416
-1.153338 0.41582128 0.84236056 0.71511245 -0.3765231 -0.39494947 2.1438603 1.1943877
0.5735016 -0.41334158 1.3724787 0.5899096 -0.4053193 -0.4332286 0.26835057 0.604569
1.5504583 1.144084 0.41836312 -0.37264848 -0.4115843 -0.44186416 0.69554484 -1.2473854
0.51291996 0.6139826 -0.32202476 -0.4051085 1.7437841 0.84581554 1.6827561 0.968197
0.8203391 -0.8465881 -2.689129 1.2824141 -0.41346568 -1.210027 -1.7408069 -0.42583615
-0.3864696 0.5155864 1.4385278 -0.39149174 -0.3788038 -0.4945293 -0.43294325 2.6946764
