SAC/oldmodels/critic1.pth (torch, 22728 bytes, 5 tensors)

fc1.weight f4 [64, 13]
-0.25144023 0.09816687 -0.26694274 -0.78088325 0.08155129 -0.34713158 0.17423469 0.022298248
-0.31460416 -0.13959189 0.036786743 0.024057208 -0.01525116 0.035684884 -0.5540814 0.0011861697
0.0258238 -0.0018796303 -0.35257646 -0.045718007 0.0055230837 -0.4947221 -0.072086036 0.007762224
0.0034295719 0.0036525226 0.12226108 0.35194826 0.4113841 -0.26960176 0.055439886 0.20825395
-0.16333339 -0.09954141 -0.065061204 0.28618383 -0.21293814 -0.02053218 -0.0051556583 0.23393038
-0.17464252 -0.757726 -0.0010992623 -1.2750146 -0.083945505 0.16976394 1.0382686 0.21216999
-0.36516038 -0.008506088 -0.006597047 -0.085408166 -0.062740766 0.96696615 0.13222364 -0.0015142554
0.20027836 0.4221431 -0.055243157 -0.18290281 0.9978386 0.14104536 -0.0056615155 0.01823128
-0.00890907 -0.40633687 -0.3555875 -0.4719333 0.23003805 0.12190756 -0.0654679 0.11447748
0.12404524 -0.052896433 -0.120307624 0.0044130427 0.032930747 0.003693306 0.11885447 0.39711884
0.118207216 -0.64299154 -0.06197507 0.4483764 -0.3397552 0.1506431 0.34804705 0.48960188
0.09602559 -0.07092413 -0.0056106956 0.29133663 -0.14306635 0.08574541 -1.3080965 -1.1887921
-0.45703983 -0.035182457 1.0090139 -0.18200575 0.009107333 -0.011407766 0.021028912 0.083513595
-0.41385564 -1.5498223 -0.2685463 -0.2865842 -0.30957553 0.21660228 0.60044336 -0.30141222
-0.480562 -0.4525972 0.08466137 -0.07604912 0.05720096 0.8286642 -0.040093575 0.58916736
-0.0051407744 -0.10815839 -0.44662923 -0.5579199 0.661091 -0.01677392 1.2082068 -0.08353623
0.07521309 0.0068249954 -0.27674007 -0.09350384 -0.13891597 -1.006909 -0.94585913 -0.0807626
-0.0022597867 0.13227423 -0.2136538 -0.04703283 0.03207573 -0.047094125 -0.03437411 -0.4975348
0.70887846 -0.5982187 -1.2642144 -1.2042886 0.23027523 0.44590414 -0.3081137 0.05413905
-0.099751435 0.02818268 0.046265505 -0.011308936 0.0065985876 0.5998877 -0.07581354 -0.22119921
-0.3409718 0.389331 -0.6734202 0.41346616 0.89000744 0.12865445 0.04996641 0.013382264
-0.008775238 0.110576645 -0.1952954 -0.25914454 0.1122938 0.15771312 -0.24502885 0.2716802
0.04455595 -0.5958878 -0.14679557 -0.025119292 -0.0065059676 0.006720447 0.14615907 -0.16780472
-0.3890269 -1.2129513 -0.4373763 -0.14180896 0.41481566 0.36012727 -0.3561201 -0.7996586
0.053054217 -0.002175656 -0.040673178 0.6005691 0.5129949 0.24028575 -0.24801901 -0.8059382
-0.3189024 0.2996545 0.011383813 0.1761407 -0.4344746 0.005163505 0.16821897 0.020331506
-0.82632834 0.48857602 -0.10686786 0.36296415 0.087506995 0.11613537 -0.1889975 0.28884497
0.33910406 -0.19196436 -0.0058963676 0.019691162 -0.00403034 1.1225071 -0.32207742 0.1857413
-0.08242065 -0.9612502 0.38677874 -0.30340585 0.7404746 0.6002759 0.8606117 -0.049285896
0.0039027485 0.007880584 0.19727527 0.13110058 -0.1497991 -0.3275983 -0.75397205 0.18845522
-0.018876065 -0.4275278 0.07481009 -0.20044857 -0.0031814496 -0.0045650066 -0.013045285 0.3493412
0.16862671 0.16522597 -0.7264351 0.5225698 -0.08379462 -0.40575907 0.28358698 0.41436213
00000000: c6bc 80be b60b c93d b8ac 88be f7e7 47bf
00000010: 5d04 a73d 3bbb b1be 946a 323e d1aa b63c
00000020: cc13 a1be 2df1 0ebe b2ad 163d 9f13 c53c
00000030: 00e0 79bc 502a 123d 47d8 0dbf 4079 9b3a
00000040: 6f8c d33c ed5d f6ba e784 b4be ce42 3bbd
00000050: fcfa b43b 374c fdbe d8a1 93bd 415a fe3b
00000060: abc2 603b 295f 6f3b 0464 fa3d 9032 b43e
00000070: f0a0 d23e 3e09 8abe ef14 633d 8640 553e
00000080: de40 27be 5edc cbbd cf3e 85bd b086 923e
00000090: 750c 5abe 1a33 a8bc ccf0 a8bb 728b 6f3e
000000a0: 7dd5 32be 55fa 41bf 1f15 90ba ae33 a3bf
000000b0: 9feb abbd 99d6 2d3e fce5 843f 1743 593e
000000c0: 4df6 babe 1e5d 0bbc 0b2c d8bb 7aea aebd
000000d0: 3b7e 80bd 188b 773f a265 073e fb79 c6ba
000000e0: c515 4d3e 2423 d83e a646 62bd e04a 3bbe
000000f0: 5a72 7f3f 326e 103e 3c84 b9bb c459 953c
00000100: 59f7 11bc 630b d0be 910f b6be 3ea1 f1be
00000110: 188f 6b3e acaa f93d 0914 86bd 2b73 ea3d
00000120: 6e0b fe3d eea9 58bd d863 f6bd 499b 903b
00000130: 64e2 063d 640b 723b f969 f33d 2953 cb3e
00000140: a016 f23d 189b 24bf 92d9 7dbd 9791 e53e
00000150: 65f4 adbe 2f42 1a3e 3933 b23e 19ad fa3e
00000160: 11a9 c43d ac40 91bd edd9 b7bb 132a 953e
00000170: fc7f 12be 4a9b af3d b56f a7bf 572a 98bf
00000180: 2001 eabe 7b1b 10bd 5e27 813f b75f 3abe
00000190: ec36 153c a3e7 3abc d344 ac3c 2d09 ab3d
000001a0: e3e4 d3be 9460 c6bf e77e 89be 2abb 92be
000001b0: af80 9ebe fdcc 5d3e a8b6 193f b452 9abe
000001c0: 390c f6be d2ba e7be f162 ad3d a4bf 9bbd
000001d0: 8e4b 6a3d 5623 543f 2939 24bd acd3 163f
000001e0: f173 a8bb 2582 ddbd 96ac e4be d7d3 0ebf
000001f0: 433d 293f 7669 89bc 85a6 9a3f 0b15 abbd
00000200: 5209 9a3d 36a4 df3b e0b0 8dbe f17e bfbd
00000210: fd3f 0ebe 65e2 80bf d323 72bf dd66 a5bd
00000220: ee18 14bb e572 073e 10c8 5abe 7fa5 40bd
00000230: d761 033d c5e5 40bd decb 0cbd e2bc febe
00000240: 0f79 353f dc24 19bf c7d1 a1bf 2126 9abf
00000250: 45cd 6b3e 8c4d e43e 14c1 9dbe e9c0 5d3d
00000260: 7b4a ccbd 5ddf e63c e680 3d3d 1e49 39bc
00000270: f738 d83b 3e92 193f 2144 9bbd 0c82 62be
00000280: db93 aebe 6556 c73e 4465 2cbf d6b1 d33e
00000290: 87d7 633f febd 033e 94a9 4c3d 4941 5b3c
000002a0: 04c6 0fbc 0276 e23d 84fb 47be 98ae 84be
000002b0: 4bfa e53d 8c7f 213e d8e8 7abe ab19 8b3e
000002c0: 4d80 363d 1a8c 18bf 9451 16be f9c6 cdbc
000002d0: 0330 d5bb 3237 dc3b b9aa 153e 00d5 2bbe
000002e0: 892e c7be fd41 9bbf c9ef dfbe 5e36 11be
000002f0: b862 d43e 9a62 b83e 6055 b6be 6db6 4cbf
00000300: 614f 593d 7395 0ebb eb98 26bd e6be 193f
00000310: a253 033f 780d 763e b2f8 7dbe f751 4ebf
00000320: 2d47 a3be 516c 993e 2c83 3a3c 3a5e 343e
00000330: 7473 debe 9f32 a93b 9841 2c3e 428e a63c
00000340: 418a 53bf a326 fa3e 89dd dabd 70d6 b93e
00000350: de36 b33d 62d8 ed3d 9088 41be 7de3 933e
00000360: 0c9f ad3e 4e92 44be 5136 c1bb 5c4f a13c
00000370: f110 84bb 50ae 8f3f 55e7 a4be f832 3e3e
00000380: 28cc a8bd 7e14 76bf dd07 c63e 0358 9bbe
00000390: be8f 3d3f aeab 193f 0c51 5c3f 02e0 49bd
000003a0: 41c5 7f3b 911d 013c 8702 4a3e 3b3f 063e
000003b0: ef64 19be f7ba a7be 5004 41bf 68fa 403e
000003c0: faa1 9abc ece4 dabe 0836 993d 6442 4dbe
000003d0: de7f 50bb 0d96 95bb e4bb 55bc dadc b23e
000003e0: 7bac 2c3e ff30 293e a7f7 39bf 22c7 053f
000003f0: 849c abbd a7bf cfbe 5032 913e 4627 d43e

fc1.bias f4 [64]
0.40035012 0.38794574 -0.14821099 1.019305 -0.9010787 0.96383595 0.5865954 1.1934897
0.4187986 0.111717254 0.9401975 0.92917055 -0.0993001 0.42264298 0.94518286 1.0835186
-0.13746041 0.74072886 0.60178167 -0.57457125 0.36612162 0.5803218 0.186095 0.32578912
1.0264642 1.6423957 1.1631347 0.9193226 0.27604413 1.2819762 -0.16328016 1.1086098
-0.14620861 0.87994546 0.35113406 0.16425218 -0.18713108 0.2824393 0.7076059 0.7112456
0.6694361 0.7007888 1.5774317 1.305648 -0.26992893 -0.09478581 1.3703119 0.58541316
0.19694027 0.15233299 1.2291489 1.0558331 0.9982784 1.0167831 1.0541707 0.391932
0.16245706 0.6816286 0.13949682 0.62971836 0.28568557 0.80058914 1.2223284 0.93034714
00000000: b1fa cc3e d3a0 c63e 9fc4 17be 9678 823f
00000010: 18ad 66bf f4bd 763f 1e2b 163f 45c4 983f
00000020: c56c d63e 04cc e43d c9b0 703f 1fde 6d3f
00000030: da5d cbbd a964 d83e 81f7 713f bdb0 8a3f
00000040: 6cc2 0cbe 68a0 3d3f 5d0e 1a3f 1a17 13bf
00000050: 4b74 bb3e f88f 143f b08f 3e3e d5cd a63e
00000060: 2e63 833f 063a d23f 99e1 943f ba58 6b3f
00000070: a855 8d3e cc17 a43f ea32 27be ede6 8d3f
00000080: b6b7 15be 1b44 613f d8c7 b33e b931 283e
00000090: 4a9f 3fbe e29b 903e a925 353f 3114 363f
000000a0: 2a60 2b3f e566 333f 48e9 c93f 791f a73f
000000b0: 2034 8abe 101f c2bd 6166 af3f a3dd 153f
000000c0: b6aa 493e 2efd 1b3e c054 9d3f 8a25 873f
000000d0: 2c8f 7f3f f325 823f 11ef 863f 50ab c83e
000000e0: 255b 263e 367f 2e3f 41d8 0e3e 3935 213f
000000f0: 6145 923e 69f3 4c3f 4275 9c3f 3b2b 6e3f

fc2.weight f4 [64, 64]
0.2813125 -0.3295113 -0.8634212 -0.1504537 0.0792783 -0.04176684 -0.6082229 0.22204646
0.1084066 -0.41243464 0.28488806 -0.0125597855 -0.060266428 -0.24882084 -0.11549295 0.3309883
0.02590161 0.597128 0.2742286 -0.07450488 -0.3603245 0.16720574 -0.26427355 -0.14293458
0.47763172 0.23268363 0.15491198 -0.07082101 -0.5065803 0.6089775 -0.38948897 0.040351655
0.6479534 0.16649882 -0.48332858 -0.15248741 0.01861631 -0.0021366284 0.19476898 0.32858565
-0.23529951 0.12327442 0.1327501 0.12005566 0.12938587 -0.6174044 0.44659597 -0.90190905
0.46858612 -0.3021967 -0.03207185 0.17000787 -0.1751299 -0.14869504 0.08627029 0.075710654
-0.5516619 -0.33213475 -0.5306237 -0.011839914 -0.8637402 0.27306378 0.20329069 0.23851267
0.29361117 -0.55356914 0.08569777 0.06915582 -0.31301638 0.2130911 0.0885331 0.12759082
0.052281965 0.063473016 0.31287482 0.1430966 0.14989223 0.26669663 0.13065511 0.15109164
0.3203269 0.27099878 0.32009792 0.025244929 0.2676696 0.12874915 0.13607624 0.27735418
0.28716147 0.1444798 0.25422722 0.2705317 -0.30399868 0.3380787 -0.054068893 0.5638864
0.38483137 0.049467895 0.10128001 0.08725957 -0.12461413 0.05450262 0.50022674 0.4433612
0.035522874 0.10546728 0.21603708 0.23359086 -0.18552546 0.13960336 0.11801145 0.091155104
0.5850208 0.05376564 0.23605284 0.29927972 0.07941305 0.24305603 0.2676234 0.27801064
-0.1412355 0.15252146 -0.07139959 0.17233382 -0.23751238 0.27826628 0.27234304 0.28071654
0.2496305 -0.3730381 0.056123093 0.15796402 -0.18323785 0.14325327 0.12777391 0.20144938
0.11090914 0.09325692 0.39206684 0.20636484 0.12303279 0.31523144 0.060640763 0.071517944
0.13925067 0.27665627 0.4202774 -0.05548569 0.15575738 0.22178216 0.17087492 0.12755342
0.38780344 0.16129947 0.32762188 0.27089995 -0.15871629 0.37440023 -0.05467957 0.43562713
0.29375955 0.2042306 0.2056253 0.034830973 0.024357438 0.19245416 0.27919835 0.43591732
0.21884456 0.12257261 0.26351842 0.16601196 0.058565218 0.0644501 0.28695595 0.16606146
0.6354894 -0.07182618 0.22311239 0.22766565 0.023944193 0.42698577 0.166246 0.32136035
-0.040699117 -0.016753353 -0.08245618 0.15678588 -0.12587634 0.33489773 0.324384 0.29491442
0.2424869 -0.9534098 -0.2723143 -0.496815 0.3234077 0.0384904 0.08868905 -0.0551727
-0.59108466 -0.40746194 0.47185895 -0.39876357 0.4358567 -0.11656313 -2.1327794 0.13155457
-0.67133737 0.08035821 -0.039188165 -0.43167323 0.34959596 0.032888506 -0.13689843 -0.6256982
0.6888797 -0.074382216 0.42385086 0.25663665 -0.15851767 0.5308339 -2.197515 0.60298187
0.10130664 0.055784643 -0.21190877 -0.09720596 -0.27946556 -0.31364632 -0.2537716 0.26330566
-0.7073896 -0.189014 -0.45294023 0.21562822 0.012894218 -0.65234816 0.22566275 -0.04669557
0.47239566 -0.8352649 0.10048084 0.20292516 -0.8011914 0.1916064 -0.36260653 -0.36978242
-1.1817691 0.16651459 -1.541024 -0.14005718 -0.08892865 -0.125329 0.079866834 -0.09158855
00000000: 3108 903e b5b5 a8be 2c09 5dbf 8910 1abe
00000010: a95c a23d b513 2bbd 7fb4 1bbf 2660 633e
00000020: 4804 de3d a22a d3be d9dc 913e 8fc7 4dbc
00000030: eed9 76bd e4ca 7ebe 9187 ecbd 4c77 a93e
00000040: 9d2f d43c 61dd 183f b167 8c3e 0496 98bd
00000050: 747c b8be fb37 2b3e dd4e 87be 715d 12be
00000060: 258c f43e 9e44 6e3e 3fa1 1e3e 9b0a 91bd
00000070: 3faf 01bf f3e5 1b3f 196b c7be c747 253d
00000080: 46e0 253f ab7e 2a3e d876 f7be a925 1cbe
00000090: 3b81 983c ad06 0cbb 8571 473e 613c a83e
000000a0: 5bf2 70be 4d77 fc3d a4ef 073e bedf f53d
000000b0: bb7d 043e 370e 1ebf 3aa8 e43e 83e3 66bf
000000c0: 85ea ef3e 87b9 9abe c65d 03bd 8b16 2e3e
000000d0: 4155 33be 8343 18be 7aae b03d 300e 9b3d
000000e0: b739 0dbf 910d aabe f4d6 07bf 33fc 41bc
000000f0: 141e 5dbf 04cf 8b3e 6f2b 503e aa3c 743e
00000100: 3454 963e b5b6 0dbf 5082 af3d 91a1 8d3d
00000110: af43 a0be 8e34 5a3e d850 b53d 2ba7 023e
00000120: 9d25 563d 24fe 813d 2131 a03e ea87 123e
00000130: 597d 193e 768c 883e 74ca 053e c4b7 1a3e
00000140: e301 a43e 5ac0 8a3e e0e3 a33e 74ce ce3c
00000150: fd0b 893e d1d6 033e 9257 0b3e 5e01 8e3e
00000160: d406 933e 83f2 133e 122a 823e 2283 8a3e
00000170: b7a5 9bbe a718 ad3e 5877 5dbd dc5a 103f
00000180: 9e08 c53e d99e 4a3d e56b cf3d 25b5 b23d
00000190: b135 ffbd 243e 5f3d dc0e 003f 3d00 e33e
000001a0: 6f80 113d 3bff d73d d338 5d3e 7132 6f3e
000001b0: 63fa 3dbe 2ff4 0e3e fdaf f13d 87af ba3d
000001c0: ecc3 153f 5c39 5c3d d6b7 713e 313b 993e
000001d0: 4fa3 a23d aee3 783e ef05 893e 6957 8e3e
000001e0: 0aa0 10be 962e 1c3e f339 92bd 4778 303e
000001f0: 7236 73be eb78 8e3e 8c70 8b3e 14ba 8f3e
00000200: 239f 7f3e dafe bebe 54e1 653d 52c1 213e
00000210: b4a2 3bbe fcb0 123e 2ad7 023e bf48 4e3e
00000220: 5524 e33d 7cfd be3d fcbc c83e 4e51 533e
00000230: 9ef8 fb3d 0466 a13e 7362 783d 0078 923d
00000240: ba97 0e3e e4a5 8d3e 992e d73e f644 63bd
00000250: dd7e 1f3e dd1a 633e d6f9 2e3e 5d9d 023e
00000260: 2c8e c63e b02b 253e 0ebe a73e 66b3 8a3e
00000270: 8686 22be 63b1 bf3e aff7 5fbd 850a df3e
00000280: a767 963e d421 513e 708f 523e ecaa 0e3d
00000290: 4089 c73c b412 453e 16f3 8e3e 8e30 df3e
000002a0: ca18 603e 5907 fb3d e3eb 863e 0aff 293e
000002b0: 15e2 6f3d 6afe 833d e4eb 923e 040c 2a3e
000002c0: 6faf 223f 9b19 93bd 9377 643e 2f21 693e
000002d0: 9d26 c43c e19d da3e 643c 2a3e 5889 a43e
000002e0: 1eb4 26bd 543e 89bc c9de a8bd 7a8c 203e
000002f0: bae5 00be b777 ab3e a915 a63e 06ff 963e
00000300: 7c4e 783e aa12 74bf c86c 8bbe 895e febe
00000310: b295 a53e 1ca8 1d3d 9ba2 b53d c5fc 61bd
00000320: 5351 17bf da9e d0be 7f97 f13e bd2a ccbe
00000330: 9c28 df3e a6b8 eebd 757f 08c0 3eb6 063e
00000340: c4dc 2bbf d892 a43d c583 20bd 4604 ddbe
00000350: 3efe b23e 19b6 063d 1a2f 0cbe c22d 20bf
00000360: 6c5a 303f b455 98bd fb02 d93e e165 833e
00000370: 7552 22be bbe4 073f 16a4 0cc0 055d 1a3f
00000380: db79 cf3d 707e 643d 9dfe 58be eb13 c7bd
00000390: 1c16 8fbe 4096 a0be 5aee 81be 00d0 863e
000003a0: 7c17 35bf e38c 41be c8e7 e7be a5cd 5c3e
000003b0: 4542 533c 4a00 27bf 2314 673e db43 3fbd
000003c0: d8dd f13e ecd3 55bf e6c8 cd3d 9dcb 4f3e
000003d0: e11a 4dbf 7834 443e 90a7 b9be 1f54 bdbe
000003e0: 3644 97bf cd82 2a3e 4640 c5bf 266b 0fbe
000003f0: 3920 b6bd 3f56 00be 3991 a33d c792 bbbd

fc2.bias f4 [64]
0.57910013 0.74775124 0.6966298 0.68766207 0.7578626 -0.29588047 0.836006 0.13589698
-0.033740137 0.7695321 -0.3759077 -0.2542781 -0.24226983 -0.262814 -0.5832049 0.7972327
-0.26076284 -0.19509268 0.6235335 0.7337933 0.09491153 -0.06138338 0.7674099 0.039803546
-0.23870951 0.6795418 0.7912311 -0.4050226 0.6526044 0.84560174 0.8008486 0.77973086
0.07960675 0.77136075 0.6704023 0.21319084 -0.18370828 0.7722546 0.13275005 0.7285349
0.6836445 -0.04373885 0.7358053 -0.3454901 -0.087079905 0.27894756 0.73859394 -0.18827459
0.062594935 0.7731951 0.794748 0.7441946 -0.5505386 0.6856054 0.66343075 -0.5219234
0.07598862 -0.20374131 0.80045646 -0.3465931 -0.23957674 0.61190075 -0.1878202 0.7256542
00000000: e83f 143f a06c 3f3f 5556 323f 9f0a 303f
00000010: 4903 423f a57d 97be 7d04 563f 9428 0b3e
00000020: 1933 0abd 0e00 453f f976 c0be bd30 82be
00000030: 9515 78be 8e8f 86be eb4c 15bf 7117 4c3f
00000040: b582 85be 60c6 47be e49f 1f3f e1d9 3b3f
00000050: fa60 c23d 246d 7bbd fa74 443f 0b09 233d
00000060: 4470 74be 74f6 2d3f 1f8e 4a3f 1f5f cfbe
00000070: 1511 273f 5b79 583f 6a04 4d3f 719c 473f
00000080: dd08 a33d e677 453f 7c9f 2b3f b34e 5a3e
00000090: 061e 3cbe 7ab2 453f a1ef 073e 4381 3a3f
000000a0: 5303 2f3f 8227 33bd bc5d 3c3f 14e4 b0be
000000b0: f356 b2bd 37d2 8e3e 7e14 3d3f 0ecb 40be
000000c0: c631 803d 1df0 453f 9b74 4b3f 8a83 3e3f
000000d0: 19f0 0cbf d683 2f3f 99d6 293f c69c 05bf
000000e0: ec9f 9b3d 90a1 50be b7ea 4c3f a774 b1be
000000f0: 9b53 75be 87a5 1c3f f053 40be 79c4 393f

fc3.weight f4 [1, 64]
-1.0916635 -0.41303596 -0.32864144 -2.9577062 -0.39201012 0.9228016 -0.4589235 1.1243206
-2.2277684 -0.54048264 0.82529324 0.93702686 0.5319129 0.6818808 1.1963849 -0.34560975
1.0276607 0.91653115 -0.44962484 -0.38400257 0.9485794 -1.0339069 -0.3817202 1.5981921
0.8948964 -0.29619914 -0.3752408 0.36289418 -0.31008258 -0.9037866 -0.33833203 -0.29509065
0.7465601 -0.34900954 -0.36663488 0.4576632 0.92215914 -0.36155084 1.5200995 -0.6165565
-0.38268158 1.8974594 -0.36769786 0.43000504 0.9349727 -0.5789588 -0.38394976 0.8500473
0.009789008 -0.3244355 -0.3534086 -0.39815032 1.2368203 -0.38642147 -1.3654311 2.5404088
1.0340548 0.50825715 -0.34051666 0.59198356 0.44261876 -0.30641288 0.6452171 -0.3399775
00000000: a1bb 8bbf 7379 d3be b143 a8be 0f4b 3dc0
00000010: 8db5 c8be ba3c 6c3f 05f8 eabe bde9 8f3f
00000020: c293 0ec0 125d 0abf 6b46 533f fee0 6f3f
00000030: 722b 083f bd8f 2e3f 2423 993f c3f3 b0be
00000040: 638a 833f c9a1 6a3f 3a35 e6be fc9b c4be
00000050: 19d6 723f 1057 84bf d470 c3be 8f91 cc3f
00000060: ee17 653f 6aa7 97be 901f c0be 44cd b93e
00000070: 25c3 9ebe 8f5e 67bf db39 adbe 1f16 97be
00000080: 901e 3f3f 61b1 b2be 91b7 bbbe d552 ea3e
00000090: 9f12 6c3f 311d b9be 9f92 c23f a6d6 1dbf
000000a0: d7ee c3be f3df f23f e542 bcbe 9f29 dc3e
000000b0: 5f5a 6f3f a536 14bf 1095 c4be b39c 593f
000000c0: 1362 203c 691c a6be f9f1 b4be 5cda cbbe
000000d0: 2150 9e3f 09d9 c5be 72c6 aebf 0f96 2240
000000e0: e85b 843f 241d 023f 3358 aebe 3c8c 173f
000000f0: ed9e e23e 26e2 9cbe f32c 253f 8811 aebe
