SAC/sac3/actor.pth (torch, 22452 bytes, 6 tensors)

fc1.weight f4 [64, 10]
00000000: 8556 5ebd 6a51 9fbe f7f4 023e c0cb d73c
00000010: 6fcd 7d3d ddee b93d 5289 5d3e 33e3 0c3e
00000020: 81ab 90be a5a8 82be 6b1c a7be ff3c d4bd
00000030: 2df2 40bc e1ac 50be 7689 72be 857c 553e
00000040: bb86 6b3d d031 043e 252e 873e 788f 92be
00000050: 277d f73d 6a9c 2b3c 5150 94be 315e f2bd
00000060: 1e76 88be 2776 28be 6fbc c83d ebf8 9e3e
00000070: 5090 6bbd de1c b8be fcbd 033e 6aae 843e
00000080: b5e3 5fbe d779 6e3c 223f 2fbd 5b5c 19be
00000090: ca3f 93bd b7d1 bebc 81da 99bb 66b5 e63c
000000a0: 86c8 dabd 1f1c 54be 564b 3b3e 9997 a8be
000000b0: 6149 1a3e bef3 05be 8ce8 88be be5d 37be
000000c0: 42ac 803c 43fc 4e3e 0f42 683e 4d70 9b3e
000000d0: 0801 75be 0e04 a63d 9b9d 913e 9dfb 863d
000000e0: 24b7 90be daee 1fbe f33d 2d3e 93dd 74be
000000f0: e1c2 883e e128 43be 283a e13c 0e41 333e
00000100: ec06 ccbd b5b2 fabd bf11 6b3e 5eeb 8fbe
00000110: 4b23 91be c2bb a53e cbb0 9ebd 5d7b a83d
00000120: 72eb 79be ec77 20be de3c 64be 4c55 01be
00000130: 8728 24be c92f 8f3d 6035 aebd d638 3b3e
00000140: 126d 863d 5bff 983e c198 49bc 99bb 49be
00000150: 6881 86be c5e2 153e 2f60 dc3d da84 2b3e
00000160: 9285 813c 44cb 6b3e cc37 5f3e 23f4 6a3e
00000170: c7d7 0b3d bef9 063e ce3f b03d 6384 983e
00000180: 9b38 20be 0e36 94be c603 89bd c979 92bc
00000190: c8a4 773e a3da 9dbe 3f98 09be 065e 35be
000001a0: d577 cbbe f528 af3c 4e46 1a3e ddd7 80bd
000001b0: 3743 8a3e a8f4 56be b450 71bd 9991 b9bd
000001c0: 4086 f33d e6b6 b13d ace6 6e3e 3fdb 5d3e
000001d0: 2809 7abd b208 0f3e efac 893e c8e1 2d3e
000001e0: 10ee 91bc 2c85 07be f499 893e d0a4 803e
000001f0: 92b2 8d3d 2598 e1bc 43ef 553d 1f5d d9bd
00000200: 530d 873e 609d f93b ed0e 1fbe 3eb6 753e
00000210: 1884 4bbd 2f1d 943e 689c d1bc 41a4 a23e
00000220: a445 433e 041e 77be c0de 643e d8c7 843e
00000230: 20a9 313d d6f7 023e cfc4 c23d 635b 84be
00000240: 881e debe 7354 693e 6ff3 07bd f5e9 bc3b
00000250: c29a 33be c250 82be 76b2 7dbe 4e88 d53d
00000260: 0f0e ac3c 8812 a6be 98cb 12bf 4126 79be
00000270: ae36 83be 09e2 2e3d 7a97 233e 075c 8dbe
00000280: 4344 22be ac5a b23d dcd0 1a3d 0a2a 8dbe
00000290: 6a22 32be 5c20 7f3e 7d7a 8dbe 8027 26bd
000002a0: ebb7 223e faea 843d dbfa ecbd 1b22 31be
000002b0: aeb9 32be 0e93 69be 658f d5bb bd44 40bd
000002c0: b6ad 2cbe 5495 dbbd e458 503e e980 6a3d
000002d0: a0c9 133c 0ddd 0fbe 4070 96be 44fa 083d
000002e0: 182f 3fbe 192b 913e e9d2 b53d bf80 c5bd
000002f0: f4cc 23be 7878 97be b4cd 923e a17a 7c3d
00000300: 1337 33be ad7f 49be 18fc 453e 2174 173e
00000310: f88b f9bd e84c 453e 2227 133e cc93 7abe
00000320: 75cc 8d3e 2f4b 693e c22a 963d 2cf6 12bd
00000330: 75f0 2fbe 9e18 2fbb 9b46 9cbd e525 df3d
00000340: 9bda 20be b32a 7fbd d93f 35be ab43 953e
00000350: 0222 8d3e 2cf2 2bbe 1f79 883e 5286 653e
00000360: 7144 363e 74cb b5bc c80a ecbd c114 9f3d
00000370: 15c7 27be fb0d 1c3b 4272 033e 6590 7f3e
00000380: 37e7 a73e c578 53be 4c37 f93d fbf7 013e
00000390: 9a1b b43d 1941 0f3e 5a40 193e 9a5b 5f3d
000003a0: 16e5 723d e2c4 893d ad53 813d 30db 263e
000003b0: 5c26 083e 9224 853e 129e c53c 3992 e93d
000003c0: c35c d5bd 8fa4 983e 0f4e 6e3e a05a 403e
000003d0: 9078 9fbe 961d 6d3e 641d 9a3e fe1c 923e
000003e0: c149 b2bd aa1e 2d3e 07b2 d9bd 6d3e 92be
000003f0: c5d2 b83d b339 cb3d cea4 8ebe 9061 283d
-0.05428173 -0.31116802 0.12788759 0.026342273 0.061963495 0.09078763 0.21634415 0.13758545
-0.28255847 -0.2551929 -0.3263887 -0.103631966 -0.011776489 -0.20378448 -0.2368525 0.20848282
0.057501536 0.12909627 0.26402393 -0.28625083 0.12084418 0.010474304 -0.28967527 -0.11834372
-0.26652616 -0.16451322 0.09801566 0.31049284 -0.057510674 -0.35959524 0.12865442 0.25914317
-0.21864207 0.014555416 -0.042784818 -0.14976637 -0.07189901 -0.02329336 -0.004695237 0.02816267
-0.10682778 -0.20713852 0.18290457 -0.3292816 0.15067054 -0.13081262 -0.2673992 -0.17906854
0.015707139 0.20213418 0.2268145 0.30359116 -0.23926175 0.08106242 0.28440556 0.0659096
-0.28264725 -0.15618458 0.16918163 -0.23912649 0.2671118 -0.19058563 0.027493551 0.17505285
-0.09962258 -0.12241117 0.22955988 -0.28109258 -0.2834724 0.3236981 -0.07748564 0.08226655
-0.24406222 -0.15670747 -0.22288844 -0.12630194 -0.16031085 0.06991536 -0.08506274 0.182834
0.06563772 0.2988232 -0.012304486 -0.19700469 -0.26270604 0.14637287 0.10760533 0.16749898
0.015810762 0.23026758 0.21798629 0.22944693 0.03414133 0.13181207 0.0860592 0.29788503
-0.15646593 -0.2894749 -0.06690173 -0.017880337 0.24183953 -0.3083087 -0.13436984 -0.17711648
-0.39739862 0.021381835 0.15065882 -0.06291173 0.27004406 -0.20991766 -0.058914855 -0.09060974
0.118908405 0.08677463 0.23330182 0.21665667 -0.06104389 0.13968161 0.2688975 0.1698066
-0.017813712 -0.13234395 0.2687527 0.25125742 0.06918825 -0.027538368 0.05223013 -0.106134646
0.26377353 0.0076176375 -0.15533037 0.23995301 -0.04968652 0.28928515 -0.025587276 0.3176594
0.19069535 -0.24132544 0.22350597 0.2593372 0.04337418 0.12789854 0.095101945 -0.25850973
-0.43382668 0.22786121 -0.03319114 0.0057651945 -0.17539504 -0.25452238 -0.24775109 0.10426389
0.021002797 -0.32436013 -0.5734191 -0.24330999 -0.25627655 0.042696033 0.15975752 -0.27609274
-0.15846352 0.087087005 0.03779684 -0.27571136 -0.1739594 0.24914688 -0.27632514 -0.040565014
0.15890472 0.06490131 -0.115712844 -0.17298166 -0.17453644 -0.22810003 -0.006517338 -0.046940554
-0.1686314 -0.107218415 0.20346409 0.057251845 0.009020239 -0.14049168 -0.29382515 0.033441797
-0.18670309 0.28353193 0.088781185 -0.09643697 -0.15996152 -0.29584098 0.28672564 0.061640386
-0.17501478 -0.1967761 0.19334447 0.14790393 -0.121849 0.19267619 0.14370397 -0.24470443
0.2769505 0.22782587 0.07332374 -0.0358793 -0.17181571 -0.0026717554 -0.076306544 0.108959
-0.15708391 -0.06229658 -0.17700137 0.2915319 0.27565008 -0.167916 0.26654908 0.2241452
0.17799546 -0.02219174 -0.11525494 0.0776763 -0.16384538 0.0023812044 0.12836555 0.24957426
0.3279359 -0.20651539 0.1216875 0.12692253 0.08794327 0.13989677 0.14965954 0.054530717
0.059300505 0.067270055 0.06314788 0.16294551 0.13295883 0.26004463 0.024123225 0.11404843
-0.104180835 0.29813048 0.23271964 0.1878457 -0.3114667 0.23155817 0.30100548 0.28537744
-0.08705474 0.16906229 -0.10629659 -0.28563252 0.09024576 0.09923115 -0.2786011 0.041108668

fc1.bias f4 [64]
00000000: 3ee3 95bd 09e0 443e 97f6 42be 2ff3 4fbe
00000010: 00ee abbd 1e4b 01be 3fdd 663e f157 4d3e
00000020: e7e3 563e 5d20 37bd 35c6 003e 7adc c9bd
00000030: 8df3 80be b7ab 59bd 12ca 423e 9737 6fbe
00000040: a794 6a3e b11a 76be 2eee b93d 4c73 4a3e
00000050: f35a 823e ceac 63bd b7bd 293e f7b9 98be
00000060: edab 973e 65fa 07be 6496 11bd 57ff 083e
00000070: f035 f43d fa80 703e 9bc4 5f3d c0ca c53b
00000080: 47aa 3dbe b073 04be 0e52 43be 12d7 2ebe
00000090: 55cc 57be ab8d 883e 56b2 023e f0df 8bbe
000000a0: 1f37 2f3e 72d5 4b3e 72f8 8abe 3929 fa3d
000000b0: 6da5 1d3d 4bd9 943e 47c1 3bbe 150b 623d
000000c0: 68aa 31be f8ad 8e3d 4e6a 343d ad0d 853e
000000d0: b26d 1bbe c867 953e 7337 1f3e dc90 4b3d
000000e0: 72b6 c7bd eb5d 94be fc65 4cbd f260 8f3d
000000f0: 9050 563e b01b 1d3e 0a7b 7b3e 78d5 223e
-0.07318734 0.19226088 -0.19039379 -0.20307611 -0.08395004 -0.12626311 0.22545336 0.20053078
0.20985375 -0.0447086 0.1257561 -0.09856506 -0.25185814 -0.053142276 0.19022396 -0.2336105
0.22908269 -0.2403362 0.09078632 0.19770545 0.25460014 -0.05558472 0.16576277 -0.2982938
0.29623356 -0.13279112 -0.035543814 0.13378654 0.1192435 0.234867 0.054630857 0.0060361326
-0.18521987 -0.12934756 -0.1907427 -0.1707423 -0.2107404 0.26670584 0.12763342 -0.27319288
0.17110871 0.19905642 -0.27142674 0.12214894 0.03848784 0.2907203 -0.18335448 0.05518635
-0.17350161 0.06966776 0.044046693 0.25986996 -0.15178564 0.2918074 0.15548496 0.049698696
-0.097515956 -0.28977904 -0.049901947 0.07000913 0.2092917 0.15342593 0.24558654 0.15901744

fc2.weight f4 [64, 64]
00000000: 7793 933d a8f5 76bd 92c2 e5bd b767 b73d
00000010: 118d 273c 6437 b53d c98b 853d 381d 083e
00000020: 0c1d 6f3d b7f8 c9bd 1118 9c3c a187 f9bd
00000030: a276 123d 5d76 053e 36f7 783c f699 9ebd
00000040: 017a 543d b920 02bd 1273 4c3d 0a1e 22bc
00000050: e71f b13d 0000 79bd 8b01 d13d a949 79bc
00000060: 936e ff3d 4fa6 7d3d dbf4 ac3d 63e1 b7bd
00000070: 30db 793c c46d 09bd 56a9 063e 9eff 1f3d
00000080: 93af e1bd 30e5 0d3d 9544 3a3d 4c49 e9bd
00000090: 59c2 6e3d bf80 8e3d 10d7 f43b 894c b0bd
000000a0: cf33 d8bc 855b cfbd b55a 53be e460 23bd
000000b0: 0b0d e73c 0ef4 d8bd bb3e 38be b7bd dfbd
000000c0: 71f0 be3d a6df 9fbd 62a1 0f3e 0332 053d
000000d0: 70ba 07be 6057 91bb 9ce1 9dbd 1ab0 c1bd
000000e0: 50eb 2c3d dd30 123d 6f0b f3bd 489e a1bd
000000f0: d617 03be 162a 7f38 9405 a93b 17bd a5bd
00000100: 7209 d73d cd0f 653d de37 d43d e6d2 78bd
00000110: b515 33bd 90bc 7dbd 1d55 2fbd d062 663d
00000120: 4374 073c 59c0 ecbd 4511 03bd f0f3 dc3d
00000130: b0f3 f03d 1868 bbbd df72 2ebd 7cef 65bc
00000140: 90d1 843d f08f 293c 9edb 163c 9af8 d43d
00000150: 77a1 b2bd de5b b6bd 63ed d33d e0a7 8a3d
00000160: a582 0cbe 4fd2 a53d d14c 87bd fb4f 243d
00000170: ca1d 63bc 3eb4 8d3d 8a74 0cbd 4994 933d
00000180: e35f b63d 9104 533d a6ac 83bd 0e6d aebd
00000190: 32c5 27bc 18e0 853d 7a09 cebd 59ae 853d
000001a0: 2306 653c 14d1 22bd 541d 063d 7752 8c3d
000001b0: 9986 4ebd 3481 843d 64ff e63d d0d4 88bd
000001c0: b96e 62bd 2f0f ae3d 3405 a83d 41b9 4dbd
000001d0: 1c36 83bd 1c0b 1abd 486e 273c b053 dc3d
000001e0: 555b 9a3d 075c 6cbd 0bdf 983d 8fdb ba3c
000001f0: 20cf 15bd 398b af3d dd9f 87bd 1609 a03d
00000200: f98a 833b a627 b73d 1a2c 63bd c323 563d
00000210: fd87 ccbd 850c 983d 7e4c 033e 5612 f73d
00000220: 935b d8bd db87 75bd 6c25 3dbd 72b7 103c
00000230: 0a2e 383d 15a0 823d a1c0 28bd c0d8 113d
00000240: 8b13 fe3b da57 d2bd 3914 c73d 8e9f adbc
00000250: a878 9c3d 44ba dabd 47ea 0f3e cf60 d6bd
00000260: fdf1 123e adfa 0cbe d9ff 1abd cdef 863d
00000270: 1e2b 02be e9a8 debd 3c82 bebd ad8c 123d
00000280: 2992 abbd baff 18be e811 adbd 1973 aa3c
00000290: c92f 2abd c964 c93d 2689 483d cd4e e03c
000002a0: 7311 5bbc 0569 8abd de65 febd 6f8c 91bc
000002b0: dc0e bfbc 32ce 743d c489 f83b 58be 14bc
000002c0: aca0 91bd 7352 ba3c 45e4 9cbd e605 cf3d
000002d0: 1e71 fdbd 6111 fa3d 4324 d83d 2b89 8ebd
000002e0: 022d 5a3d 27a2 0dbd a5be 57bc 0b26 0f3e
000002f0: b772 6cbd 272a e0bd 2143 af3d ed15 1abd
00000300: b10f 073d 046f 743c ce46 c13a 3501 84be
00000310: e3e8 87bd 2131 b5bd 05c0 f0bd 6990 05bc
00000320: 8863 d03d 4791 d13c fcfc 5b3c f94e c93d
00000330: d7c8 303d 2017 d83d 00a7 2abd fd4d e5bd
00000340: 2fc5 743d 24ba 73bd d73c 8fbd 8482 933c
00000350: 7c6a e6bd 68f2 683c ee3f 2e3c b74d 393d
00000360: 6813 1f3d 3ef8 03be a150 9abd 81e8 a33d
00000370: dd75 043d a780 1cbd 0a7d c6bd e084 d0bd
00000380: 657f 483c d320 babd bf9a 9f3c aaf7 173d
00000390: 5fd5 91bc ad0d 893d 4fea ebbd f39d 0dbe
000003a0: 2dae c33d 4932 e3bd 739d 1ebe 07d8 1d3d
000003b0: 7824 f43c aaaa 713c 7df1 27be dcf6 e0bd
000003c0: 917c 923d 3901 bc3d 31a1 ccbd 5064 02be
000003d0: a8cf 433d 3009 9cbc 7845 ebbd f041 0f3e
000003e0: efee a93c c912 21be 229a 9fbc 5f3c 5b3d
000003f0: c685 a5b9 8d43 d2bd 611b c53c 98bd a43c
0.07205861 -0.06029287 -0.11218752 0.08955329 0.010226504 0.088484555 0.065208025 0.13292396
0.05837731 -0.09861892 0.019054445 -0.12184072 0.03575767 0.13033433 0.015195658 -0.077442095
0.051874164 -0.031769488 0.049914427 -0.009894857 0.08648663 -0.060791016 0.102053724 -0.015215316
0.12472262 0.061926182 0.0844514 -0.08978536 0.015250012 -0.033551946 0.13150534 0.039062135
-0.11019816 0.0346424 0.04547556 -0.113909334 0.058290813 0.0695815 0.0074719265 -0.08608348
-0.026391892 -0.10124878 -0.2064007 -0.039887324 0.028204462 -0.10593425 -0.1799268 -0.10924857
0.09323204 -0.078063294 0.14026406 0.032518398 -0.13254714 -0.0044354647 -0.07709047 -0.09457417
0.0422166 0.03569113 -0.11867415 -0.07891518 -0.12802061 6.0835933e-05 0.0051581357 -0.08092707
0.104998484 0.055923272 0.10362218 -0.060748003 -0.043721873 -0.061947405 -0.04280578 0.05624658
0.008267465 -0.11560125 -0.03199889 0.10788715 0.1176523 -0.09150714 -0.04259002 -0.014034148
0.064852834 0.010349259 0.009207634 0.103989795 -0.08722203 -0.08904241 0.10348012 0.06770301
-0.13721712 0.08096754 -0.066064484 0.040115338 -0.013862083 0.06919144 -0.034290828 0.072060175
0.08905008 0.051518027 -0.064294145 -0.08516894 -0.010239886 0.06536883 -0.10060401 0.06527395
0.013978514 -0.039750174 0.032742813 0.068516664 -0.05042133 0.06469956 0.11279181 -0.06681216
-0.055281375 0.0849899 0.082041174 -0.0502255 -0.06406805 -0.03760825 0.010219164 0.107581496
0.075369515 -0.05770495 0.07464417 0.022809772 -0.036574483 0.085714765 -0.066222884 0.07814233
0.0040143696 0.08943109 -0.05546198 0.0522802 -0.09986875 0.07424263 0.12822148 0.12064044
-0.105643414 -0.059944015 -0.046178266 0.008832799 0.04496578 0.063781895 -0.04119933 0.0356071
0.0077537945 -0.102706626 0.09720654 -0.021194246 0.07640201 -0.106800586 0.14054213 -0.104676835
0.14350124 -0.137675 -0.03784165 0.06588707 -0.1271176 -0.10872061 -0.09302184 0.03577869
-0.08377487 -0.14941302 -0.08450681 0.020806836 -0.041549478 0.09833676 0.04895892 0.027381325
-0.013370859 -0.06758312 -0.124217734 -0.01776716 -0.023322515 0.059766956 0.0075847823 -0.009078585
-0.07110724 0.022744393 -0.076607265 0.10108547 -0.12375091 0.12210346 0.105537914 -0.069597565
0.05326558 -0.03457847 -0.013168012 0.13979356 -0.057726588 -0.1094554 0.08557726 -0.037618566
0.03297395 0.014919046 0.0014745833 -0.2578217 -0.066362165 -0.08847261 -0.11755375 -0.008152106
0.10175234 0.025581969 0.013427015 0.09829516 0.043160286 0.10551286 -0.04166317 -0.11196516
0.05975836 -0.05950369 -0.06994026 0.01800657 -0.11250779 0.01421795 0.010635359 0.04524013
0.038836867 -0.12887666 -0.0753491 0.08003331 0.032338966 -0.03820863 -0.09691818 -0.10181594
0.0122374045 -0.09088292 0.019482968 0.037101425 -0.017801939 0.066920616 -0.115193 -0.13829784
0.09554706 -0.110935755 -0.1548975 0.038536098 0.029802546 0.014750162 -0.16400714 -0.10984585
0.071526654 0.09179921 -0.09991682 -0.12733579 0.04780546 -0.01904735 -0.114878595 0.13989997
0.020743815 -0.15729822 -0.019482676 0.05352437 -0.0003157092 -0.102667905 0.024060907 0.020109937

fc2.bias f4 [64]
00000000: f585 923d 254a fd3c ce13 083b de30 4f3d
00000010: abb1 013e a045 003e 87b9 83bd 1df8 d13d
00000020: f0a5 9f3e e4ba 273d c516 c4bd 5307 41bd
00000030: 68b5 ec3b d292 1e3e da49 7dbc dbc4 4abd
00000040: f7d5 69bd c984 c3bd 81c7 b23d a5c5 a13d
00000050: d6ae 09bd 382d ffbd 994e a63e 6d22 e03d
00000060: 8837 1e3d 1fab b0bd 8dd1 5ebd 3797 113c
00000070: 8ed2 e83c d55e f63c 0194 8fbc 86f2 0a3e
00000080: 1a70 ea3c aeab a7bd 9307 62bd db71 1a3e
00000090: 48b0 2dbd 7b63 00be e39d d1bc eddc 9e3d
000000a0: 4ea2 b63d ce2e 9dbd 3e76 8bbc ca77 acbd
000000b0: 3f6e f6bd 9393 86bd d8de 21bd 5245 b23d
000000c0: 4127 08be 0e88 033d 0170 8e3d 49c0 e0bd
000000d0: d12e d0bd fdb8 c03d f76a 8abd 248a 353d
000000e0: 4b66 cdbd 8cc1 36bd 17d7 813c be2c 563d
000000f0: 0520 b23e fe88 053d d995 813d 9600 063d
0.071544565 0.030919144 0.0020763758 0.050583713 0.12665431 0.1252656 -0.06431871 0.10252402
0.31181288 0.040949717 -0.095746554 -0.047126126 0.0072237737 0.15485695 -0.015459502 -0.049504142
-0.05708882 -0.09546811 0.087294586 0.07899026 -0.033614002 -0.12459797 0.3248184 0.10944066
0.038627177 -0.08626389 -0.054399062 0.00888615 0.028420713 0.030074516 -0.017526628 0.13569078
0.028617907 -0.08187042 -0.055183005 0.15082495 -0.042404443 -0.12537949 -0.025587982 0.07756982
0.08917676 -0.07674943 -0.017024156 -0.084212855 -0.120327465 -0.06571116 -0.03951916 0.08704628
-0.13296224 0.032112174 0.06954957 -0.109741755 -0.101651795 0.09410284 -0.06758683 0.044321194
-0.100292765 -0.044618174 0.015849633 0.052288763 0.34790054 0.03260135 0.06327409 0.032715403

fc3.weight f4 [3, 64]
00000000: 8058 9d3d 9d75 983d f783 7c3d ca71 ed3c
00000010: 5477 173d 2621 9bbd f7c1 12bf f25e e5bc
00000020: 7447 50bf 06f5 8ebd 3872 383c bb73 28be
00000030: 7635 88bd 240d 58bf ca6f c43d 5297 eebd
00000040: 670e dd3d 5653 233a 1513 e43d 5a50 85bf
00000050: c7f7 b8bd 9e48 81bc 64ff ccbf bead ba3d
00000060: 736b 9e3d 9661 1a3d e21e cabc b708 3a3c
00000070: 4d2c d9bd 55f1 a63c 60f9 293a 8a2c 0dbe
00000080: 2563 a8be d36b ecbd 6e8f 2dbe 128e 3abc
00000090: 5beb 763d 1609 acbd c57f 15bd e33e 0d3d
000000a0: fc33 d9bd bb32 4a3d 4c63 17be 6350 7cbd
000000b0: 2e61 213d 6e0a 30bd 1fd0 babd 75b6 ee3d
000000c0: ecc5 5fbd e5dc d5bd 2061 b0bd 143b e9bd
000000d0: 0279 e8bd d336 3dbd cca4 61bf 6ad3 573c
000000e0: 3c46 82bc edac 4fbc 3ce8 f73c 4aa7 1e3c
000000f0: acff 8bbe f1dc b8bd 70d6 c43c e3e0 933d
00000100: b6e1 9fbd 7bcf a53d 9497 dbbd 50c3 66bd
00000110: 1c31 b9bd c80f e0bd 29b1 bdbd 3ff8 70bc
00000120: 9cc8 0d3f 0a8f 07bd 1b74 02be b148 71bd
00000130: 7e29 3cbd 71d6 b43d 7ae9 a93c d99e b13d
00000140: b58a 4b3c a42f 7a3d 1194 c93d cf88 d3bd
00000150: 024b f9bd 1e4e e0bd 4df4 aa3f 9b23 b93c
00000160: 5ff0 b93b aad3 083f 4bed 54bd a34b 02be
00000170: c5a7 8e3d 9518 233d feb9 d6bd 7a20 11be
00000180: 0ddc 88bd e4b1 f5bb e957 1f3d a4c3 823e
00000190: 4ab5 1abd 8e48 2cbe 2908 013c bc30 a63d
000001a0: e772 42bd bf0d c2bd f4ea 0a3e 0687 743e
000001b0: 04e0 97bd 9c97 113d f08c 31bd 762a 343c
000001c0: 7a28 41be bd40 7cbd a591 e4bb 68a7 91bd
000001d0: d6c4 06bc 70ee a13d 6b47 6b3d 70c4 84bd
000001e0: de87 e0bc 492f 063e 8a03 7a3c fa32 133d
000001f0: 3ae3 f13e 11d4 8abd 878a c1bd eb33 6dbb
00000200: 221c e73d 69a9 93bd d0fb ffbc d59f d03c
00000210: 6647 5fbd c51f a13d 2ab4 b6bd 09e1 203e
00000220: 26ae 053f 1602 8cbd d028 58bc eb91 643d
00000230: 325e b63d c5b7 bd3e cdfa 8dbd 4567 89bd
00000240: 164d a33d 0393 a7bd 1ca9 a2bd c302 d13d
00000250: a105 043e df43 50bd cc62 5a3f dad4 c53d
00000260: b201 2b3c 17ac 1b3f 5153 9fbd f8be c2bc
00000270: 2a90 3abc 181f dd3d 7947 bf3d e86d 123e
00000280: 44b1 193d cdf2 833d 1b1b d9bd cf4e 533f
00000290: 7874 943d be3f d4bd 0896 febc ba1a 593d
000002a0: c2d3 92bd 6fc9 cfbd ff06 0f3e 1ca5 8d3e
000002b0: 8167 b23c 17c8 ad3d ff80 093e 258d 45bd
000002c0: 6aa2 913d 0190 cd3d 0951 203e baa6 25bd
000002d0: be78 0a3e 6ee2 173e 7ffa e23e f85c 63bd
000002e0: 7bf3 993c 4694 4fbd f0bc bf3d 1146 f83d
000002f0: d6db 293f 5bcb 8dbd 1168 f33d 3d65 1abd
0.07682896 0.07444308 0.06164929 0.028984923 0.036979035 -0.07574682 -0.57327217 -0.027999375
-0.8135903 -0.06980328 0.011257701 -0.16450398 -0.06650822 -0.8439505 0.095916346 -0.11649956
0.10793763 0.00062303746 0.11136452 -1.0415146 -0.09031635 -0.015781697 -1.6015439 0.0911517
0.07735338 0.03769072 -0.02467293 0.011354617 -0.10604153 0.020378748 0.0006483998 -0.13786522
-0.3288814 -0.11544003 -0.16949245 -0.011386411 0.060283046 -0.084001705 -0.036498804 0.0344838
-0.10605618 0.049364787 -0.14783973 -0.0616001 0.03939932 -0.042978697 -0.09121727 0.11655895
-0.054632112 -0.10442523 -0.08612275 -0.113882214 -0.113512054 -0.046194863 -0.88142085 0.013172964
-0.015902631 -0.012675506 0.030262105 0.0096834395 -0.273435 -0.09026516 0.024028033 0.07220628
-0.07806723 0.080962144 -0.107222706 -0.05633861 -0.0904257 -0.1094051 -0.09262306 -0.014707624
0.5538423 -0.033095397 -0.12739603 -0.058907215 -0.045938008 0.08829964 0.020741213 0.08672876
0.012423207 0.06108059 0.098426946 -0.103288285 -0.1217251 -0.109524 1.3355805 0.022599986
0.0056744064 0.53447974 -0.051984113 -0.12724166 0.06965593 0.039818365 -0.10484694 -0.14172545
-0.06682596 -0.007498013 0.038902197 0.25539887 -0.037770547 -0.16824552 0.007875481 0.08114764
-0.04747286 -0.09475278 0.1356619 0.23879632 -0.074157745 0.035544977 -0.0433473 0.010996452
-0.18863097 -0.061585177 -0.00697537 -0.07112008 -0.00822564 0.079068065 0.057441156 -0.0648278
-0.027408537 0.13103975 0.015259633 0.035937287 0.47243673 -0.0677873 -0.0945025 -0.0036194276
0.11284663 -0.07210047 -0.031248003 0.025466839 -0.05451145 0.07867388 -0.08921082 0.15710844
0.52218854 -0.06836335 -0.013193324 0.05580322 0.08904685 0.37054268 -0.06932602 -0.0670915
0.07973687 -0.08182337 -0.07942411 0.10205605 0.12892772 -0.050845977 0.85307 0.09659739
0.010437416 0.60809463 -0.07779563 -0.023772702 -0.01138691 0.10796946 0.09339804 0.14299738
0.03752257 0.06442795 -0.10600873 0.8254213 0.07248777 -0.1036372 -0.0310774 0.053004004
-0.07169296 -0.10145842 0.13967513 0.2766503 0.02177787 0.0848543 0.13428114 -0.04823031
0.07111056 0.10037232 0.15655912 -0.040442206 0.13522622 0.1483247 0.44331738 -0.055508584
0.018792858 -0.050678514 0.09362209 0.12122739 0.6635107 -0.069235526 0.118850835 -0.037694205

fc3.bias f4 [3]
00000000: b6e9 cebd cdc2 313c 124c 0bbd
-0.101031706 0.010849667 -0.034008093
