SAC/sac3/critic2.pth (torch, 22728 bytes, 5 tensors)

fc1.weight f4 [64, 13]
000000 18 95 0c 3e 5e 39 b5 bd 75 56 fb bc 64 29 8d bc
       0.1372875 -0.088488325 -0.030680874 -0.01723165
000010 fa 62 5a 3e fb b5 d7 bc c7 f2 3f be 57 31 cb 3e
       0.21326819 -0.026331892 -0.18744956 0.3968608
000020 98 91 19 3e 35 c7 b1 be 88 8c 83 3e 08 9f 4c bc
       0.14996946 -0.34722295 0.25693154 -0.012489088
000030 f2 90 98 bd e4 3b a5 bb 87 35 c6 be fb 17 c6 3e
       -0.07449521 -0.00504254 -0.38712713 0.3869017
000040 c4 af 21 be 68 15 ec bd 78 c5 7e be cc 1b 82 bd
       -0.15789706 -0.115275204 -0.24880016 -0.06352958
000050 cb c1 36 bc f5 22 bc bd b1 ec bb bb 89 d5 ee 3d
       -0.011154602 -0.09186355 -0.005735003 0.11661822
000060 10 90 a8 3d 5f 05 e5 3d d1 4f 40 3c 03 4b 3f bf
       0.08230603 0.11182665 0.01173778 -0.74723834
000070 5b 9a 07 be 45 2b 0d 3e d6 0e 87 bd 63 d1 e4 3d
       -0.13242476 0.13786037 -0.065946266 0.1117275
000080 57 b0 8e bd 21 16 c6 bc bd e5 33 be b7 22 a4 be
       -0.06967228 -0.024180474 -0.17568107 -0.32057735
000090 81 10 91 bd ec 07 09 3d b1 57 8a 3d 67 9f 0b bd
       -0.07083226 0.03345482 0.06755007 -0.034087565
0000a0 8b c7 44 3f 81 08 25 3e 35 63 a0 bd 67 0e b9 be
       0.7686698 0.16116525 -0.07831422 -0.361438
0000b0 2d 3e 7d 3e 56 e3 be be 6b b1 e4 bd 69 e5 93 3e
       0.2473075 -0.3728282 -0.11166652 0.28885964
0000c0 74 c7 a1 3e 50 6c 36 3d cb 87 bd 3d 75 f4 7b bc
       0.31597483 0.04453689 0.09254416 -0.015378107
0000d0 74 2a 81 bd 94 f2 32 3e 44 e2 1c bc bf f8 2f be
       -0.063069254 0.17475349 -0.00957543 -0.17184733
0000e0 ef 2d 05 3e 8b 32 9f bc d6 6f 4d be c6 6d c2 3d
       0.13005804 -0.01943328 -0.20062193 0.09493594
0000f0 b3 c4 40 bc 87 d4 e5 3d 0a 4e 96 3e 26 ad 8e 3c
       -0.011765647 0.11222177 0.29356414 0.017416548
000100 df a7 ca be 13 9a 81 3c 88 46 f2 3e 02 5c d8 be
       -0.395812 0.015820539 0.47319436 -0.42257696
000110 4c 0c 0b 3d 61 d6 b6 3e f6 68 17 3d 2f a3 25 3d
       0.033947274 0.35710433 0.036965333 0.040438827
000120 cb 0f a3 bc 0b 7f 44 be 41 ba ef 3e 22 73 c5 3e
       -0.019904992 -0.19189088 0.46821788 0.38564402
000130 ed f3 d2 be a5 56 fd bd 5a b6 d0 3c 29 c2 0b 3e
       -0.41201726 -0.12370042 0.025477577 0.13648285
000140 03 9b d8 3d 1c 15 dd be d1 a6 0d bf dd d6 8f 3d
       0.10576441 -0.43180168 -0.55332667 0.07023404
000150 8a 1d 9a 3d dc 97 d6 3c 9a b7 b3 bc d7 38 25 3e
       0.075251654 0.026195459 -0.021938134 0.16134964
000160 5a 8f 46 3e cf c5 17 be 42 f9 57 bd 7e 93 d9 bc
       0.19390622 -0.14821552 -0.052727945 -0.026559588
000170 04 32 a4 3e 05 50 09 3f 40 0f d9 bb 0e f1 b9 be
       0.3206941 0.53637725 -0.0066241324 -0.36316723
000180 47 f8 70 be 12 5a 9a be 98 08 2f bd 05 85 25 3e
       -0.2353221 -0.30146843 -0.042732805 0.16164024
000190 5c 26 21 3c 35 62 ca 3d 60 fa 00 bf ef 1a c0 be
       0.009835806 0.09882013 -0.5038204 -0.3752055
0001a0 62 60 dc 3d 78 ce 20 bf 49 67 16 bd 24 67 d8 bc
       0.10760571 -0.62815046 -0.036719594 -0.026416369
0001b0 e2 9f 4c 3c b4 86 b1 3e f2 87 8e 3e 18 63 a5 3b
       0.012489291 0.34673083 0.27838093 0.0050472133
0001c0 8b 7c b1 bc fa e4 29 be 1a 95 8e 3e 15 99 8c 3d
       -0.021665832 -0.16591254 0.2784813 0.068651356
0001d0 7e 63 b3 bc 30 c1 87 be fc 8f ca bc e2 68 bb bd
       -0.021898028 -0.26514578 -0.02472686 -0.09150864
0001e0 f0 05 30 be 63 b6 2c be 06 e2 d6 bd 3e 2c 15 be
       -0.17189765 -0.1686645 -0.10492329 -0.14567658
0001f0 d6 ed 34 bb b8 fc 02 3f 32 9f d0 3d a8 ec 0b 3f
       -0.0027607582 0.5116687 0.10186614 0.54657984
000200 7c dd 63 be f1 fa c3 bd c7 3f 48 3e a4 05 bb 3e
       -0.22252458 -0.09569348 0.19555579 0.3652774
000210 1d bd 4e be fa 61 39 3d 03 55 76 3e 4a ef 4c 3e
       -0.20189328 0.045259453 0.24055867 0.20013157
000220 33 2f d8 3c f9 50 bc 3d 15 52 3a 3d 3b 4e f0 bd
       0.026389694 0.09195132 0.045488436 -0.11733671
000230 d2 1d 02 3f 12 c6 ac bd 04 1b ba be 2e 9c f9 3d
       0.5082675 -0.084362164 -0.36348736 0.12187992
000240 88 63 c7 bd 67 bb 13 bc 0c 53 25 bc 2a 4e 86 3e
       -0.09735781 -0.009016848 -0.010090601 0.2623151
000250 06 8f 97 bc f6 77 0c 3d f1 9c 11 3f dc fc ca 3e
       -0.018500816 0.03429409 0.568801 0.3964604
000260 51 e7 1f 3e 8b 23 19 3e c0 05 57 be 73 02 18 3e
       0.15615584 0.14954965 -0.20998287 0.14844684
000270 76 9d d8 3d 5c 4f fa 3d 8d c3 bf 3d a0 55 d7 be
       0.10576908 0.12222168 0.0936347 -0.42057514
000280 a7 92 a8 bd 09 4f ed 3b b9 e2 b9 be 7f 46 21 bb
       -0.08231097 0.0072420877 -0.36305788 -0.002460867
000290 df b1 02 be 2c 44 93 be 50 b8 b2 be e8 59 85 be
       -0.12763165 -0.2876295 -0.34906244 -0.26045156
0002a0 bf 68 07 be 46 43 d7 bd 06 49 7f 3b 91 93 31 be
       -0.13223551 -0.10510878 0.0038953437 -0.17341448
0002b0 cd 8d 71 3d dc 7f 11 3f 69 ab 7b 3d 0b 86 8a bd
       0.058973122 0.5683572 0.061442766 -0.06763848
0002c0 2e ce d8 bd b2 cf a5 3e 42 1a 17 bf cf f9 00 3e
       -0.10586201 0.3238502 -0.5902444 0.12595294
0002d0 5c 9f 2a bf b6 75 0b be b2 e8 51 be 12 bd d9 bd
       -0.66649413 -0.13619122 -0.20498922 -0.106317654
0002e0 d6 c8 e4 bd f8 7a 37 3d 54 d5 27 3e 02 70 ae be
       -0.11171119 0.044795007 0.16389972 -0.3406983
0002f0 e0 d4 64 3b ee ae 42 3e 7a 68 aa 3e cc 76 fe 3e
       0.0034916922 0.19012043 0.33282834 0.4970001
000300 9e 2a 11 3f d1 dd 4f bf 2b bb d2 be d2 e1 91 3c
       0.56705654 -0.8119784 -0.41158423 0.017807875
000310 9a 46 ca 3e 37 47 a3 bd 1e 81 3f bf b4 5e 4d bf
       0.3950699 -0.079725675 -0.7480639 -0.8022263
000320 df 9f bc 3d d5 17 a0 bd ea 3a c6 bd 06 96 b1 3c
       0.092101805 -0.078170456 -0.09679206 0.021677982
000330 7b 54 6b be b6 6e bb be 4f c9 01 3e 3a db 39 3e
       -0.22981445 -0.36607903 0.1267445 0.18150035
000340 17 ec 0e bd 82 23 d6 bc f7 ee 14 3e ee 0b ed bd
       -0.03489312 -0.026139978 0.14544283 -0.11574541
000350 c5 1d 06 be 6c a6 06 be d0 4f da be 6a a9 b8 bd
       -0.13097294 -0.13149422 -0.42639017 -0.09016688
000360 a4 72 1a be cf 31 a6 be c5 94 12 be b7 33 92 3d
       -0.15082794 -0.32459876 -0.14314564 0.0713877
000370 fe da 0c be 4e 69 02 3d 72 3e 7e bd dc 0c 92 bd
       -0.13755414 0.031838708 -0.06207127 -0.07131359
000380 d5 ec d3 be 0f 6f db bd d1 ad 1e be b5 96 34 be
       -0.41391626 -0.10714542 -0.15495993 -0.17635615
000390 ed 97 c6 3d c2 86 25 3d a3 69 e8 be 84 22 83 3e
       0.09696946 0.04041172 -0.45393094 0.2561227
0003a0 0a ea 80 be 1a bf 45 be af 0e ea bd 47 31 d5 3d
       -0.25178558 -0.1931118 -0.11428582 0.104097895
0003b0 f6 f4 1a 3e ea 3f 91 bd 28 f8 38 3d fd 85 1c 3e
       0.15132508 -0.07092269 0.045158535 0.15285487
0003c0 9b cb cc 3d bc 12 74 be e3 71 16 3f ed e4 36 3e
       0.09999772 -0.23835272 0.5876753 0.17860766
0003d0 81 9c c1 bd c4 8d 4a bd 7b 9d 0e 3d 9f 3e 04 3e
       -0.09453679 -0.049451604 0.034818154 0.12914513
0003e0 30 ab 27 be 2c 4e 01 bf 3e e0 31 3d 13 54 9b 3e
       -0.16373897 -0.50509906 0.043426745 0.3033758
0003f0 b6 7b f2 3d 06 98 d7 3d 1d b7 22 3e e3 75 5e 3e
       0.11840002 0.10527043 0.15890165 0.21724658

fc1.bias f4 [64]
000000 78 da cc ba 60 c8 bb 3d 8f 68 ab be df 75 88 3d
       -0.0015629074 0.09169078 -0.3347821 0.06663107
000010 e3 57 d8 3e 80 94 be be 31 4b f7 3e 95 c1 cb 3e
       0.42254552 -0.37222672 0.48299554 0.3979613
000020 fd 0e d0 bc d4 89 5c 3e 39 60 6d bf b4 8d a1 be
       -0.025397772 0.21536952 -0.9272495 -0.31553423
000030 e4 08 ed 3e cd be ee be 2d a8 0a bf 43 dd 3e 3f
       0.46295846 -0.46629944 -0.54162866 0.7455637
000040 b0 cf 50 be 33 7b 06 3f 34 78 c2 3e 0a 35 9d be
       -0.20391726 0.5253174 0.37982333 -0.30704528
000050 92 14 0a be 49 19 fa bd 2c 08 32 be b4 00 74 be
       -0.1348441 -0.12211854 -0.1738593 -0.23828393
000060 28 16 5b 3f 33 80 48 3f b0 ae de 3e c6 fe f2 3e
       0.8558068 0.78320616 0.4349265 0.47460002
000070 e2 f6 b1 3d 13 17 c4 3e ba ff cf be 17 9f 1b 3f
       0.08689667 0.38298854 -0.4062479 0.60789627
000080 ec ba 96 be 40 39 c7 3a e1 5f 56 bf ec f2 1b 3e
       -0.29439485 0.0015199557 -0.8374005 0.15229386
000090 49 de 61 3f bd b3 cb be b5 33 56 3f 89 88 88 be
       0.88229805 -0.39785567 0.8367265 -0.26666668
0000a0 8f fe d2 be c4 76 60 3d d7 5b 3c be b3 c9 0c 3e
       -0.41209838 0.054800764 -0.18394409 0.13748817
0000b0 a5 4a 72 3e 9f 7f d3 3e d8 3a e6 be 4e 3e 4a 3f
       0.23661287 0.41308305 -0.4496677 0.7900132
0000c0 4c d7 68 3d c6 70 28 3d c9 5d 76 be bf 9b 79 be
       0.056845948 0.041123174 -0.24059214 -0.24375819
0000d0 4e 5d 3e 3e 3f f4 af be b2 45 df be 45 71 3d 3e
       0.1859028 -0.34366032 -0.4360786 0.1850024
0000e0 d3 d2 1e 3b 93 49 de 3e cd c0 41 3e 16 61 82 be
       0.0024234548 0.43415508 0.18921204 -0.25464696
0000f0 5b 53 f8 3e 7e 32 31 3e c5 15 b3 be 6a dc b0 be
       0.48501095 0.17304417 -0.34977546 -0.34543163

fc2.weight f4 [64, 64]
000000 99 21 19 3e 59 57 34 3e 01 df 70 be d4 6a ac bd
       0.14954223 0.17611445 -0.23522569 -0.08418813
000010 43 57 d2 3d 65 d8 e6 3d dd 22 55 bd ca 37 b3 3d
       0.1027055 0.11271743 -0.0520352 0.08750875
000020 d0 26 15 be 93 3e 58 bd 43 fe 18 3d fb a1 2c bd
       -0.14565587 -0.05279405 0.037351858 -0.042146664
000030 0c 39 32 3d 4d 0c 7b 3d e6 d1 1b be 1f 6c cb 3e
       0.043511435 0.061291028 -0.15216789 0.39730927
000040 e9 1e 03 3e 7c 52 3e 3e 75 bf 28 3e 66 1e 02 bd
       0.1280476 0.18586153 0.16479285 -0.03176727
000050 7b a2 ed 3d 3a fb 1a 3e 52 2d 69 3c 3f f4 47 3e
       0.11603256 0.15134898 0.014231997 0.19526766
000060 a9 8b 1e 3e 13 ab 41 3e 2c 5b ba bb 3c 0d 8f 3e
       0.15482964 0.18912916 -0.005687138 0.27939785
000070 96 02 c1 3d c5 7c 81 3d 0a 22 c9 bd c5 e4 83 3e
       0.09424321 0.06322626 -0.098209456 0.25760475
000080 e4 69 f5 bd f9 60 64 3d a2 43 58 3b c2 aa 08 bd
       -0.11983088 0.055756543 0.0032999297 -0.033365972
000090 f8 53 27 3e 42 bf c2 bd 84 7b f2 3d 3d 07 e4 bd
       0.16340625 -0.09509136 0.11839965 -0.11134193
0000a0 1d e1 b0 bd ba 50 e1 bd 90 b9 ba 3d 9f a8 68 bd
       -0.08636687 -0.110017255 0.091174245 -0.056801435
0000b0 73 03 ec 3d 81 61 83 3d 19 7a 3c be 54 2d c5 3e
       0.115240954 0.06415082 -0.18405952 0.38511145
0000c0 40 6c a2 bd 07 00 30 3e e9 07 66 be a3 a2 3b 3e
       -0.07930803 0.1718751 -0.22463955 0.1832376
0000d0 2e 32 51 bd 65 dc 44 3d 35 33 8e bd 97 f6 28 3d
       -0.051073246 0.048061747 -0.06943361 0.04125079
0000e0 f4 d7 3b 3e a9 ef 36 3e 9d 6d 19 3d 7e 79 cf bd
       0.18344098 0.1786486 0.03745805 -0.10130595
0000f0 79 9c 5d 3d 0b 7b d3 3d 4b d5 ac 3c 5d 67 39 3d
       0.054104302 0.10326203 0.0210978 0.04526459
000100 ad c2 c6 be 14 99 e8 be ca d9 a0 3e bb 80 b9 3f
       -0.388204 -0.4542929 0.3141616 1.449241
000110 50 eb d7 3d 02 0a e0 3e d9 f0 35 be 77 0c a1 3e
       0.10542929 0.43757635 -0.17767657 0.31454822
000120 66 5f 3d 3c 25 74 30 bf c2 dd 3f 3e 00 79 a3 3e
       0.011558389 -0.6892722 0.18736938 0.31928253
000130 14 a3 52 bf ff 43 15 3e e8 15 ab 3d 96 09 04 bf
       -0.8228009 0.1457672 0.08353788 -0.51577127
000140 f8 74 04 c0 e1 99 b5 3c b6 44 52 3e c0 02 d7 bc
       -2.0696392 0.022168102 0.20534024 -0.026246428
000150 c1 87 99 bd 21 07 ac be 58 70 2c bf 77 40 89 3e
       -0.07496596 -0.3359919 -0.6735892 0.26806995
000160 16 7a 29 3e 91 e3 ae be 70 9e bc be b2 8a 47 3e
       0.16550478 -0.34157994 -0.36839628 0.19486502
000170 eb 9c 5a 3e e4 e0 f0 3d 1e 16 2f 3f 8d 97 34 be
       0.21348922 0.117616445 0.68393123 -0.17635937
000180 72 8c 03 3f 04 60 76 3e 6f 05 2b be 01 25 c9 bd
       0.5138618 0.24060065 -0.16701292 -0.09821511
000190 34 9d ed bd cf 54 e0 be 68 aa 78 be 94 9a ac 3e
       -0.1160225 -0.43814704 -0.24283755 0.33711684
0001a0 90 54 ca 3d 7c e3 0a 3e da cc 1c 3d bd 4c ac 3e
       0.0987941 0.13563341 0.0382813 0.33652297
0001b0 9d df 50 bd e8 c9 21 3e 61 75 70 be 72 b6 bf 3d
       -0.050994504 0.15799677 -0.23482276 0.093609706
0001c0 c9 b4 45 3e fb 8c d9 3d b2 41 a7 3e 7a d6 94 bd
       0.19307245 0.10622593 0.3266731 -0.07267471
0001d0 9a 61 2d 3e d4 e2 15 bd ef 55 6d 3e 8f 6b bc ba
       0.16931763 -0.036593273 0.23177312 -0.0014375317
0001e0 db 84 61 bd 05 90 82 bd 2d 96 91 3e 16 87 7e bf
       -0.05505834 -0.06375126 0.28434888 -0.99424875
0001f0 36 9b b9 3d 1a 0b b1 bc 7f 3f 98 3e 97 91 5f 3e
       0.09062807 -0.021611739 0.29735944 0.21832882
000200 16 0a 61 bd a0 e9 7a bd 17 cd 11 3f 36 3c f2 3e
       -0.05494126 -0.06125796 0.5695357 0.47311562
000210 8c 4d c1 be ef b9 98 be ec 7b 8c bc 77 8f 2d 3f
       -0.37754476 -0.29829356 -0.017148934 0.67797035
000220 ce f4 65 3e d1 55 29 be 98 28 25 3d ad 52 8b be
       0.22456667 -0.16536643 0.040321916 -0.27211514
000230 dc ee 2f 3e 5a 68 f3 3d 58 59 ca bd 48 2d 1d be
       0.17180961 0.11885138 -0.09880322 -0.15349305
000240 fd d7 8e 3d ea 4c 08 be 94 b1 cd 3e 20 bd 84 3d
       0.0697479 -0.1331059 0.40174544 0.06481385
000250 41 7b 03 bf 81 21 ea bd 67 80 32 3e c3 e3 1e be
       -0.51359946 -0.114321716 0.17431794 -0.15516572
000260 94 56 85 be de 72 ff bd 77 d0 85 be 8a ab cc 3d
       -0.26042616 -0.12473081 -0.2613561 0.09993656
000270 65 45 2a bd be 63 97 3d 8a 08 a2 be 2a 5b c4 bd
       -0.041570086 0.07392071 -0.3164714 -0.09587701
000280 bc 2d 02 3d f8 ca cb bd ee 7f 01 be ea 7c 02 3e
       0.031781897 -0.099508226 -0.12646458 0.12742963
000290 77 02 c7 3d 36 e5 9c be 53 86 89 bd 97 c0 67 3e
       0.09717267 -0.30643624 -0.067150734 0.22632061
0002a0 9e 57 6e be 16 72 86 3d 18 55 31 3e 5f d7 f6 bd
       -0.23275611 0.06564729 0.17317617 -0.120527975
0002b0 b7 39 1b bd 7e 3e 31 bb b1 27 bb 3e 02 eb a4 bd
       -0.037896838 -0.0027045305 0.3655372 -0.08052637
0002c0 d5 fc 7f bf 14 e6 58 3e a4 ed 39 be 2c 83 2c 3e
       -0.99995166 0.21181518 -0.18157059 0.16846913
0002d0 19 fa 63 3e 74 44 d0 3d 73 fb 7d 3e 5c 5b 10 3e
       0.22263373 0.101693064 0.24802952 0.14097351
0002e0 7f 9e 81 3e 02 c1 1d be 21 cd da bd d9 d7 1f 3e
       0.25316235 -0.15405658 -0.106836565 0.15609683
0002f0 a2 cb 33 bf 44 c7 9d 3e 38 bd 7f bf 00 f1 28 3e
       -0.70232594 0.3081609 -0.998981 0.16498184
000300 c4 8e 91 3e ec 51 04 be 25 00 89 3e 7c ee 2d bf
       0.28429234 -0.12921876 0.26757923 -0.67942023
000310 b2 f5 91 3e 6c 88 2c be d5 69 99 bd a6 f1 d3 be
       0.28507763 -0.16848916 -0.07490889 -0.413953
000320 b6 03 3a 3e bc 12 aa 3d e4 2b 13 bc 8f 1a ba bd
       0.18165478 0.083043545 -0.008982632 -0.09087097
000330 5d 60 3a be 1a 04 d8 bd fd 5b 62 3e 69 c0 21 be
       -0.18200822 -0.10547657 0.22105403 -0.15796055
000340 df 3e 3f be 00 f0 ac bd c5 d8 27 be 03 3b 0f bf
       -0.18676327 -0.08444214 -0.16391285 -0.5594942
000350 ad 9d f0 3c be 46 c7 be 6c 65 97 be 9a ba d8 be
       0.02937206 -0.3892116 -0.29569566 -0.42329866
000360 5c 1d 35 bd a3 94 84 3d 49 24 87 bd 5b b6 dd be
       -0.044217452 0.06473663 -0.06598718 -0.4330319
000370 bf 65 c0 3d 21 9c 39 3e 26 94 29 bd f9 cb 6d bc
       0.093944065 0.18125965 -0.04140105 -0.014513963
000380 f5 0a 0b 3e 63 6e a9 be a5 71 43 be 4b 55 39 3e
       0.13578399 -0.3309203 -0.1908632 0.18098943
000390 0e 48 45 3e e4 83 12 3e 87 5e cc bc f5 98 09 bd
       0.19265768 0.14308125 -0.024947418 -0.033593137
0003a0 ad 38 62 3d b6 b8 67 3e f4 bf ff 3e 83 ed ab 3d
       0.05522983 0.22629055 0.49951136 0.08394911
0003b0 71 f5 e0 be c4 c1 09 bf c8 c0 a8 bd 86 40 b8 3c
       -0.43937257 -0.5381129 -0.08239895 0.022491705
0003c0 72 c1 0e 3e 7e 58 d5 bd 36 94 46 3e c0 ce 87 bd
       0.13940981 -0.10417269 0.19392475 -0.06631231
0003d0 9c ed cb be 81 17 b1 3e 62 7d cd 3e 76 bb 96 b8
       -0.3982972 0.34588245 0.40134722 -7.187475e-05
0003e0 a6 7c 06 3f d8 f7 f6 3e dd 68 e0 3c 52 bf 6b 3e
       0.5253395 0.48235965 0.027393753 0.23022202
0003f0 d7 f8 6c be a9 8c 6c 3c 00 7a 02 3f 28 b3 21 3e
       -0.231418 0.014437833 0.5096741 0.15790999

fc2.bias f4 [64]
000000 4c 38 1d 3f 13 19 fd bd 18 75 1f be 2c ff 95 be
       0.6141403 -0.12358298 -0.15572011 -0.29296243
000010 89 e7 7d be 7b 00 b8 be 0b b4 0d be fc 7b 25 3f
       -0.24795355 -0.35937867 -0.13838212 0.6464231
000020 22 0b 2e be a0 64 f1 bd 4c 42 21 3f 2d 49 36 3f
       -0.16996434 -0.11786771 0.62991786 0.7120541
000030 88 24 37 be 9a b4 0f 3f bf 8d 25 bd 54 8a 91 3e
       -0.1788503 0.5613495 -0.040418383 0.28425848
000040 38 36 b7 3e 36 3f f8 3e 6b b8 ff 3e 88 80 17 3f
       0.35783553 0.48485726 0.49945387 0.591805
000050 63 5d c4 bd 14 d3 34 3f cb b4 97 bc 6f fb 24 be
       -0.095881246 0.7063458 -0.018518826 -0.1611154
000060 21 75 17 3f 6f 87 08 3f f7 32 64 be fd 92 f8 3e
       0.591631 0.53331655 -0.22285067 0.48549643
000070 90 09 56 be 74 d4 48 be 22 ec fd bc 90 c7 51 be
       -0.20902085 -0.19612294 -0.030996386 -0.20486283
000080 95 fd 3f 3f 26 54 30 3f 8c 2e 8f be 31 77 bc be
       0.7499631 0.688784 -0.279652 -0.36809686
000090 1d ef 8d be d0 40 02 be ba 00 8d be 15 c7 6d be
       -0.2772149 -0.12720037 -0.27539617 -0.23220475
0000a0 0a a9 1a 3f f3 75 27 3f 21 97 36 3f 1e c9 3a be
       0.60414183 0.6541435 0.71324354 -0.18240783
0000b0 40 f9 3e be a9 d2 93 be 3f ee 16 3f 4f 7d 0b 3f
       -0.18649769 -0.28871658 0.58957285 0.5448808
0000c0 4e b0 38 3f c3 e1 19 3f d3 6d ac 3c 5e 38 3c 3f
       0.7214402 0.6011011 0.021048462 0.7352351
0000d0 bb 10 d0 be 2a c3 23 3f 31 a8 f7 3e 29 ab 10 3c
       -0.40637764 0.6396967 0.48370507 0.00882987
0000e0 88 13 fc bd 12 06 44 3c 67 d5 32 3f e4 b7 f3 bc
       -0.12308413 0.011964338 0.69856876 -0.029750772
0000f0 d8 e4 05 3f 4e 36 2b be 13 7e 2e 3f 5f da 80 be
       0.5230231 -0.16719934 0.68161124 -0.25166604

fc3.weight f4 [1, 64]
000000 e1 d7 96 3e f4 1a 51 be d2 b1 c4 bd bc 52 92 bd
       0.29461578 -0.20420438 -0.09604229 -0.071446866
000010 7f 19 a3 be 31 10 cc bd 39 cc ea be ba 7e 63 3e
       -0.3185539 -0.09964026 -0.45858935 0.22216311
000020 41 75 42 bd 46 f0 77 bd 58 18 64 3e ca e1 5c 3e
       -0.047475103 -0.060531877 0.22274911 0.21570507
000030 09 a2 0a bd 95 06 01 3e c3 b9 2f bc d6 1b 95 3e
       -0.033845935 0.12600167 -0.010725441 0.291228
000040 b4 55 73 3c 26 66 7f 3e 45 a6 5d 3e 4b 17 23 3e
       0.014851976 0.2494131 0.21645458 0.15926854
000050 28 d6 b0 bb 72 67 47 3e 6e f5 24 bd 63 10 fd be
       -0.005396623 0.19473055 -0.040273122 -0.49426565
000060 9e 10 60 3e 25 71 cc 3d a6 46 91 bd 97 b5 35 3e
       0.21881339 0.09982518 -0.07093553 0.17745052
000070 dd c1 36 be 5d 89 61 be ae 8c 41 3d cd d0 12 bf
       -0.1784739 -0.22025056 0.047253303 -0.57349855
000080 c0 2d 4c 3e 14 a1 55 3e 30 69 ad bf 71 97 b1 bd
       0.19939327 0.20862228 -1.3547726 -0.08671463
000090 7c a8 77 be 9b c4 d0 bc ca ce 58 3e c2 09 02 be
       -0.24185365 -0.025484374 0.21172634 -0.12699035
0000a0 81 0d 0a 3e 49 3c 02 3e 01 dd 7a 3e 37 27 38 be
       0.13481714 0.1271831 0.24498369 -0.1798371
0000b0 cf af 91 bd 3b 1d c7 3a 8f 33 86 3e b9 85 65 3d
       -0.07113611 0.0015191206 0.2621121 0.05603573
0000c0 64 4b 85 3e c2 7c 26 3e 4e bf 33 bd 20 41 7e 3e
       0.2603408 0.16258529 -0.043883614 0.2482953
0000d0 78 1a a4 be 9b 62 3d 3e 59 00 d2 3d 4e 48 47 bd
       -0.32051444 0.18494646 0.102539726 -0.04865294
0000e0 c7 22 d1 be 1c 65 fd 3d 99 1d 58 3e 63 b1 23 3b
       -0.40846846 0.12372801 0.2110504 0.0024977557
0000f0 fd 0f 32 3e 0a cd 95 be 69 84 49 3e 9d 13 93 be
       0.17388912 -0.29257995 0.19679417 -0.287259
