SAC/sac3/critic1.pth (torch, 22728 bytes, 5 tensors)

fc1.weight f4 [64, 13]
0	0xbb251905	-0.0025191915
1	0x3f155345	0.58330184
2	0xbc257e0b	-0.010100852
3	0x3e080934	0.1328476
4	0xbf36b3b9	-0.71367985
5	0xb9896199	-0.00026203392
6	0x3e1a5dbf	0.15074824
7	0x3e99ce23	0.30040082
8	0xbe516179	-0.20447339
9	0x3e076610	0.13222528
10	0xbe92c370	-0.28664732
11	0x3b88dcf7	0.0041767317
12	0x3e8a257a	0.26981717
13	0x3e185f23	0.14880042
14	0x3eb7e849	0.35919407
15	0x3cfe18ba	0.03101765
16	0xbf78b299	-0.9714752
17	0xbf839c43	-1.0282062
18	0x3d19b718	0.037528127
19	0xbe42cba5	-0.19022997
20	0xbcad16f8	-0.021129116
21	0xbe2ed0b2	-0.17071798
22	0x3e863d5f	0.26218697
23	0xbe232980	-0.159338
24	0x3e6744d3	0.22584848
25	0x3dcac1a2	0.09900214
26	0xbd69c015	-0.05706795
27	0xbeed5863	-0.46356496
28	0x3ecec842	0.4038716
29	0x3d0c6cd2	0.034283467
30	0xbe9ba9af	-0.30402896
31	0x3d99bc77	0.0750665
32	0xbdfff4ba	-0.1249785
33	0xbe060b7e	-0.13090321
34	0xbdca4186	-0.09875779
35	0xbe513882	-0.20431712
36	0x3e67ca37	0.22635733
37	0xbe7228c2	-0.2364836
38	0x3e99117a	0.29896146
39	0x3d945673	0.072430514
40	0x3f11a884	0.5689776
41	0xbed67e07	-0.41893026
42	0x3d5ca04d	0.053863812
43	0x3e9782df	0.29592034
44	0xbdb68250	-0.08911574
45	0xbcb3c2b5	-0.02194343
46	0x3e9bab1f	0.30403993
47	0xbe023903	-0.1271706
48	0xbea4d228	-0.32191586
49	0xbc632a79	-0.013865107
50	0xbee2a2ab	-0.4426473
51	0x3ddbe11b	0.10736295
52	0xbcd197bc	-0.025585048
53	0x3e212e83	0.15740399
54	0x3df066c4	0.11738351
55	0xbdc7af14	-0.097501904
56	0x3e63850c	0.22218722
57	0xbeb7aca1	-0.35873893
58	0xbe925de9	-0.28587273
59	0xbd1adec9	-0.03781012
60	0xbcee5304	-0.02909232
61	0x3b6cf68a	0.003615769
62	0xbe3246cc	-0.1740982
63	0xbf7a68ef	-0.97816366
64	0xbd99ab58	-0.07503384
65	0x3dacc41c	0.084358424
66	0xbf1f86be	-0.62314975
67	0xbedb33af	-0.4281287
68	0xbcb25644	-0.02176965
69	0xbe153b6d	-0.1457345
70	0x3edbdb6b	0.4294084
71	0xbc002033	-0.007820177
72	0x3e2ad518	0.16682851
73	0x3e64254a	0.2227985
74	0xbedef9bc	-0.43549907
75	0x3ee60586	0.4492609
76	0xbc92fffb	-0.017944327
77	0xbe761486	-0.24031267
78	0x3c19c061	0.009384246
79	0x3ee068d5	0.4382998
80	0xbf4606c1	-0.77354056
81	0xbd722125	-0.05911364
82	0x3e0a6efd	0.13518901
83	0x3eb6e3aa	0.3572057
84	0x3ee3b45c	0.4447354
85	0x3df453fe	0.11930083
86	0xbe459441	-0.19294836
87	0xbe7ebfe2	-0.24877885
88	0xbcf02286	-0.029313337
89	0x3d06be4c	0.032896325
90	0xbbc70397	-0.006073426
91	0x3d197852	0.037468262
92	0xbf5b81cf	-0.8574495
93	0xbe074825	-0.13211115
94	0xbd1dd3f0	-0.038532197
95	0x3bd1f61f	0.0064075137
96	0x3e94d37e	0.29067606
97	0x3c4a198b	0.0123351915
98	0xbd5321e0	-0.051545978
99	0xbdb76db1	-0.08956469
100	0xbe5c89a1	-0.21536876
101	0x3ebe727e	0.37196726
102	0xbf2e8d2b	-0.68184155
103	0xbc9b1cef	-0.018934695
104	0xbd2bd081	-0.04194689
105	0x3eab54d7	0.33463165
106	0x3d8fcc24	0.070213586
107	0x3de4b4a9	0.11167271
108	0x3d935afd	0.07195089
109	0xbe6a4126	-0.22876415
110	0x3c9eec4f	0.01939979
111	0xbdcba2cd	-0.09943161
112	0xbe509fa0	-0.20373392
113	0xbeabb490	-0.33536196
114	0x3e183949	0.14865603
115	0xbee913f5	-0.45523039
116	0xbe8c472f	-0.2739806
117	0xbe10a07f	-0.14123724
118	0xbe956bcb	-0.29183802
119	0x3cb4929d	0.022042567
120	0xbe088a11	-0.13333918
121	0x3e6b0656	0.22951636
122	0xbe5b8c29	-0.21440186
123	0x3e5409ba	0.20706835
124	0xbeacea82	-0.33772665
125	0x3f2d857e	0.6778182
126	0x3eff7a83	0.49898157
127	0xbded8b6f	-0.115988605
128	0x3eb5a1dc	0.3547505
129	0xba2805ca	-0.0006409554
130	0xbf03b835	-0.5145295
131	0x3ea515f5	0.32243314
132	0xbbf8d368	-0.007593561
133	0xbef7e73a	-0.484186
134	0xbf4b6737	-0.7945437
135	0x3d230a62	0.039804824
136	0x3da8ac7b	0.08236023
137	0xbd0b29d1	-0.033975426
138	0xbe90b29a	-0.28261262
139	0x3ea6d857	0.3258693
140	0x3e303e9f	0.17211388
141	0x3b9a4c5b	0.0047088093
142	0xbdada1ff	-0.08478164
143	0xbe1ad4dd	-0.15120263
144	0xbe20792c	-0.15671223
145	0x3f61d245	0.8821147
146	0xbe7fc022	-0.24975637
147	0x3d2d3c6d	0.042293955
148	0xbd63b5e1	-0.055593375
149	0xbde54e63	-0.11196592
150	0xbd76c3c5	-0.060245294
151	0x3eb79baf	0.35860965
152	0x3eb2fe4a	0.34959632
153	0xbb79e508	-0.0038130898
154	0xbcc004f4	-0.023439862
155	0xbe052dcd	-0.13005753
156	0x3ca3403b	0.019928088
157	0xbf10de29	-0.5658899
158	0xbf286189	-0.65773827
159	0xbea171e3	-0.315322
160	0x3d45fa39	0.048334334
161	0x3e26e568	0.16298449
162	0x3eb84300	0.35988617
163	0x3cd20bed	0.025640452
164	0xbd90f1c8	-0.07077366
165	0xbd954fbc	-0.07290599
166	0xbe91b614	-0.28459227
167	0xbd89111f	-0.06692719
168	0x3e0bd0ce	0.13653871
169	0xbaf278da	-0.0018499151
170	0xbdd32654	-0.10310045
171	0x3f46a197	0.77590317
172	0xbea2efbe	-0.31823534
173	0xbf99d531	-1.2018186
174	0x3de8d104	0.113679916
175	0xbce1152c	-0.027475916
176	0xbc9ebff5	-0.019378642
177	0xbd9c0ee1	-0.076200254
178	0xbbb8c2a0	-0.0056384355
179	0xbe48d3bd	-0.19612022
180	0x3e60ba19	0.2194599
181	0xbe650286	-0.22364244
182	0x3d56bf98	0.05242881
183	0xbe522c2d	-0.20524664
184	0xbe04de3c	-0.129754
185	0xbe800298	-0.2500198
186	0x3e4f4fa0	0.20245218
187	0xbe0dd015	-0.13848908
188	0xbdaabc05	-0.08336643
189	0x3de3d857	0.11125248
190	0x3e8081f3	0.25099143
191	0xbec3abd2	-0.38217026
192	0x3d681ca2	0.05666793
193	0xbedc3f2b	-0.43016943
194	0xbeac1f84	-0.33617795
195	0x3d5fb2fa	0.054614045
196	0x3e8c41dc	0.27393997
197	0xbf0ac49e	-0.54206264
198	0x3d4b496a	0.04963056
199	0x3d731800	0.05934906
200	0x3ee7483e	0.45172304
201	0xbf16c56a	-0.5889498
202	0x3e3deab4	0.18546563
203	0xbeb7c3d0	-0.3589158
204	0xbf30d19c	-0.6906984
205	0x3ea62ab5	0.32454458
206	0xbef89d3c	-0.4855746
207	0xbec7efe4	-0.3905021
208	0xbe7f1cd1	-0.24913336
209	0xbe0fb26b	-0.14032905
210	0x3e1fd6a5	0.15609224
211	0xbfa001bf	-1.2500533
212	0xbfbf0c44	-1.4925618
213	0xbe21439a	-0.15748444
214	0xbdb819d9	-0.08989305
215	0xbd324ac8	-0.04352835
216	0x3ead95d1	0.33903363
217	0xbec0116b	-0.3751329
218	0xbd0d9d63	-0.034573924
219	0x3e3fa8e5	0.18716772
220	0x3ebf04ca	0.3730834
221	0x3da54f3a	0.08071752
222	0xbf3686f4	-0.7129967
223	0xbe8638bf	-0.2621517
224	0xbc9ec679	-0.019381749
225	0x3d99f744	0.07517865
226	0x3d4af1bd	0.049546946
227	0xbc35a17e	-0.011085866
228	0xbe287dca	-0.16454235
229	0x3e235d46	0.1595355
230	0xbe66f909	-0.22555937
231	0x3f0ce3e1	0.55035216
232	0xbf048011	-0.51757914
233	0xbdc39290	-0.09549439
234	0x3c025fff	0.007957458
235	0x3d1f933e	0.03895878
236	0x3d847aa1	0.06468702
237	0xbef754f6	-0.48307008
238	0x3d28f248	0.041246682
239	0xbea0146d	-0.31265584
240	0xbe862e0a	-0.26207
241	0x3dc2f124	0.0951865
242	0x3e9531d8	0.2913959
243	0xbe6edb0a	-0.23325744
244	0x3c033de4	0.008010361
245	0xbdff9e6f	-0.12481391
246	0xbcf78630	-0.030215353
247	0x3c9c3100	0.019066334
248	0xbe80d513	-0.25162563
249	0xbe93e94c	-0.2888893
250	0xbec594db	-0.3859013
251	0xbf0d8a69	-0.5528932
252	0xbe96d0d7	-0.29456207
253	0x3d8acd68	0.067774594
254	0x3ccea1b1	0.025223585
255	0x3b86cf46	0.0041140644

fc1.bias f4 [64]
0	0x3ef29ed4	0.473868
1	0x3f438761	0.76378447
2	0x3e404045	0.18774517
3	0xbf7d19c7	-0.9886746
4	0x3e8d4784	0.27593625
5	0xbe3813d6	-0.17976317
6	0xbdb12bb4	-0.08650914
7	0x3ef2fabd	0.47456923
8	0xbefc61f5	-0.49293485
9	0xbef3857b	-0.47562775
10	0x3e8d5f96	0.2761199
11	0x3f051882	0.5199052
12	0x3e28d3b8	0.16487014
13	0x3f72a39b	0.9478089
14	0x3ecdbdb7	0.40183803
15	0xbe4215b5	-0.18953593
16	0x3f72c3ca	0.9483
17	0x3e88153f	0.2657871
18	0x3f4ccb80	0.79998016
19	0x3efa0f8d	0.4883999
20	0xbea58641	-0.3232899
21	0xbe7d7bd4	-0.24754268
22	0x3f01d59a	0.50716555
23	0x3f82742e	1.0191705
24	0xbdc5b094	-0.0965282
25	0xbf30a913	-0.69007987
26	0x3c92f5fa	0.017939556
27	0x3e75f2e8	0.24018443
28	0x3f2cf23a	0.6755711
29	0xbe206bee	-0.15666172
30	0x3f6ac3f3	0.91705245
31	0xbe06bd27	-0.13158093
32	0x3f2ccd87	0.6750111
33	0xbe824b53	-0.25448093
34	0xbed77b78	-0.42086387
35	0xbe1e6eed	-0.15472002
36	0x3c1189b2	0.008882927
37	0x3e503cbf	0.20335673
38	0xbe421c8e	-0.18956205
39	0x3f27b28d	0.6550682
40	0x3e5d0266	0.21582946
41	0xbe800874	-0.2500645
42	0xbc80b9bf	-0.01571357
43	0x3f5fc083	0.87403125
44	0x3edd54e3	0.43228826
45	0x3ecc74fa	0.39932996
46	0xbe66512f	-0.22491907
47	0x3eedd10d	0.46448556
48	0xbf2237b8	-0.6336627
49	0x3f1ef332	0.62089837
50	0x3e9ba2a1	0.30397514
51	0x3cbcac1c	0.023031287
52	0xbf1cddc0	-0.61275864
53	0x3f4887be	0.78332126
54	0xbf22376a	-0.63365805
55	0xbd0c9968	-0.034325987
56	0xbe85804a	-0.2607444
57	0x3f66da3a	0.9017674
58	0x3f48b920	0.7840748
59	0x3e35ecd2	0.17766121
60	0x3ee11e12	0.43968254
61	0xbe355208	-0.17707074
62	0x3f1dc346	0.6162609
63	0xbec64b4a	-0.38729316

fc2.weight f4 [64, 64]
0	0xbdb0fcad	-0.08641944
1	0x3e840886	0.25787753
2	0x3d94ecf6	0.07271759
3	0x3ce0d182	0.027443651
4	0x3db1fc23	0.086906694
5	0xbca3d8b7	-0.020000799
6	0x3c8f4c6f	0.017492501
7	0xbdb63c71	-0.08898247
8	0xbce2fd70	-0.027708739
9	0xbe520bcd	-0.20512314
10	0x3d59c697	0.053167906
11	0xbcb8e6fe	-0.022571083
12	0x3d60cae5	0.054880995
13	0x3c91388e	0.017727163
14	0xbd0fd22f	-0.035112556
15	0xbcbafeb0	-0.022826523
16	0x3e5ac3b8	0.21363723
17	0x3db44c51	0.08803619
18	0x3d87a914	0.06624046
19	0x3ed9dcd1	0.42551282
20	0x3d8a2635	0.06745569
21	0xbe8a7230	-0.27040243
22	0x3e7f8efd	0.2495689
23	0x3f1beece	0.6091126
24	0x3dbd47d4	0.09242216
25	0xbde87c23	-0.11351802
26	0x3e049e16	0.1295093
27	0xbe0c6198	-0.13709104
28	0x3e67cfb2	0.22637823
29	0xbe352277	-0.17688929
30	0x3f1e85d6	0.6192297
31	0xbdad5ced	-0.0846499
32	0xbca67763	-0.0203206
33	0xbe87a698	-0.26494288
34	0xbdcb254b	-0.099192224
35	0xbc96f736	-0.018428426
36	0x3e379579	0.17928113
37	0xbe0a592a	-0.13510576
38	0x3cc29e15	0.02375702
39	0x3e2e20c5	0.17004688
40	0x3d979edf	0.07403349
41	0xbe21ae1d	-0.15789075
42	0xbbd8c35b	-0.006615085
43	0x3e9bc75a	0.3042553
44	0x3dbec736	0.0931534
45	0x3ecf26e6	0.40459365
46	0xbe1b3299	-0.1515602
47	0x3dc22d97	0.09481352
48	0xbcd8428d	-0.026398921
49	0x3e364023	0.17797904
50	0xbdf7c896	-0.120988056
51	0x3dcae0db	0.09906169
52	0xbe075c1c	-0.1321873
53	0x3e822f92	0.25426918
54	0x3d9df31f	0.07712387
55	0xbd9ea1ee	-0.077457294
56	0x3cb283fd	0.021791453
57	0x3ecddb6e	0.40206474
58	0x3ed5036d	0.41604176
59	0x3d1a763d	0.037710417
60	0x3e9b5753	0.3034006
61	0xbdc95f2b	-0.09832605
62	0x3d08f0d3	0.033432793
63	0xbf2988c0	-0.6622429
64	0xbee759cf	-0.45185706
65	0xbdbc3ac9	-0.091909
66	0x3e25c263	0.16187434
67	0xbea83ab7	-0.32857296
68	0x3dcfea8f	0.101521604
69	0xbb00c3ce	-0.0019647959
70	0xbeaa0693	-0.3320814
71	0xbc93180c	-0.017955802
72	0xbe82e489	-0.25564983
73	0xbe927e53	-0.28612003
74	0xbe6b7075	-0.22992118
75	0xbdd39986	-0.10332017
76	0x3a89322b	0.0010467222
77	0xbb58e246	-0.0033093854
78	0x3dfa8c0c	0.12233743
79	0x3e83b688	0.25725198
80	0xbdb4aa44	-0.08821538
81	0x3e44a128	0.19202101
82	0xbe1cd394	-0.15315086
83	0x3eff5d85	0.49876037
84	0xbc32689d	-0.0108892
85	0xbe5a8a94	-0.21341926
86	0xbd9ca049	-0.076477595
87	0xbdd6da3e	-0.10490845
88	0x3e1ec5b8	0.15505111
89	0xbe055da0	-0.13023996
90	0xbdde7c90	-0.10863602
91	0xbe54ba74	-0.20774251
92	0xbe956a3d	-0.29182616
93	0xbe7f10c3	-0.24908738
94	0xbbe15b77	-0.0068773585
95	0xbe6c9c33	-0.2310646
96	0xbec9a446	-0.39383143
97	0xbdc10684	-0.09425071
98	0xbbd74de7	-0.006570566
99	0x3d46cecf	0.04853707
100	0xbd1652df	-0.036700126
101	0x3d01e697	0.03171405
102	0xbe8656d6	-0.26238126
103	0x3e0b5f60	0.13610601
104	0x3d44cd06	0.048047088
105	0xbe8d6448	-0.2761557
106	0x3e16c4ce	0.14723513
107	0xbd1eeef8	-0.038802117
108	0x3b489029	0.0030603504
109	0x3da4c666	0.08045654
110	0x3cb20e0a	0.02173521
111	0xbda21851	-0.07914794
112	0x3d13dd66	0.036099814
113	0xbef9f0f0	-0.48816633
114	0xbd989ed9	-0.07452173
115	0xbd4985ef	-0.049199995
116	0xbdffe8f7	-0.124956064
117	0xbd85cd32	-0.065332785
118	0xbe53497d	-0.20633502
119	0x3d96b515	0.073587574
120	0xbe17bf4c	-0.14819068
121	0x3d4ffcd2	0.050778218
122	0x3e6fee5c	0.2343077
123	0xbecdf07f	-0.40222546
124	0xbe2f3ad1	-0.1711228
125	0xbe7f32a4	-0.24921662
126	0xbcf3e4c6	-0.029772174
127	0xbea96819	-0.33087233
128	0xbe91521d	-0.2838296
129	0x3e20fdf9	0.15721883
130	0xbed5902f	-0.41711566
131	0xbf031673	-0.5120613
132	0x3d9c9769	0.07646067
133	0x3e930599	0.28715208
134	0xbea911a8	-0.33021283
135	0xbdaded99	-0.08492584
136	0xbe97c114	-0.29639494
137	0xbea4332c	-0.3207029
138	0x3db5769d	0.08860514
139	0x3e97dec3	0.2966214
140	0x3e236b26	0.15958843
141	0xbd572c29	-0.05253235
142	0x3d641d37	0.055691924
143	0xbe0bbb00	-0.13645554
144	0xbdd7fc8b	-0.105462156
145	0x3d23db00	0.040003777
146	0xbe7c13e0	-0.24616957
147	0x3f2ff68e	0.6873559
148	0xbe0cb647	-0.13741408
149	0x3d23a61e	0.039953344
150	0x3e91c010	0.28466845
151	0xbd0bbaa4	-0.03411354
152	0x3eb5f128	0.3553555
153	0xbe956a6a	-0.2918275
154	0x3d99f53b	0.07517477
155	0xbeb0e96c	-0.34553087
156	0xbea5b12b	-0.3236173
157	0x3e040776	0.12893471
158	0xbda5383f	-0.08067369
159	0x3dc86a09	0.097858496
160	0xbe89ca4c	-0.26912153
161	0xbe990f13	-0.29894313
162	0xbefd08d0	-0.49420786
163	0xbe9f56e7	-0.3112099
164	0x3ed20ebe	0.41026872
165	0x3e6a3ac1	0.22873975
166	0xbebd0d05	-0.36923996
167	0x3ed62173	0.41822395
168	0xbe1cff2b	-0.15331714
169	0xbed05360	-0.4068861
170	0x3bc582ab	0.0060275397
171	0xbe48973b	-0.1958894
172	0x3e699966	0.22812423
173	0x3eacc0ff	0.33740994
174	0xbe6f8c5f	-0.23393391
175	0xbdd024fc	-0.10163304
176	0x3eec70a5	0.4617969
177	0xbe949c40	-0.2902546
178	0x3e0b430d	0.13599797
179	0x3d936cef	0.07198512
180	0xbc8cf717	-0.017207665
181	0xbe3b1c38	-0.18272483
182	0xbe4d3f4f	-0.20043682
183	0xbdf51b07	-0.11968046
184	0x3cf9ab98	0.03047733
185	0xbd0d3af7	-0.03448006
186	0x3e0f7acc	0.14011687
187	0xbea19999	-0.31562498
188	0xbdd12928	-0.10212928
189	0xbe067960	-0.13132238
190	0xbd46c840	-0.048530817
191	0xbf18c16b	-0.5967013
192	0xbe8b5307	-0.27211782
193	0xbd73f357	-0.05955824
194	0xbdcf2629	-0.101147
195	0xbe00eb6e	-0.1258981
196	0x3ddbf499	0.10740013
197	0x3c593d54	0.013259251
198	0xbe4b4491	-0.19850375
199	0x3dd42c0c	0.10359964
200	0xbdeda2e6	-0.11603336
201	0xbe2cbeee	-0.16869709
202	0xbe9d3b1a	-0.30709153
203	0xbd987606	-0.07444386
204	0xbde914b1	-0.113809
205	0xbd65ac01	-0.05607224
206	0xbe544b75	-0.2073191
207	0xbd3612c1	-0.04445148
208	0xbd621e7d	-0.055204857
209	0x3dae2a19	0.08504123
210	0xbd9d3b0b	-0.07677277
211	0x3ee845e2	0.45365816
212	0xbe1300d2	-0.14355782
213	0x3d438c24	0.04774107
214	0xbdc86d8c	-0.097865194
215	0x3da858fe	0.08220099
216	0x3e04260b	0.12905137
217	0xbe0efe6b	-0.1396424
218	0xbe1c27dc	-0.1524958
219	0xbe834068	-0.25635076
220	0xbc9b4eed	-0.018958533
221	0xbe3a94f1	-0.18220879
222	0x3e71feb6	0.23632321
223	0xbe50509a	-0.20343247
224	0xbecfaa7b	-0.40559754
225	0xbd195713	-0.037436556
226	0xbe796b84	-0.2435742
227	0xbe03ec55	-0.12883122
228	0x3d889fab	0.06671079
229	0x3d9245c0	0.0714221
230	0xbdd6b476	-0.10483639
231	0x3e55074b	0.20803563
232	0xbe2e9fd4	-0.17053157
233	0xbe2878f7	-0.16452394
234	0xbe6b44ca	-0.2297546
235	0xbd0cbe43	-0.034361135
236	0xbd3d4334	-0.046206668
237	0x3e21d719	0.1580471
238	0x3c882edb	0.016623905
239	0xbdbaab16	-0.09114663
240	0xbde1a1f6	-0.1101722
241	0xbe1c2d8f	-0.15251754
242	0xbd7fca2c	-0.062448665
243	0xbc6801e8	-0.014160611
244	0xbea22528	-0.31668973
245	0xbe6c9043	-0.23101906
246	0xbdde5a6b	-0.108570896
247	0xbda8a524	-0.08234623
248	0xbe1aa037	-0.1510018
249	0xbd2d74c8	-0.0423477
250	0x3d2d87c0	0.04236579
251	0xbe2de3c5	-0.16981418
252	0xbdcae753	-0.09907403
253	0xbcc5721d	-0.024102265
254	0xbd0f6c15	-0.035015184
255	0xbef1071f	-0.47075745

fc2.bias f4 [64]
0	0x3f06484a	0.52454054
1	0x3e1c4c27	0.15263425
2	0x3de89f6e	0.11358534
3	0x3e897c49	0.26852635
4	0xbc3256f6	-0.010884991
5	0xbe43e6f5	-0.19131072
6	0x3ef7806a	0.4834016
7	0x3ca0d838	0.019634351
8	0x3e046e58	0.12932718
9	0x3ed1a454	0.40945685
10	0x3f04f856	0.5194143
11	0x3d082cdb	0.033245903
12	0xbe4f654b	-0.20253484
13	0x3d28588d	0.041100074
14	0xbd85ad26	-0.06527166
15	0xbe0070d5	-0.12543042
16	0xbe7d8ff3	-0.24761944
17	0xbe60025b	-0.21875899
18	0xbe5533b7	-0.20820509
19	0xbe12e493	-0.14345007
20	0xbe9719ed	-0.29511967
21	0xbe8bf7fe	-0.2733764
22	0x3ec81727	0.39080164
23	0xbd99265f	-0.07478022
24	0x3e581fd5	0.21105893
25	0xbe2ca1ae	-0.16858551
26	0x3f00196f	0.5003881
27	0xbe0dbae9	-0.13840832
28	0x3e2283cf	0.15870593
29	0x3d335c78	0.043789357
30	0xbd7b8e0a	-0.061414756
31	0x3ee04ff6	0.43811005
32	0xbe8dc88c	-0.27692068
33	0xbe2c3452	-0.16816834
34	0xbe3cedd3	-0.18450098
35	0x3ec21aff	0.3791122
36	0x3f21e205	0.63235503
37	0xbe9470c3	-0.2899228
38	0x3ef4db7e	0.4782371
39	0x3dfd8f32	0.12380828
40	0x3ddd5d6b	0.10808834
41	0x3f0a45b7	0.54012626
42	0x3ef25f04	0.47338116
43	0x3d0cba59	0.034357402
44	0xbe9bafc9	-0.3040755
45	0x3ebc28bb	0.36749825
46	0xbd2fd895	-0.042931158
47	0x3f1a2049	0.60205513
48	0x3e18feac	0.149409
49	0x3f1eb868	0.6200013
50	0x3f026851	0.50940424
51	0x3e949f83	0.29027948
52	0xbe8ed250	-0.2789483
53	0x3e80343e	0.25039858
54	0x3ee12c3c	0.4397906
55	0x3dfc1827	0.12309294
56	0xbe97ca2b	-0.2964643
57	0xbad08f58	-0.001591186
58	0x3ef1c29a	0.47218782
59	0x3c9f98fb	0.019482126
60	0xbcdef08e	-0.027214315
61	0x3defe9b4	0.11714497
62	0xbe2a7790	-0.16647172
63	0x3e3edb56	0.18638358

fc3.weight f4 [1, 64]
0	0x3d822aec	0.06355843
1	0xbc094f85	-0.008380775
2	0xbe664cdb	-0.22490256
3	0x3ba9b532	0.005179071
4	0x3bf022c0	0.0073283613
5	0xbe2b99fd	-0.1675796
6	0x3da30faf	0.07961976
7	0xbe91d007	-0.28479025
8	0xbc197c01	-0.009367944
9	0x3d76079f	0.06006586
10	0x3e0e5d20	0.13902712
11	0x3e532072	0.20617846
12	0xbe533f74	-0.20629674
13	0xbc4a0016	-0.012329122
14	0xbe0c3b17	-0.13694416
15	0xbe714ec8	-0.23565209
16	0xbd49b7d3	-0.049247574
17	0xbe3352cd	-0.17512055
18	0xbbc7b7f4	-0.006094927
19	0xbde36d2a	-0.11104806
20	0xbe8bede4	-0.27329934
21	0xbd31e68a	-0.04343275
22	0x3dbcf6c0	0.09226751
23	0xbde653b3	-0.11246433
24	0xbeb01e7a	-0.34398252
25	0xbdc00859	-0.09376592
26	0x3cad3b93	0.021146571
27	0xbd4f53d1	-0.050617043
28	0xbdf1dd65	-0.11809806
29	0xbd089c43	-0.033352148
30	0xbe09c057	-0.13452278
31	0x3d6af359	0.05736098
32	0xbea5a5f0	-0.32353163
33	0x3cf48cd0	0.0298523
34	0xbc298ee4	-0.010349009
35	0x3e33c2a7	0.17554723
36	0x3e18aae7	0.14908944
37	0xbc4a86f2	-0.012361275
38	0x3e58375e	0.21114871
39	0xbc36bc28	-0.011153258
40	0x3e241e34	0.16027147
41	0x3dfe4c38	0.12416881
42	0x3cadf12e	0.021233167
43	0xbf0827a2	-0.53185475
44	0xbe85e5cb	-0.2615188
45	0x3da53c3a	0.08068128
46	0xbe5fb474	-0.21846181
47	0x3e656a5d	0.22403856
48	0x3dcdaa54	0.10042253
49	0x3e8aca35	0.27107397
50	0x3d1abf4d	0.037780095
51	0xb92b187b	-0.0001631695
52	0xbb397937	-0.002830101
53	0x3e338920	0.17532778
54	0x3df5332d	0.11972652
55	0x3aaa550f	0.001299532
56	0xbbe6138a	-0.007021372
57	0xbe86b46d	-0.2630953
58	0x3e5270d3	0.20550852
59	0xbd152017	-0.036407556
60	0xbac1a1f4	-0.0014772997
61	0xbdeb38e2	-0.11485459
62	0xbdf0ca7f	-0.11757373
63	0xbe5a6585	-0.21327789
