SAC/sac/actor_checkpoint_7.pth (torch, 22902 bytes, 6 tensors)

fc1.weight f4 [64, 10]
00000000: 83e8 853c 200a 37be f5a0 723e 6dcd 40be
00000010: 7f36 13be 522b 06bd 9688 a93e e685 19bf
00000020: f27e 9a3e 0297 ddbd 28e7 06bf 8760 62be
00000030: 550d 46be a04b a1bd 37f0 5fbe 4564 97be
00000040: 63d6 183d b902 903e 70aa 143d 338e 9bbe
00000050: 75d4 993e b54e f7be f54c 64be b547 99be
00000060: 6f0b d9be 4d34 46bd 3780 0abd 819b 7ebd
00000070: 9cc1 62be 2a8b 08be 8c1d 2cbe b192 01be
00000080: e0de 3c3e 2987 1bbe 57ee a03e cca3 783e
00000090: b9f4 8c3e ec8c c93c 2fb4 16be 3c5f dcbd
000000a0: aa8e f0be a451 943c 3919 5e3e 0502 1f3e
000000b0: 658b 66be 900d 22be cb59 813e 47eb abbd
000000c0: ac16 203e 793a afbe 8491 72be 98b3 27be
000000d0: 3a56 e73d 505d db3d 77e9 873d 9d2d b1be
000000e0: d231 6cbc ffa7 ad3d d9a1 52be 39da 513b
000000f0: 8207 d33d 2499 7e3e c031 933d 230b 723e
00000100: 6833 57be 4043 85be 9f32 333e f4fe 3abe
00000110: 032d 2bbe 4098 3e3e 0e68 ff3d 225e babd
00000120: a549 b3bd 2b44 11be ba38 3a3e f5e8 2bbe
00000130: 0215 b73e 32e4 1abf a5ef b8bd 2954 903e
00000140: 1e7d 053d 79b8 483e 9497 7abe 5e0b 66be
00000150: 4d6c ff3d d1db a83c 323f 74bd 9517 e13e
00000160: 6352 36be f533 b7be 7547 c63d 4d54 d3be
00000170: 75df 823d 3f56 90bd 223b 8bbb 811e 99be
00000180: 16ff de3d 7273 9ebe 4f9d a3be fa5a 5e3e
00000190: a524 48be 1a9c 8dbe 24f1 813d 04f5 493e
000001a0: 3d2c febd abde 903e 572e 6ebd 1f46 f7be
000001b0: 3d83 aebc bb28 8dbd c423 12bc 02e7 803e
000001c0: eece 2f3d c90e ac3e 03f2 f7bd 192d b33d
000001d0: ee6b b0be 23b3 b1bd 00e1 cdbe a8a7 6d3e
000001e0: 6ca0 85be 7d52 abbe e1b3 04bd 7d71 9b3d
000001f0: edba 99bd 7f4a 64be a54e c4be 1301 27be
00000200: 9333 923e ff4a e7bd e116 28be aa0a 0f3f
00000210: 4808 70be aeec 03bf 5c85 e6be 36f7 1bbf
00000220: 1bc5 f53d 537d 763e 00e8 8abb 5486 523e
00000230: 21bf 31be a0dd 9fbe 90dc 023e 0978 813e
00000240: e7dc 303e 9442 88bd 7c90 82bd f64a 3c3d
00000250: 23b9 c4be 5fd7 55be b249 3d3d 18bb abbe
00000260: 2529 bbbe 78ab be3c caef 9e3d cbc8 5b3e
00000270: 18e7 d4bd 5505 85bd fd89 033d 2d49 a53e
00000280: fdfd bb3d c744 9ebe 852e e63d 5373 473e
00000290: 10cf 5e3e 373b 10be 025f 7e3d 83c9 2dbe
000002a0: 3666 213e 8da9 de3e 683f f7bd 106a 773e
000002b0: 71dc c03e 140b 83bd 6e73 94be c10f 96be
000002c0: fd39 7abe 092e 6c3e 5f09 8ebe da47 4abe
000002d0: d398 8bbe 79f7 943e 6183 30bd 395b b7be
000002e0: 3d6f 8abe 4aea 68bd 658c ad3e 0dde 9e3e
000002f0: 1aef 24be 278c 023d d666 ce3e dbfc aabe
00000300: aba3 a83e a888 c73c 617b 803e c072 fbbb
00000310: ecdb 78be 8854 77be 28ad 1cbd 6b38 9c3e
00000320: 3b15 88be 05d8 893d bec4 dcbd 2193 30be
00000330: c181 e53d fc91 1f3e b481 983e fd8f c13e
00000340: a4a9 a3be 7176 0ebd b42e 9a3e a281 853d
00000350: cffa 323e e8e9 653e ab4e 5b3e 1406 29be
00000360: b4f4 573e 63d9 7b3e f871 45be 7c65 d3bd
00000370: 0498 4ebe a5d6 24bc 6789 1d3e a64c e8be
00000380: ee00 0fbf a043 96be bd09 e8be 3d13 693e
00000390: a8c7 2c3e be94 d63c 8342 27be 09be d53e
000003a0: e8dc 773e b2b5 a93e ef56 adbe f4a4 163e
000003b0: be78 63bd a690 babd 4d59 b13e 853d cb3e
000003c0: 0627 863e a890 293e e3d2 13be f5e5 d73d
000003d0: a42f e33c 7f74 a3be 970d 45bd 730c 81be
000003e0: f43e b6be cc72 0abe 3990 ca3e 31ff d0be
000003f0: 32f9 b03e 1d24 c1be d4f2 56be 2ac3 d3be
0.016346222 -0.17874956 0.23694213 -0.18828364 -0.14376257 -0.032756157 0.3311202 -0.5996994
0.30174977 -0.10819818 -0.52696466 -0.22107135 -0.19341023 -0.078757524 -0.21868978 -0.29568687
0.03731383 0.28127077 0.036295354 -0.30381927 0.30044904 -0.48302236 -0.22294982 -0.2993752
-0.42391536 -0.04838972 -0.03381368 -0.06216002 -0.22144169 -0.13334337 -0.16808146 -0.12653615
0.18444395 -0.15188278 0.3143184 0.24281234 0.2753046 0.02460333 -0.14717172 -0.10760352
-0.46983844 0.018105336 0.21689309 0.15528114 -0.22514112 -0.15825486 0.2526382 -0.08394485
0.15633649 -0.342243 -0.23688322 -0.16377103 0.11295743 0.10711157 0.06636327 -0.34605113
-0.014416175 0.08479308 -0.20569552 0.003202094 0.103041664 0.24863106 0.071872234 0.23637061
-0.21015704 -0.2602787 0.17499779 -0.1826132 -0.1671639 0.18612766 0.12471019 -0.09099986
-0.08754281 -0.1418616 0.18185702 -0.16788085 0.35758215 -0.6050445 -0.090300836 0.2818921
0.032590024 0.1960162 -0.24471885 -0.22465274 0.124718286 0.02061263 -0.05963058 0.43963304
-0.17804866 -0.35781828 0.09681598 -0.41275254 0.06390277 -0.070477 -0.0042489925 -0.29906085
0.108884975 -0.30947453 -0.31955954 0.21714392 -0.19545229 -0.2765816 0.06344822 0.19722372
-0.124107815 0.28294882 -0.058149662 -0.48295686 -0.021302814 -0.06892534 -0.00891966 0.25176245
0.042921953 0.3360503 -0.12106707 0.08748836 -0.34457344 -0.08676746 -0.40210724 0.23208487
-0.26098955 -0.3346137 -0.03239811 0.075900055 -0.075063564 -0.22294043 -0.3834125 -0.16309004
0.28554973 -0.11293601 -0.16414978 0.5587565 -0.23440659 -0.5153302 -0.4502362 -0.6092409
0.120004855 0.24071245 -0.0042390823 0.20559055 -0.17358066 -0.31223774 0.1277945 0.25286892
0.17271768 -0.06653324 -0.063752145 0.045969926 -0.38422498 -0.20882939 0.04621286 -0.3354118
-0.36554828 0.023275122 0.0776058 0.21463315 -0.1039564 -0.06495158 0.032114018 0.3228239
0.09179304 -0.30911848 0.11239342 0.19477586 0.21758676 -0.14085089 0.062102325 -0.16971402
0.15761647 0.43488732 -0.12072641 0.24161553 0.37668183 -0.06398597 -0.28994316 -0.29308894
-0.24436183 0.23064436 -0.27741525 -0.19753972 -0.27265033 0.29095057 -0.043094043 -0.35811785
-0.27037993 -0.05686406 0.33896175 0.31028786 -0.16106835 0.03187194 0.40312833 -0.33396038
0.3293737 0.024357155 0.2509413 -0.0076735914 -0.24302644 -0.2415334 -0.038251072 0.30511793
-0.26578698 0.067306556 -0.10779713 -0.17243625 0.11206389 0.15583032 0.29786456 0.37805167
-0.31965363 -0.034780923 0.30113757 0.06518866 0.17478488 0.2245251 0.21416728 -0.16506225
0.2108944 0.24594645 -0.19281757 -0.10322091 -0.20175177 -0.010060941 0.15384446 -0.45370978
-0.55860794 -0.2934847 -0.4531993 0.22761245 0.16873038 0.026193973 -0.16333966 0.41746548
0.24205363 0.33146435 -0.33855388 0.14711362 -0.05553507 -0.09109621 0.34638444 0.39695373
0.26201648 0.16559088 -0.14435916 0.10541908 0.027732678 -0.31924817 -0.048108663 -0.2520481
-0.35594904 -0.13520354 0.39563158 -0.40819696 0.3456512 -0.37722865 -0.20991069 -0.41359836

fc1.bias f4 [64]
00000000: e787 18bd 2854 d43d 8d87 d43e a53d c53d
00000010: f8df 17bd 5684 6e3e ca62 89be 6bab a93d
00000020: 1bd5 86be e071 80be b1e1 9a3e d7d0 763e
00000030: de8b c53e 3ade 003f 06dc 823e d55c a8be
00000040: 6931 673d 0828 ef3e 6e49 a83e 0c78 973e
00000050: 8c07 62be 1dbd be3d 11bb a03e 34bb 3d3e
00000060: 1303 be3e fb8e 503c 8506 6dbe 418b 6b3e
00000070: f04e c53e c198 783d 15a5 003f 908c 18bd
00000080: 483d a1bd db08 b5bd d11b cdbd a387 a33d
00000090: 3b57 453e 7bf2 3dbe 1e93 b6be 8eb7 9b3e
000000a0: fc5d 293f 594c 1dbe d4af 793e ec46 9ebe
000000b0: 6b92 8cbe 28e3 143e a049 3d3d 22c6 d83c
000000c0: 9b48 f93d f93b 82bd a835 123e 2908 57bc
000000d0: 8dda 67be a94e 2abc d21b cbbd 23c6 0a3e
000000e0: 4c1a b03e 10d4 4a3e c8c2 35be c0a1 d6bd
000000f0: 2322 8a3e 2681 143e 90b8 353e f5ed c93d
-0.03723898 0.10367614 0.41509667 0.096308984 -0.037078828 0.2329267 -0.26833183 0.082846485
-0.26334462 -0.2508688 0.30250314 0.24103104 0.38583273 0.5033909 0.2555849 -0.32883325
0.056443606 0.4671023 0.32868522 0.29583776 -0.22073191 0.09313414 0.3139272 0.18528444
0.3711172 0.012729402 -0.23147018 0.2300234 0.38536787 0.060692552 0.50251895 -0.037243426
-0.078730166 -0.0883958 -0.10015071 0.07984855 0.19271557 -0.1854953 -0.35659117 0.3041348
0.66159034 -0.15361156 0.2438348 -0.30913484 -0.27455458 0.14539778 0.046212792 0.026461665
0.121720515 -0.06359095 0.1427828 -0.013124504 -0.22641964 -0.010394731 -0.09917416 0.13552146
0.34395063 0.19807458 -0.17750084 -0.1048007 0.2697917 0.14502391 0.17746186 0.0985984

fc2.weight f4 [64, 64]
00000000: 85f8 df3d f5da 943d d921 283d 8c8d 253e
00000010: 3fcf 1e3d c828 4cbd a638 6e3d 40ca 7cbd
00000020: 8e47 d73d c8e1 58bc c376 2c3e 8769 de3d
00000030: d7d5 1a3d e7a4 d63d 9189 b53d 1e32 bbbd
00000040: 7c7e c5bd 013d d1bc 911a 5fbd 4f0a 82bc
00000050: a5fd 39bc 7a76 b63d 4cb6 373e e761 5f3e
00000060: 8f31 ab3d 3845 863d 7d77 d73d 3c12 7fbc
00000070: aa50 a73c 5f8f 593e b89f e53d fb2f 2abc
00000080: e0ce 443e 2363 b0bc bb85 7e3d fd76 b13d
00000090: 39a9 843e db9f 903d dbbe a1bb 5054 0d3e
000000a0: 5119 09bd ac9a 8bbd 7011 5b3d a6a3 d83d
000000b0: 796d 3b3b b948 1c3e 6b71 5e3e da32 283c
000000c0: d52b ffbc 2890 443e 96fc 8e3d ea46 203e
000000d0: 8030 dd3b bf7f e9bd 5e2a 3abc 6192 ae3d
000000e0: 73d5 283e 28ac cb3c efe0 10be 3c9a ad3d
000000f0: 6480 223e 8661 303e 656e 1b3e 0c53 e13d
00000100: f7ec aabe 473e 8a3e 4350 d73d 7471 15bd
00000110: 6e49 8a3d 61d3 933d 35e2 c33d d07d 4d3d
00000120: a4d0 b3bb b672 a63c fd2f b0bc 2086 03bd
00000130: bf1c e03d 8abc 333e b179 023e 40cc 1b3e
00000140: 68d2 97ba 9593 3e3d 3cc7 0e3e bc0f c33c
00000150: 4078 1b3e 5ba5 e8bc 514e 00be d13e c93b
00000160: b76a 2b3e b1f7 d0bd 0cfa a2bd 9270 a83d
00000170: c070 213e 8755 f63d d667 2e3e 7fa0 7fbd
00000180: d074 ad3d 74c0 9bbd 6573 813d 6008 55bb
00000190: 94a0 97bd 19d0 86bd cc5e 92bd b821 713e
000001a0: b88a cf3d 81fd c93c 9de6 6a3c 2a26 6c3e
000001b0: 0c73 5bbd 3686 073c 1444 773e 1b19 0abd
000001c0: f9e5 613d 7705 2d3e 5c4e 5cbd 0826 aa3d
000001d0: 1a74 213e 460e ba3c 8665 dd3d c966 25bd
000001e0: 1ece 533e 5a08 713e 1977 dd3d 45ac a0bc
000001f0: e818 3e3c 3636 d53d dbbb 8a3e ab87 813d
00000200: 2006 dc3d e054 8cbd 34a5 db3d ffb7 493d
00000210: 6865 303e bb8c 6ebd f3c0 553d 7094 2b3d
00000220: 48cf cd3d b08e 15be 3f6d 2c3e 2b35 f13c
00000230: d880 323d efd2 193d 7804 183d 6aef a53b
00000240: 09bd 5b3d 1354 ad3d 4671 1abe a1da e7bc
00000250: d693 b2be fd11 3dbd b2f3 6bbd a6f4 c53d
00000260: 2f40 a5bd afaa d93d cd60 093e 0a7f cd3c
00000270: b113 a63d b0eb 9abe bae8 213d 8abf 04bd
00000280: 2a58 ce3d 1e92 0fbb 32b9 173e dfef 43be
00000290: de59 0b3e 1e0d 0cbe 56ea 9ebe 8f70 f63d
000002a0: 9b8d 063f 647d 00bf 9656 0d3d 9c6c 79bd
000002b0: e082 dd3c a573 98bd 68d1 15bd f872 46be
000002c0: 0ead 473d 69ee b3bd 4b9e d13c c401 9cbe
000002d0: cda0 ccbd 908c 463d fa32 ba3b e49c 1c3e
000002e0: 779e 893c 74da 87bd 85ad 24be 3c2d 9c3d
000002f0: 6a87 3b3e e23a f13d 9ef9 fc3d e982 013e
00000300: 6bd8 a5bb 0615 183e d590 92bd 5abf 60bd
00000310: 88e0 d23d f475 0f3e 1659 9f3c a0d1 733d
00000320: b597 f33d 8550 24be b346 0c3d 14f9 613e
00000330: d025 1b3e fab9 533e f72b 693d 6119 913c
00000340: c9bf b43c 3dbe 4cbd fd1b 8cbd cc53 513c
00000350: 0792 14bd d54b 7ebd f78d ff3d a659 c33d
00000360: b7df 8a3d 6d4e 15be 88a7 0e3e e21b d63d
00000370: c2eb 84bc 7b63 c4bc 0d15 1fbe 4e07 c2bc
00000380: e343 4f3a 770d 13bd 109e 923d f0f0 0d3d
00000390: dfb4 03be c492 813d e364 3a3e 7571 4bbe
000003a0: 5cf9 8abd 9bf4 c7bd bcec b9bd fbf0 34bd
000003b0: deb9 893d 3677 683d 7df1 fabd 6b7f 9e3d
000003c0: c8bd 27bd cb11 373e 9178 083e 6564 bfbb
000003d0: f4e6 85bc 8ad2 0e3e 1321 bd3d 5b4d 07be
000003e0: 9980 3dbd 3b10 9fbe 12ce 64bd 52d1 13be
000003f0: 4709 003d 8829 7c3d 4aa1 aabc 38c8 9e3d
0.10936073 0.07268325 0.041047905 0.16167277 0.038771864 -0.04984358 0.058159493 -0.061716318
0.10511695 -0.013237424 0.16842179 0.108599715 0.03780159 0.104806714 0.08864129 -0.091404185
-0.096432656 -0.025541784 -0.054468695 -0.015874056 -0.0113519775 0.08909316 0.17940634 0.2181469
0.08359062 0.06556171 0.105208375 -0.015568312 0.020424206 0.21246098 0.112121046 -0.010387416
0.19219542 -0.021531647 0.062139254 0.08665273 0.25910357 0.0706174 -0.004936082 0.13801694
-0.03347141 -0.06816611 0.053483427 0.105780885 0.0028599186 0.15262116 0.21722953 0.01026603
-0.03114883 0.19195616 0.06981771 0.15652052 0.0067501664 -0.11401319 -0.01136264 0.08524013
0.16487674 0.024862364 -0.14148305 0.084766835 0.1586929 0.17224702 0.15178831 0.11002168
-0.33383915 0.2700064 0.105133556 -0.03648515 0.06752287 0.07218052 0.0956463 0.050168812
-0.0054875184 0.02031837 -0.021507258 -0.032110333 0.10942983 0.1755239 0.12741734 0.15214634
-0.0011583092 0.046527464 0.1394319 0.023811214 0.1518259 -0.02839916 -0.12529875 0.0061415215
0.16739927 -0.102034934 -0.07957849 0.08224596 0.15765667 0.12028032 0.17031798 -0.06240892
0.08469546 -0.07605067 0.06320838 -0.0032506213 -0.07403675 -0.0658266 -0.07146987 0.23548019
0.101338804 0.024657013 0.014337209 0.23061433 -0.053576514 0.0082717445 0.24147063 -0.03371535
0.05515096 0.16896616 -0.053785667 0.08308035 0.15766945 0.022711884 0.1081038 -0.040381227
0.20684096 0.23538342 0.10813732 -0.019613395 0.011602618 0.104107305 0.27096447 0.06324705
0.10743356 -0.06852126 0.10724869 0.049247738 0.17226183 -0.05823968 0.052185964 0.041889608
0.100493014 -0.14605212 0.16838549 0.029444298 0.043579906 0.037554678 0.037113637 0.005063941
0.053647075 0.084633015 -0.15082273 -0.028302493 -0.34878415 -0.046159733 -0.057605453 0.096658036
-0.08068883 0.106282584 0.13415833 0.025084991 0.081092246 -0.3025794 0.039528586 -0.03240923
0.1007541 -0.002190716 0.1481674 -0.19134472 0.136085 -0.13676879 -0.3103816 0.120331876
0.5255982 -0.5019133 0.034506403 -0.060894594 0.027039945 -0.074439324 -0.03657666 -0.19379795
0.048749022 -0.087857075 0.025588175 -0.30470097 -0.09991608 0.048473895 0.0056823464 0.15294224
0.016799195 -0.066334635 -0.16081817 0.07625815 0.18313375 0.11778809 0.12352298 0.12647595
-0.0050611994 0.1485177 -0.07156531 -0.054869987 0.10296732 0.1400984 0.01945166 0.059526086
0.1189417 -0.16046341 0.03424711 0.22067672 0.15151143 0.20676413 0.056926694 0.017712297
0.022064107 -0.049986113 -0.06841276 0.012776326 -0.036272075 -0.062084038 0.124782495 0.095385835
0.067809515 -0.14580698 0.13931096 0.10454537 -0.0162257 -0.023973217 -0.15535374 -0.023685124
0.0007906539 -0.035901513 0.07159054 0.034653604 -0.12861966 0.063268214 0.18202548 -0.19867499
-0.06785843 -0.09763452 -0.090783566 -0.04417513 0.067249045 0.056754313 -0.122530915 0.07739147
-0.040952474 0.17877881 0.13327242 -0.0058408254 -0.016345479 0.13947502 0.09234824 -0.13213103
-0.04626522 -0.3106707 -0.055860586 -0.14435318 0.031258848 0.061563045 -0.020828862 0.077530324

fc2.bias f4 [64]
00000000: 06aa 13bc 42e6 1c3e acf0 503e 9a50 3a3e
00000010: 715b a8bc 1869 8f3d eb6f 813d c986 963d
00000020: aa40 ec3c 9c9d 053e 8083 f4bd 0eea 953d
00000030: 8023 213e 277e ccbd 4609 4bbd c5a4 8d3d
00000040: 9654 113d 7d2b e1bc 148f c33d 5f1f b93d
00000050: df71 903d fa77 513e be7a 053e b892 b33d
00000060: dcc9 303e 54ec 133d 03e8 a13e c539 cabd
00000070: 2c80 88bc 8613 353d 0654 023e b476 213d
00000080: b469 533e 6f81 0c3e eabc 923d 0cb4 aebc
00000090: bbc5 16bc c6e9 0c3e 56df 953d 7a9e a0bd
000000a0: a87f 91bd 5d47 8f3e dbdf 0f3e ddb0 a63d
000000b0: 9b27 1f3e d6fb 643e 566b 92bd 67a0 d23d
000000c0: ac10 4bbb de17 1b3e c34c 19bd 683f 213d
000000d0: 10f8 883d 19c3 453d 30a1 a8bd afc5 073d
000000e0: 251f b33d 5fc5 e0bd 23b9 683e 103b 3e3d
000000f0: dc7b c53d 26bb b93a 6812 543b 0b47 4c3e
-0.009012705 0.15322211 0.20404309 0.1819481 -0.020551415 0.07002467 0.06320175 0.07349927
0.028839428 0.13048404 -0.11939144 0.07320033 0.15736198 -0.09984999 -0.04956939 0.06916193
0.035481058 -0.027486557 0.09548774 0.09039187 0.07052969 0.20455924 0.13035104 0.08768219
0.17264503 0.036114052 0.31622323 -0.098743 -0.01666268 0.044208072 0.12727365 0.039419845
0.20645791 0.1372125 0.07164939 -0.021326087 -0.009202416 0.13761052 0.073179886 -0.07842727
-0.071044266 0.27984133 0.14050238 0.08139203 0.15542452 0.22361693 -0.07149379 0.102845006
-0.003098528 0.15145823 -0.03742672 0.03936711 0.06687939 0.048281763 -0.08233869 0.03314751
0.08746175 -0.109751455 0.22726874 0.046443045 0.09642765 0.0014170154 0.0032359604 0.19948976

fc3.weight f4 [3, 64]
00000000: efc6 183d 76b9 9cbe d971 bdbd f241 173e
00000010: b61d 23bf 1d3a 93be ebfb d73d 47b1 133e
00000020: 2867 87be 8001 493e 2927 be3e d5a7 1bbe
00000030: 377e cf3d 165e 283e c2b0 2c3d a90b eabd
00000040: b24b 13be 2f99 603e c899 05be d1de 55be
00000050: 21c4 37bd 499d 7ebe 5606 08bf d7ac 22be
00000060: 5e24 4dbe 5909 49be e36b 67bf cd23 c4bc
00000070: 0a9a 18be 950b 45bd 8388 103f 38dd c23d
00000080: 8370 4cbe 08c1 5bbe 81a5 4bbe 0cfb 27be
00000090: c1a1 b93d 26ca 06be b241 753c f5c1 02be
000000a0: 1ce4 193e faf0 72bd fc03 7ebd a793 3cbe
000000b0: 2381 603d b3cd 5ebe db73 333e 3e27 093e
000000c0: 2cfd 343e 83e5 42be ee3d d03d cdbb afbe
000000d0: ecc5 3ebe 5c17 06be 79e4 2b3e 9094 41be
000000e0: 5950 60be cb1d f9bc 9dac 62be cb52 debc
000000f0: 599e bbbd 802c 52be 06bb 003f 2ebd 12be
00000100: d2e2 3fbe 03a5 71be 3819 0fbd d661 8abd
00000110: 7f30 98be 1779 1e3e eed7 50be 3bfe 47be
00000120: 92e4 42be 9064 9dbe 8310 7e3e 28a1 fcbd
00000130: 973d 15be cef1 873e 283a 3fbe 6357 023e
00000140: 478e cebc 6891 843e 0113 efbd 7123 95bf
00000150: c6f4 68bd f13a 82bd e974 50be 820b 253e
00000160: 37f8 f3bd 6532 a13d 2f1f 2cbe 74f5 713e
00000170: 4aca ddbd 429c 56be b7aa 483e 7d90 7d3e
00000180: d339 1cbe e388 5abd 6e2f 4e3d 5da8 113e
00000190: eb80 a7bc dedb c83b 24e5 77be c0b7 d83d
000001a0: b15a 3bbe aa2b 153e 0c78 493d e511 97be
000001b0: 0793 8bbe e7b8 93bd 6ab4 c23d 0171 28be
000001c0: 571e 21bd 3edc 2cbe 92bb 8e3e bcd0 e63d
000001d0: 3b3f b3be d91b 2fbe bf60 d73d 4abd 26be
000001e0: ade9 b5bc c4cc 1fbe e14b 95be 5890 d83c
000001f0: 59a4 46be 21b0 01be 2d3a 173e 32f4 04be
00000200: d067 68be 21c4 ecbd 20bd 9dbe 2561 f1bc
00000210: e3e1 35bd 4f3b a63c cd6e b93d 0eaf 23bd
00000220: 22ee b6bd 969e 95be a9f3 223d 55de ad3d
00000230: 91e1 90be 006a 293d fb88 37be e0ff 063d
00000240: 3dd1 1d3e 017f cc3d 565e ddbe 4745 e73e
00000250: f294 993d 43fd 19be 747e 98bb ffc7 293c
00000260: c165 fdbe b42b 16be 6f53 2f3e 9548 3bbd
00000270: 6b18 d4bd 86f2 8cbe e136 8abe 9948 3f3e
00000280: 264a 0fbe a194 40be 771f bd3d 440d a6bd
00000290: dcc3 28bd fe79 8cbe 4ec1 0f3e 1bb3 833d
000002a0: 74d0 85be f0c6 2e3c a636 63be 62e1 99bd
000002b0: 71bf 88be 66de 27be e1b9 563d 16b7 acbe
000002c0: 627b a5bd 7ef8 66bf 86e9 67be 6674 5a3e
000002d0: 36d5 afbe 9d48 29be a242 c0be 15bb dc3d
000002e0: e792 703d 7c67 a33d 87af 963e b5b5 b83d
000002f0: 6d32 24be caab 9d3d 3880 b6bc 0c94 13be
0.037299093 -0.30610245 -0.0925023 0.1477125 -0.6371721 -0.28755274 0.105460964 0.14423095
-0.2644589 0.19629478 0.37139252 -0.15200742 0.101314954 0.16442141 0.042160757 -0.11428005
-0.14384344 0.21933435 -0.13046944 -0.20885779 -0.044864777 -0.24864687 -0.5313467 -0.15886246
-0.20033404 -0.19632472 -0.90399 -0.023942852 -0.14902511 -0.04810675 0.564583 0.095148504
-0.19964795 -0.21460354 -0.19887353 -0.1640436 0.09064055 -0.13163051 0.014969276 -0.12769301
0.15028423 -0.059311844 -0.06201552 -0.184157 0.054810654 -0.21758156 0.17524664 0.13393876
0.17674702 -0.19032864 0.10168062 -0.34322968 -0.18630189 -0.13094848 0.16786374 -0.18904328
-0.2190565 -0.030409714 -0.22136159 -0.027139088 -0.09161062 -0.20524788 0.50285375 -0.14329979
-0.18738869 -0.23598103 -0.03493616 -0.06756942 -0.297245 0.1547588 -0.2039487 -0.19530575
-0.19032505 -0.30740786 0.24810986 -0.123354256 -0.14574276 0.2655167 -0.18674529 0.12728648
-0.025214327 0.25892186 -0.116735466 -1.1651441 -0.05687406 -0.063588984 -0.20357098 0.16117671
-0.119125776 0.0787094 -0.1680877 0.23628789 -0.10829599 -0.20958045 0.19596373 0.24762149
-0.15256433 -0.0533532 0.0503382 0.14224382 -0.020447215 0.006129726 -0.24208504 0.105819225
-0.18296315 0.14567438 0.04918675 -0.2950584 -0.2726061 -0.07213002 0.095070675 -0.16449358
-0.039335575 -0.1688089 0.2787748 0.11270282 -0.3500918 -0.17100467 0.105165 -0.16283146
-0.022206152 -0.15605456 -0.29159454 0.026436016 -0.19398631 -0.12664844 0.14768286 -0.12983778
-0.22695851 -0.11560846 -0.30808353 -0.029465267 -0.044404875 0.020291952 0.09054337 -0.039961867
-0.08932139 -0.29222554 0.039783154 0.08489672 -0.28297094 0.041360855 -0.17923348 0.032958865
0.1541185 0.099851616 -0.43236035 0.45170042 0.07499112 -0.15038018 -0.0046537463 0.010362624
-0.49491695 -0.14665109 0.17121671 -0.045723516 -0.1035622 -0.2752878 -0.26994994 0.18680038
-0.13993129 -0.18806697 0.09234517 -0.08107999 -0.04120241 -0.27436823 0.14038584 0.06430646
-0.261356 0.010667548 -0.22188815 -0.075136915 -0.26708558 -0.16393432 0.05242336 -0.33733433
-0.08080174 -0.9022292 -0.22647676 0.21333465 -0.34342355 -0.16531606 -0.37550837 0.107778706
0.058733847 0.079787225 0.29430792 0.09019033 -0.16034861 0.07698782 -0.022277936 -0.14411944

fc3.bias f4 [3]
00000000: 5494 b4bd f997 c6bd 32da ebbd
-0.08817354 -0.09696955 -0.11516227
