SAC/sac/actor_checkpoint_2.pth (torch, 22902 bytes, 6 tensors)

fc1.weight f4 [64, 10]
0.018157221 -0.1817973 0.2386079 -0.18830444 -0.14378338 -0.034567315 0.33347297 -0.60570794
0.30134913 -0.11356413 -0.51928616 -0.21595185 -0.19734605 -0.07739565 -0.21762122 -0.29440653
0.03833645 0.2835877 0.029635474 -0.30591115 0.3051074 -0.47753984 -0.22626317 -0.29917607
-0.42371622 -0.04538566 -0.037304144 -0.052578766 -0.22625962 -0.13297065 -0.16336724 -0.12366933
0.18047144 -0.15169148 0.31436688 0.24255028 0.2744372 0.02835703 -0.15091039 -0.11074925
-0.4637237 0.022393508 0.21269964 0.15564951 -0.22477275 -0.15756615 0.25161383 -0.07655489
0.15094805 -0.34370056 -0.23476787 -0.16077079 0.11149824 0.107417665 0.06666316 -0.3454032
-0.015183967 0.08966376 -0.2079679 0.0027398963 0.10190853 0.24921916 0.07097096 0.23636602
-0.21016163 -0.25996155 0.17429487 -0.17939785 -0.16695242 0.1877024 0.12376153 -0.09020952
-0.08857104 -0.14186078 0.18185417 -0.16778943 0.35720742 -0.6032297 -0.09010866 0.28335533
0.03187057 0.19591093 -0.24411727 -0.2246525 0.124726325 0.020893568 -0.059560522 0.43904442
-0.17772917 -0.35711828 0.09669827 -0.41396555 0.06332031 -0.07048653 -0.004393067 -0.29973137
0.109363444 -0.31180337 -0.31909364 0.2180285 -0.18746422 -0.2721028 0.059626073 0.19766152
-0.1235031 0.28304347 -0.057892784 -0.4761443 -0.027878378 -0.07331136 -0.0075358497 0.25161013
0.045138765 0.33611524 -0.12051997 0.08757727 -0.34043953 -0.090408005 -0.4037326 0.22568898
-0.25790602 -0.32854122 -0.031037599 0.07739868 -0.07356494 -0.22201529 -0.3778723 -0.15662885
0.2791715 -0.11809397 -0.16087708 0.5582191 -0.23252305 -0.51526487 -0.4496497 -0.6101899
0.12651734 0.23280945 -0.0075456477 0.19583517 -0.16731766 -0.30809218 0.124171995 0.25304812
0.17317931 -0.06427109 -0.06525119 0.05119864 -0.38927713 -0.21176031 0.046240434 -0.3352448
-0.3657101 0.023276078 0.07760625 0.21494795 -0.10500904 -0.0643565 0.032720108 0.32262668
0.09304466 -0.30753517 0.11017186 0.19477768 0.2175822 -0.14072001 0.061313994 -0.16596416
0.15566653 0.43446866 -0.11437098 0.24513617 0.37223062 -0.06301962 -0.28963664 -0.2923455
-0.24361385 0.2326103 -0.28326932 -0.2018643 -0.27146426 0.29143462 -0.044275634 -0.35802335
-0.27028543 -0.056892086 0.34170246 0.30659488 -0.16277528 0.02808915 0.40298274 -0.33218068
0.3284779 0.024704682 0.25092494 -0.0070337025 -0.2422625 -0.23907384 -0.039078914 0.30462602
-0.26579854 0.06755655 -0.109198935 -0.17243592 0.112063125 0.1550648 0.2987015 0.37805927
-0.31980172 -0.034690287 0.30044457 0.064794 0.17658304 0.22452691 0.21416765 -0.16461542
0.21178505 0.24410802 -0.19205812 -0.10354952 -0.20051162 -0.009491397 0.15508209 -0.4536974
-0.5586136 -0.29428202 -0.44890842 0.22445045 0.16623554 0.021317026 -0.15389378 0.4215631
0.23658869 0.332112 -0.3379062 0.14517334 -0.049392577 -0.09156418 0.33644179 0.38543707
0.25876412 0.1675966 -0.14011647 0.106134266 0.028694157 -0.31649768 -0.046048302 -0.2475536
-0.35429052 -0.13372321 0.39594015 -0.40819278 0.3460503 -0.37723404 -0.20991616 -0.41380435
00000000: 74be 943c 1229 3abe a155 743e e1d2 40be
00000010: f33b 13be 7596 0dbd f8bc aa3e ad0f 1bbf
00000020: 6f4a 9a3e 5094 e8bd f0ef 04bf 7b22 5dbe
00000030: 1515 4abe 9c81 9ebd 19d8 5ebe 74bc 96be
00000040: ae06 1d3d 6832 913e 18c6 f23c 63a0 9cbe
00000050: 0a37 9c3e 1a80 f4be 88b1 67be 9b2d 99be
00000060: 55f1 d8be 50e6 39bd 3bcc 18bd d55c 57bd
00000070: 9ab0 67be 7529 08be be49 27be 5846 fdbd
00000080: 81cd 383e 0355 1bbe b2f4 a03e 1a5f 783e
00000090: 0883 8c3e 014d e83c 4188 1abe 81d0 e2bd
000000a0: 316d edbe 9772 b73c efcd 593e 9662 1f3e
000000b0: d42a 66be 0559 21be 87d3 803e cfc8 9cbd
000000c0: 2092 1a3e 85f9 afbe fd66 70be 19a1 24be
000000d0: 3059 e43d cbfd db3d b286 883d b0d8 b0be
000000e0: 2cc6 78bc a2a1 b73d 8af5 54be d58f 333b
000000f0: 6bb5 d03d 4f33 7f3e 3959 913d ef09 723e
00000100: 9c34 57be ae19 85be 5b7a 323e 12b4 37be
00000110: 93f5 2abe 0f35 403e af76 fd3d c5bf b8bd
00000120: bc64 b5bd f443 11be fb37 3a3e fed0 2bbe
00000130: e4e3 b63e 436d 1abf e48a b8bd f313 913e
00000140: b78a 023d e09c 483e e1f9 79be 4e0b 66be
00000150: 8470 ff3d fd28 ab3c bcf5 73bd 6eca e03e
00000160: a3fe 35be 35d8 b6be be09 c63d 4bf3 d3be
00000170: 14ae 813d 3e5b 90bd b8f3 8fbb 6476 99be
00000180: f1f9 df3d b1a4 9fbe 3e60 a3be dd42 5f3e
00000190: 9ff6 3fbe 0f51 8bbe 783a 743d c867 4a3e
000001a0: 31ef fcbd 13eb 903e fc20 6dbd 30c9 f3be
000001b0: 3261 e4bc 4424 96bd 4aef f6bb 0bd3 803e
000001c0: 6de3 383d 4c17 ac3e 2dd3 f6bd b65b b33d
000001d0: 174e aebe d527 b9bd 0ab6 cebe 031b 673e
000001e0: 420c 84be 8e36 a8be 9042 febc 3383 9e3d
000001f0: 37a9 96bd fa57 63be 7a78 c1be 5063 20be
00000200: 91ef 8e3e 40db f1bd f6bc 24be 72e7 0e3f
00000210: 861a 6ebe 66e8 03bf 7c38 e6be 6835 1cbf
00000220: c38d 013e 9a65 6e3e 7b41 f7bb 0489 483e
00000230: 5255 2bbe 42be 9dbe e34d fe3d 868f 813e
00000240: eb55 313e 90a0 83bd 6aa2 85bd aab5 513d
00000250: 554f c7be b2d7 58be 9c66 3d3d 35a5 abbe
00000260: 5b3e bbbe 79ad be3c 07f0 9e3d 511b 5c3e
00000270: fb0e d7bd 57cd 83bd 8505 063d 532f a53e
00000280: 338e be3d 4075 9dbe c9a1 e13d cd73 473e
00000290: decd 5e3e e818 10be 6224 7b3d 82f2 29be
000002a0: 0c67 1f3e ad72 de3e 553b eabd fa04 7b3e
000002b0: 0395 be3e 6e10 81bd 414b 94be 4fae 95be
000002c0: e975 79be 6531 6e3e ad08 91be 84b5 4ebe
000002d0: 5dfd 8abe eb36 953e 5e5a 35bd d64e b7be
000002e0: da62 8abe ad07 69bd a0f3 ae3e 01fa 9c3e
000002f0: 90ae 26be 381b e63c c153 ce3e 9613 aabe
00000300: 412e a83e 7961 ca3c 3c79 803e f97a e6bb
00000310: a913 78be c6cf 74be 3611 20bd f1f7 9b3e
00000320: bf16 88be 175b 8a3d b1a3 dfbd 0b93 30be
00000330: 5a81 e53d 4fc9 1e3e 67ef 983e fc90 c13e
00000340: 0dbd a3be 6717 0ebd dfd3 993e b7b2 843d
00000350: 2fd2 343e 62ea 653e c44e 5b3e f290 28be
00000360: 2ede 583e 74f7 793e e2aa 44be c511 d4bd
00000370: eb52 4dbe ce81 1bbc d7cd 1e3e 074b e8be
00000380: 4d01 0fbf 22ac 96be 53d7 e5be 57d6 653e
00000390: a639 2a3e 0ba1 ae3c 5596 1dbe 1ed7 d73e
000003a0: 4e44 723e 960a aa3e 0b02 adbe 52a8 143e
000003b0: df4f 4abd 0086 bbbd 1942 ac3e 0258 c53e
000003c0: bb7c 843e 719e 2b3e b17a 0fbe ec5c d93d
000003d0: 0210 eb3c fc0b a2be 259d 3cbd b17e 7dbe
000003e0: 9165 b5be bdee 08be abb8 ca3e a5fe d0be
000003f0: 812d b13e d224 c1be 43f4 56be 2ade d3be

fc1.bias f4 [64]
-0.03186577 0.071051784 0.39461556 0.08690683 -0.052413467 0.2207998 -0.26941648 0.08200723
-0.26501918 -0.24853106 0.2865474 0.22457679 0.35114968 0.47178483 0.2359123 -0.32884842
0.05135522 0.4424977 0.30997622 0.28855756 -0.21976985 0.08787454 0.3004555 0.15353729
0.35148734 0.0135225635 -0.23135182 0.2226664 0.37023652 0.046025444 0.47847682 -0.04771076
-0.09773603 -0.09664995 -0.11021678 0.07587752 0.18305127 -0.17879623 -0.35229322 0.25915384
0.6303497 -0.15434174 0.2338512 -0.31235087 -0.27322558 0.13051538 0.01760726 0.023481803
0.111793235 -0.07063719 0.13238314 -0.02032455 -0.23866911 -0.009214805 -0.11547088 0.105622336
0.31442595 0.18062249 -0.1779583 -0.105535656 0.25160557 0.123627916 0.15335047 0.07971767
00000000: af85 02bd 9983 913d 0d0b ca3e 35fc b13d
00000010: 81af 56bd 5819 623e f5f0 89be 68f3 a73d
00000020: 98b0 87be ed7e 7ebe 57b6 923e 75f7 653e
00000030: e4c9 b33e c88d f13e fe92 713e d25e a8be
00000040: da59 523d 0f8f e23e 34b5 9e3e d1bd 933e
00000050: 590b 61be 91f7 b33d 4ed5 993e e138 1d3e
00000060: 26f6 b33e be8d 5d3c 7ee7 6cbe a902 643e
00000070: a48f bd3e 2d85 3c3d eafa f43e 5c6c 43bd
00000080: d429 c8bd 69f0 c5bd 56b9 e1bd ac65 9b3d
00000090: cb71 3b3e 5c16 37be c75f b4be d0af 843e
000000a0: 995e 213f c30b 1ebe b076 6f3e 74ec 9fbe
000000b0: 39e4 8bbe d3a5 053e 1a3d 903c e95c c03c
000000c0: daf3 e43d 3baa 90bd 728f 073e ac7f a6bc
000000d0: ad65 74be b2f9 16bc ff7b ecbd 8650 d83d
000000e0: 70fc a03e 1af5 383e b33a 36be 1423 d8bd
000000f0: 72d2 803e a230 fd3d e807 1d3e 0543 a33d

fc2.weight f4 [64, 64]
0.10734473 0.07123549 0.03809345 0.16111286 0.037545606 -0.05199826 0.05807622 -0.06358995
0.104720205 -0.01387962 0.16569006 0.106579885 0.033173803 0.09956915 0.08753617 -0.091507405
-0.098549195 -0.029047806 -0.057542104 -0.019072244 -0.011559072 0.088913865 0.17517425 0.21520218
0.08180797 0.0647443 0.105211705 -0.018003944 0.018094236 0.21044542 0.10839073 -0.011455041
0.19145939 -0.02185561 0.060695186 0.08504101 0.2584034 0.070604034 -0.005248538 0.13602947
-0.03896823 -0.06825884 0.051394597 0.10572491 0.0026463254 0.15153149 0.21616568 0.008807933
-0.03394043 0.19180612 0.06854342 0.15591867 0.0059694033 -0.11539213 -0.012722472 0.08348976
0.16213393 0.02369807 -0.14146735 0.084732175 0.15661737 0.17105809 0.15101357 0.10889878
-0.34023005 0.26892346 0.09835081 -0.038595006 0.06439868 0.068795726 0.09538737 0.044353925
-0.0065659373 0.017812276 -0.029007567 -0.035175644 0.10144454 0.16932575 0.124501064 0.15197216
-0.0054087318 0.04086139 0.13598102 0.017299386 0.15181722 -0.030080669 -0.13151348 0.0010958092
0.16226783 -0.10657741 -0.079625666 0.07860335 0.15301482 0.11681461 0.16493548 -0.064053796
0.08316202 -0.07644372 0.060746048 -0.0059870924 -0.077677704 -0.066728085 -0.07254419 0.23131421
0.09377157 0.024162672 0.0104311695 0.2305686 -0.054120556 0.0028965282 0.2390377 -0.036025163
0.05045281 0.16693804 -0.057079375 0.081763186 0.15702511 0.020703282 0.106243104 -0.045346677
0.20219812 0.23384602 0.10812183 -0.020538624 0.0073616 0.10107029 0.26866445 0.061810084
0.10360868 -0.0701319 0.104243636 0.047972072 0.17050824 -0.060736127 0.05212741 0.039106984
0.100344606 -0.1463881 0.16411205 0.027690282 0.037851337 0.032880757 0.035315506 0.0049305144
0.05085192 0.08111999 -0.15310055 -0.032122407 -0.34878492 -0.04661309 -0.06234321 0.092953175
-0.08291891 0.10473536 0.13418101 0.022897752 0.078963004 -0.30321142 0.03558365 -0.03347406
0.100001514 -0.0026108911 0.1466232 -0.19213387 0.13487637 -0.13694088 -0.31037897 0.11722967
0.52299255 -0.50191385 0.03171447 -0.0609381 0.026912138 -0.07687606 -0.03838932 -0.19515748
0.045277234 -0.08848281 0.023418693 -0.30475774 -0.10023121 0.047077004 0.0039582974 0.15026057
0.0136654675 -0.06720788 -0.16081297 0.07619354 0.18073435 0.11664145 0.12215529 0.12598519
-0.0037771366 0.14854613 -0.07099004 -0.054714113 0.103262134 0.14016381 0.019493237 0.06045531
0.1189434 -0.1601789 0.03533973 0.22068535 0.15217125 0.20674506 0.057182413 0.017727833
0.022531604 -0.050024457 -0.06843013 0.013359151 -0.036271468 -0.062046047 0.12489293 0.095612444
0.06837573 -0.14536281 0.13933678 0.10455586 -0.016004069 -0.024195794 -0.15534145 -0.02355204
0.0006994243 -0.03586685 0.07178308 0.034556583 -0.12853917 0.06329882 0.18213233 -0.19854082
-0.0680777 -0.097633734 -0.09067883 -0.04417686 0.06725554 0.057551835 -0.12226951 0.07747781
-0.040474314 0.1789958 0.13341793 -0.005957285 -0.016392205 0.13952672 0.0924721 -0.13157943
-0.046144944 -0.31067073 -0.055852555 -0.1443493 0.031404477 0.061658625 -0.020575682 0.07755671
00000000: 8ed7 db3d eae3 913d e107 1c3d c5fa 243e
00000010: 6cc9 193d 21fc 54bd 55e1 6d3d 733b 82bd
00000020: 8c77 d63d 5867 63bc a8aa 293e 8e46 da3d
00000030: 41e1 073d e9ea cb3d 2a46 b33d 3c68 bbbd
00000040: 29d4 c9bd aaf5 edbc 45b1 6bbd 653d 9cbc
00000050: 4362 3dbc 7918 b63d e160 333e f65d 5c3e
00000060: f08a a73d a998 843d 3c79 d73d 027d 93bc
00000070: 5d3a 943c 017f 573e f6fb dd3d edad 3bbc
00000080: ee0d 443e 890a b3bc 849b 783d fb29 ae3d
00000090: 734d 843e d998 903d eefb abbb 4f4b 0b3e
000000a0: 279d 1fbd 4acb 8bbd 2483 523d 4d86 d83d
000000b0: f96d 2d3b 122b 1b3e 895a 5d3e 264f 103c
000000c0: 1f05 0bbd d368 443e 7e60 8c3d 25a9 1f3e
000000d0: fc9a c33b b652 ecbd ea71 50bc aefc aa3d
000000e0: 7006 263e 7422 c23c d1dc 10be 1088 ad3d
000000f0: 4e60 203e da29 2f3e 4da3 1a3e 5306 df3d
00000100: a232 aebe 56b0 893e 266c c93d cc15 1ebd
00000110: 75e3 833d c6e4 8c3d 745a c33d 76ac 353d
00000120: 1327 d7bb 0deb 913c 47a1 edbc 5614 10bd
00000130: 28c2 cf3d bb63 2d3e 6afa fe3d 979e 1b3e
00000140: bb3b b1bb 465e 273d 9c3e 0b3e 71b7 8d3c
00000150: f975 1b3e bc6b f6bc 78ab 06be 41a1 8f3a
00000160: 8a29 263e 4245 dabd c812 a3bd cbfa a03d
00000170: ebaf 1c3e 803c ef3d d9e4 283e a32e 83bd
00000180: d950 aa3d 868e 9cbd d9d0 783d 5f2f c4bb
00000190: 7d15 9fbd bca8 88bd 0c92 94bd a2dd 6c3e
000001a0: 4f0b c03d ccf0 c53c 7fe7 2a3c 2d1a 6c3e
000001b0: 84ad 5dbd aed3 3d3b 4dc6 743e 1f8f 13bd
000001c0: 9ba7 4e3d cef1 2a3e 10cc 69bd 7573 a73d
000001d0: 31cb 203e ee99 a93c fc95 d93d 70bd 39bd
000001e0: 060d 4f3e 5575 6f3e fa6e dd3d 9e40 a8bc
000001f0: 9439 f13b f1fd ce3d 638e 893e 922c 7d3d
00000200: ca30 d43d 50a1 8fbd b07d d53d 5d7e 443d
00000210: b699 2e3e 72c6 78bd 8d83 553d a52e 203d
00000220: 7981 cd3d c3e6 15be fd0c 283e bbd6 e23c
00000230: 010a 1b3d f9ad 063d fea6 103d 2790 a13b
00000240: 1a4a 503d 3d22 a63d 64c6 1cbe c992 03bd
00000250: f093 b2be 5eed 3ebd 985b 7fbd 3c5e be3d
00000260: 64d1 a9bd 7e7f d63d bf66 093e 1194 bb3c
00000270: 5bb7 a13d 873e 9bbe 29c0 113d 191c 09bd
00000280: 98cd cc3d 7c1b 2bbb 6424 163e bebe 44be
00000290: 081d 0a3e 3b3a 0cbe fee9 9ebe 1c16 f03d
000002a0: d7e2 053f 6d7d 00bf 08e7 013d 3b9a 79bd
000002b0: d876 dc3c 3271 9dbd 1f3e 1dbd 5dd7 47be
000002c0: 9f74 393d 7a36 b5bd 8fd8 bf3c 3509 9cbe
000002d0: 0546 cdbd d1d3 403d 9bb4 813b e8dd 193e
000002e0: 20e5 5f3c 49a4 89bd 28ac 24be 5c0b 9c3d
000002f0: 6d12 393e b6e1 ee3d 8d2c fa3d 4302 013e
00000300: d689 77bb 7a1c 183e 3a63 91bd e81b 60bd
00000310: 197b d33d 1a87 0f3e 48b0 9f3c fd9f 773d
00000320: 9998 f33d f005 24be 65c0 103d 57fb 613e
00000330: c8d2 1b3e fab4 533e 1b38 6a3d f639 913c
00000340: 3394 b83c 72e6 4cbd 1925 8cbd 57e0 5a3c
00000350: 6491 14bd ff23 7ebd ddc7 ff3d 75d0 c33d
00000360: 9308 8c3d fdd9 14be 4dae 0e3e 6221 d63d
00000370: f71a 83bc 4236 c6bc d411 1fbe 35f0 c0bc
00000380: 9259 373a 1ee9 12bd 0203 933d 348b 0d3d
00000390: c69f 03be d0a2 813d e680 3a3e 494e 4bbe
000003a0: 526c 8bbd 32f4 c7bd d3b5 b9bd ccf2 34bd
000003b0: 46bd 893d 79bb 6b3d 7068 fabd b0ac 9e3d
000003c0: 65c8 25bd ad4a 373e b69e 083e 5435 c3bb
000003d0: f248 86bc 18e0 0e3e 0362 bd3d c2bc 06be
000003e0: 7b02 3dbd 3c10 9fbe a6c5 64bd 4ed0 13be
000003f0: fba1 003d c18d 7c3d 558e a8bc 0dd6 9e3d

fc2.bias f4 [64]
-0.017536396 0.13945366 0.19512448 0.1825865 -0.037935536 0.068611614 0.06341445 0.07374148
0.01757686 0.12412063 -0.11889427 0.07060579 0.15009321 -0.09837787 -0.054704953 0.07091968
0.03597934 -0.021787114 0.08070526 0.070705704 0.070667446 0.1955879 0.1161871 0.08914583
0.15473351 0.031258643 0.30116764 -0.098579764 -0.024063459 0.03241112 0.12727635 0.039577577
0.19657266 0.12791711 0.070775546 -0.022945328 -0.009202416 0.131439 0.07181153 -0.07682359
-0.07759551 0.28166804 0.13637993 0.06968145 0.14451246 0.21442656 -0.07129886 0.09440881
-0.002199513 0.12319706 -0.03742391 0.040502574 0.046695508 0.038466062 -0.08372337 0.028662093
0.08512555 -0.109841675 0.2243786 0.048921783 0.086753674 -0.0028772843 0.004214023 0.19105513
00000000: 7da8 8fbc f1cc 0e3e b6ce 473e f5f7 3a3e
00000010: 4b62 1bbd 3f84 8c3d 6fdf 813d c605 973d
00000020: 59fd 8f3c f532 fe3d d77e f3bd c599 903d
00000030: 09b2 193e 567a c9bd 4d12 60bd 563e 913d
00000040: 135f 133d e47a b2bc cd48 a53d 27ce 903d
00000050: 18ba 903d 3248 483e 81f3 ed3d 1792 b63d
00000060: 7672 1e3e 1009 003d a532 9a3e 30e4 c9bd
00000070: bb20 c5bc 86c1 043d bb54 023e 191c 223d
00000080: 584a 493e b4fc 023e c5f2 903d d7f7 bbbc
00000090: bbc5 16bc f297 063e ec11 933d b055 9dbd
000000a0: 65ea 9ebd cb36 903e 2ea7 0b3e 26b5 8e3d
000000b0: 13fb 133e a392 5b3e 2305 92bd 6859 c13d
000000c0: b425 10bb bd4e fc3d d049 19bd 07e6 253d
000000d0: ca43 3f3d 978e 1d3d 2977 abbd c4cc ea3c
000000e0: 4e56 ae3d acf4 e0bd 81c3 653e 3562 483d
000000f0: e9ab b13d d290 3cbb c915 8a3b f5a3 433e

fc3.weight f4 [3, 64]
0.06225621 -0.2896774 -0.07397134 0.15439473 -0.63417614 -0.28099146 0.1068564 0.15258846
-0.2395259 0.20714039 0.3713451 -0.14724317 0.11904383 0.16486506 0.054614794 -0.10516208
-0.13945529 0.22008243 -0.101964444 -0.1809492 -0.040875584 -0.22477126 -0.5145929 -0.15446907
-0.17013822 -0.18536101 -0.8811333 -0.023707632 -0.125456 -0.019625839 0.564583 0.09603995
-0.17409514 -0.20041187 -0.1974024 -0.15484905 0.09064055 -0.11220387 0.032500174 -0.12669902
0.15667015 -0.049778298 -0.04514613 -0.16664672 0.07561799 -0.19777268 0.17554866 0.14786309
0.18363845 -0.14840037 0.102264516 -0.3425875 -0.17315805 -0.10085565 0.17041615 -0.17516598
-0.21536648 -0.029425405 -0.21916562 -0.019892205 -0.07144932 -0.19823356 0.50299567 -0.12087995
-0.16243729 -0.21152192 -0.016017564 -0.05761792 -0.28959894 0.16326673 -0.20394798 -0.19289578
-0.16091952 -0.30245325 0.248466 -0.116082825 -0.12080503 0.26581174 -0.1811649 0.13860452
-0.018902572 0.26032877 -0.076566495 -1.1448768 -0.04822727 -0.03187601 -0.18240397 0.16923104
-0.09162253 0.08624934 -0.13112679 0.23629166 -0.08333102 -0.17812097 0.19594269 0.24762149
-0.1233949 -0.031926263 0.052227695 0.15138353 -0.020447215 0.018380854 -0.22482632 0.108789526
-0.17700614 0.15917003 0.060823526 -0.2775608 -0.2525805 -0.051936228 0.09506103 -0.13807394
-0.032713264 -0.11926862 0.27908373 0.11809475 -0.33396688 -0.14045346 0.11057593 -0.14712247
-0.016569853 -0.15606122 -0.28679907 0.036563087 -0.17334251 -0.11247612 0.14767452 -0.10619111
-0.2043113 -0.09182243 -0.28928375 -0.019276027 -0.040012207 0.027623743 0.09112555 -0.037145615
-0.06253911 -0.2824351 0.03986737 0.093905866 -0.26102126 0.041387733 -0.17435245 0.04350266
0.16171959 0.1009945 -0.39447433 0.4851196 0.08272923 -0.12098188 0.022650922 0.017915187
-0.4691169 -0.13928363 0.21196242 -0.0453925 -0.07963233 -0.24767801 -0.26994994 0.18680038
-0.10970451 -0.16866156 0.09368662 -0.07290914 -0.04120241 -0.2657903 0.16037633 0.06795986
-0.25480816 0.027371364 -0.20999119 -0.061322153 -0.24139269 -0.14483318 0.052460663 -0.3164374
-0.07366715 -0.85411453 -0.2260835 0.21500535 -0.33139557 -0.13436246 -0.37252808 0.12668085
0.06347029 0.0808672 0.30065763 0.09916121 -0.13882457 0.089379884 -0.021995064 -0.12034707
00000000: 5e00 7f3d 9950 94be 497e 97bd a719 1e3e
00000010: 5e59 22bf 1dde 8fbe 87d7 da3d 2640 1c3e
00000020: 4746 75be 9c1c 543e f220 be3e eac6 16be
00000030: 40cd f33d 63d2 283e c3b3 5f3d 375f d7bd
00000040: 5ecd 0ebe 4a5d 613e bcd2 d0bd bf4a 39be
00000050: 286d 27bd 702a 66be 5cbc 03bf 242d 1ebe
00000060: b738 2ebe 47cf 3dbe f491 61bf 8236 c2bc
00000070: 8a77 00be 5ec6 a0bc 8388 103f 98b0 c43d
00000080: ff45 32be c538 4dbe db23 4abe c090 1ebe
00000090: c1a1 b93d 25cb e5bd e71e 053d 63bd 01be
000000a0: 246e 203e 54e4 4bbd 26eb 38bd 70a5 2abe
000000b0: 9bdd 9a3d ec84 4abe 07c3 333e 6c69 173e
000000c0: b80b 3c3e 44f6 17be 0f70 d13d a167 afbe
000000d0: 5850 31be 688d cebd 9281 2e3e b65e 33be
000000e0: 0889 5cbe 8c0d f1bc f46c 60be faf4 a2bc
000000f0: 0554 92bd bdfd 4abe 53c4 003f e88f f7bd
00000100: f655 26be 3499 58be 4437 83bc c500 6cbd
00000110: 5046 94be 652f 273e bdd7 50be 7986 45be
00000120: 16c8 24be 27db 9abe df6d 7e3e d5bc edbd
00000130: a168 f7bd 7a18 883e 4b83 39be 58ee 0d3e
00000140: 91d9 9abc d049 853e e5ce 9cbd 538b 92bf
00000150: f589 45bd 6b90 02bd 1bc8 3abe e74a 2d3e
00000160: 98a4 bbbd 7ea3 b03d 1a46 06be 71f6 713e
00000170: 74a9 aabd 5865 36be 33a5 483e 7d90 7d3e
00000180: 77b6 fcbd 1dc5 02bd b5ec 553d 4904 1b3e
00000190: eb80 a7bc 7293 963c df38 66be 0bcd de3d
000001a0: 1941 35be 78fd 223e 1722 793d 731c 8ebe
000001b0: 3b52 81be 15bb 54bd 5baf c23d 4163 0dbe
000001c0: 58fe 05bd 1b43 f4bd 10e4 8e3e a9db f13d
000001d0: b5fd aabe 08d3 0fbe a275 e23d 46a7 16be
000001e0: 80bd 87bc 83ce 1fbe 54d7 92be 2dc3 153d
000001f0: b380 31be e159 e6bd fd37 173e ba7a d9bd
00000200: fb36 51be 660d bcbd 001d 94be c2e8 9dbc
00000210: d7e3 23bd 304b e23c 08a0 ba3d 0026 18bd
00000220: 8114 80bd 559b 90be f84b 233d b851 c03d
00000230: 94a4 85be 2f86 293d 7389 32be d82f 323d
00000240: d299 253e 34d6 ce3d 8af8 c9be 9961 f83e
00000250: f16d a93d 59c5 f7bd 6d8e b93c dfc2 923c
00000260: 1730 f0be 5ea0 0ebe ad0c 593e 7ced 39bd
00000270: 4616 a3bd 4e9f 7dbe e136 8abe 9948 3f3e
00000280: c2ac e0bd 9eb5 2cbe c5de bf3d 6351 95bd
00000290: dcc3 28bd ab15 88be b139 243e 8a2e 8b3d
000002a0: 3776 82be e939 e03c ee07 57be f02c 7bbd
000002b0: a52f 77be 264f 14be fee0 563d 1504 a2be
000002c0: cede 96bd 40a7 5abf 6f82 67be 5d2a 5c3e
000002d0: aeac a9be 5096 09be 00bc bebe a0b8 013e
000002e0: b6fc 813d b49d a53d ccef 993e 0815 cb3d
000002f0: 0728 0ebe cd0c b73d fe2e b4bc 8678 f6bd

fc3.bias f4 [3]
-0.06770199 -0.07280215 -0.09071479
00000000: 57a7 8abd 4b19 95bd adc8 b9bd
