SAC/sac/actor_checkpoint_3.pth (torch, 22902 bytes, 6 tensors)

fc1.weight f4 [64, 10]
000000 20 a6 8d 3c c8 a9 38 be 68 eb 72 3e ac cf 40 be
       0.017291129 -0.18033516 0.23722613 -0.1882922
000010 be 38 13 be a5 06 0a bd 47 00 aa 3e 8d 63 1a bf
       -0.14377114 -0.033697743 0.33203337 -0.6030815
000020 38 84 9a 3e a8 6c e2 bd cc d1 05 bf 91 ea 5f be
       0.30179 -0.11055881 -0.5227325 -0.21866824
000030 81 23 48 be a4 d7 9f bd a9 61 5f be 56 70 97 be
       -0.19544794 -0.07804802 -0.21814598 -0.29577893
000040 71 55 1d 3d 33 76 90 3e 5f f1 02 3d 90 c0 9c be
       0.03841156 0.2821518 0.03196847 -0.30615664
000050 c2 1e 9b 3e 83 d7 f5 be e9 c2 65 be 90 40 99 be
       0.30296904 -0.48015985 -0.22437634 -0.2993207
000060 4a 04 d9 be 71 f6 3f bd e9 2f 11 bd e3 24 68 bd
       -0.42386085 -0.046865884 -0.03544608 -0.056675803
000070 9c c7 65 be 9e d3 08 be a2 95 29 be ce 18 00 be
       -0.22439426 -0.13361976 -0.16560987 -0.12509462
000080 4a c4 3a 3e 89 74 1b be 13 ee a0 3e 27 56 78 3e
       0.18238941 -0.15181173 0.31431636 0.24251615
000090 e5 c6 8c 3e ea 54 d9 3c 11 e1 18 be 20 d7 df bd
       0.27495494 0.026529748 -0.14929606 -0.10929704
0000a0 fb dc ee be f0 88 a8 3c 84 b3 5b 3e 51 33 1f 3e
       -0.4665297 0.02057311 0.21455199 0.1554692
0000b0 19 5a 66 be 1b ce 21 be cc 18 81 3e db e1 a2 bd
       -0.22495307 -0.15801279 0.2521423 -0.07953235
0000c0 0c e1 1c 3e cb c4 af be 4e 4b 71 be 57 15 26 be
       0.15320224 -0.3432983 -0.23563883 -0.16219078
0000d0 0f cf e5 3d 8a ab db 3d ad 37 88 3d ad 20 b1 be
       0.11221134 0.10726078 0.06651244 -0.34595242
0000e0 f4 cb 70 bc db 9c b3 3d 40 4b 54 be 88 5b 2f 3b
       -0.014697064 0.08770152 -0.2073183 0.0026757438
0000f0 f7 a1 d1 3d 23 e9 7e 3e 3a 66 92 3d e1 09 72 3e
       0.102359705 0.24893622 0.071484044 0.23636581
000100 aa 34 57 be b1 2f 85 be a2 c3 32 3e f2 f3 38 be
       -0.21016183 -0.26012948 0.1745744 -0.18061808
000110 d1 1c 2b be c7 95 3f 3e 91 8d fe 3d f6 38 b9 bd
       -0.16710211 0.1870948 0.124293454 -0.090440676
000120 e5 22 b4 bd f0 43 11 be f5 38 3a 3e 31 cc 2b be
       -0.08795718 -0.14186072 0.1818579 -0.16777112
000130 be 01 b7 3e 88 95 1a bf 79 08 b9 bd 76 94 90 3e
       0.35743517 -0.60384417 -0.09034819 0.28238267
000140 a0 0b 04 3d 3e 9d 48 3e f4 1c 7a be 5e 0b 66 be
       0.03223765 0.19591233 -0.24425107 -0.22465274
000150 a1 6e ff 3d e0 7a a9 3c b1 4e 73 bd b8 e3 e0 3e
       0.12472273 0.020688474 -0.059401218 0.43923736
000160 4f 3d 36 be d5 2b b7 be 2a 4c c6 3d 1f a7 d3 be
       -0.17796825 -0.3577563 0.09682496 -0.4133844
000170 34 73 82 3d 6b 56 90 bd 54 ba 8d bb b8 35 99 be
       0.063696295 -0.07047733 -0.0043251906 -0.29923797
000180 f3 8f df 3d 99 2c 9f be 8f 71 a3 be 07 90 5e 3e
       0.10916128 -0.31088713 -0.31922576 0.2173463
000190 76 98 43 be b0 57 8c be 49 ed 79 3d c6 2f 4a 3e
       -0.19101128 -0.2741065 0.06101731 0.19744787
0001a0 fe 82 fd bd 34 c7 90 3e 36 c5 6d bd 70 3e f5 be
       -0.123785004 0.2827698 -0.058049403 -0.478992
0001b0 20 b2 ce bc 8f 0c 92 bd 79 b3 02 bc 45 d6 80 3e
       -0.025231421 -0.071313016 -0.00797736 0.25163475
0001c0 88 9a 34 3d e4 10 ac 3e 3e 58 f7 bd 7a 97 b2 3d
       0.044092685 0.33606637 -0.12077378 0.08720298
0001d0 c9 3b af be be b2 b5 bd 16 7c ce be d4 d6 69 3e
       -0.342253 -0.08871983 -0.40329045 0.22835857
0001e0 1f 9c 84 be 34 8a a9 be a9 6b 02 bd a6 29 9d 3d
       -0.2590036 -0.33113253 -0.031840954 0.076739594
0001f0 c4 02 98 bd f9 4b 64 be 93 9f c2 be ae 71 22 be
       -0.074224025 -0.22294606 -0.3801237 -0.15863678
000200 de f1 8f 3e 08 77 ee bd 30 b9 25 be a7 df 0e 3f
       0.28114218 -0.11643797 -0.16183925 0.55810016
000210 a6 54 6f be b1 ec 03 bf ce 60 e6 be 88 52 1c bf
       -0.23372135 -0.5153304 -0.4499573 -0.6106343
000220 93 ac fd 3d 1d 9e 71 3e 44 95 e2 bb ae 82 4c 3e
       0.123864315 0.23595472 -0.0069147665 0.19971725
000230 9a 5b 2e be fb df 9e be 12 f9 00 3e 6f 7c 81 3e
       -0.1702713 -0.3103026 0.12595013 0.25290248
000240 61 10 31 3e bb 6b 86 bd ec bf 83 bd 68 78 47 3d
       0.17291404 -0.06563517 -0.064330906 0.048698813
000250 21 4a c6 be 35 95 57 be 0b 1a 3d 3d bd b2 ab be
       -0.3872843 -0.21053012 0.046167415 -0.33534804
000260 4a 35 bb be 82 a8 be 3c c8 ef 9e 3d eb eb 5b 3e
       -0.36564094 0.02327371 0.077605784 0.21476714
000270 29 f9 d5 bd 39 ba 84 bd a0 ea 04 3d 56 40 a5 3e
       -0.10447914 -0.06480832 0.03245032 0.32275647
000280 7f 66 bd 3d 50 e0 9d be 45 ab e3 3d f0 70 47 3e
       0.09248065 -0.308352 0.111166514 0.19476676
000290 ad cc 5e 3e 1c 3e 10 be 98 9d 7c 3d 07 8f 2b be
       0.21757765 -0.14086193 0.06167373 -0.1675378
0002a0 6a 23 20 3e 24 9a de 3e 3d cc ef bd 30 48 79 3e
       0.1563851 0.43476975 -0.11708877 0.24343944
0002b0 48 c4 bf 3e 8f 04 82 bd 2b 65 94 be 82 0f 96 be
       0.37454438 -0.06348526 -0.28983435 -0.29308707
0002c0 2f 6d 79 be bd 19 6d 3e e6 dc 8f be da 6b 4d be
       -0.24358056 0.2315435 -0.2809822 -0.20060673
0002d0 bb 20 8b be f2 05 95 3e 5a 2f 33 bd 4f 57 b7 be
       -0.2717341 0.29106098 -0.04374633 -0.358088
0002e0 53 6b 8a be 11 c8 6a bd 9b 81 ae 3e 70 ae 9d 3e
       -0.27035007 -0.057319704 0.34083256 0.30797148
0002f0 5e 82 26 be f2 5e ec 3c 9e 73 ce 3e 2f 80 aa be
       -0.16260669 0.028853867 0.40322584 -0.3330092
000300 d6 67 a8 3e 94 39 c9 3c de 79 80 3e 20 13 f6 bb
       0.3289172 0.024563588 0.25092977 -0.007509604
000310 84 43 78 be 5a a2 75 be 25 81 20 bd e9 f9 9b 3e
       -0.24244505 -0.23987713 -0.03918566 0.30464104
000320 eb 14 88 be 8d 11 8a 3d 33 35 de bd 0b 93 30 be
       -0.2657846 0.06741629 -0.10849991 -0.17243592
000330 f6 81 e5 3d 55 58 1f 3e fb 9a 98 3e e7 90 c1 3e
       0.11206429 0.1556104 0.2980574 0.37805864
000340 64 ab a3 be 34 14 0e bd 92 0d 9a 3e 43 e6 84 3d
       -0.31966698 -0.034687236 0.30088478 0.064892314
000350 1a ed 33 3e 4f e9 65 3e 12 4e 5b 3e 65 fd 28 be
       0.17570916 0.22452281 0.214165 -0.16502912
000360 5a 83 58 3e 66 c5 7a 3e 8b 32 45 be 3c 0d d4 bd
       0.21143857 0.24489364 -0.19257562 -0.10354087
000370 7b 93 4d be 50 d8 1d bc 0d f4 1d 3e 52 4c e8 be
       -0.2007579 -0.009634092 0.15425129 -0.45370728
000380 4e 01 0f bf 0c 98 96 be ef d3 e6 be 4a 8f 67 3e
       -0.55861366 -0.29412878 -0.45083568 0.22613254
000390 b6 e4 2a 3e cf 81 bc 3c ab d3 21 be 14 e6 d6 3e
       0.16688809 0.023011116 -0.15803401 0.4197241
0003a0 04 fc 74 3e dd dc a9 3e c4 2f ad be 61 40 15 3e
       0.23924261 0.33176318 -0.33825505 0.1457534
0003b0 a6 f7 53 bd 52 65 bb bd 0a 6e ae 3e d4 ce c7 3e
       -0.051749848 -0.09150185 0.34068328 0.39024985
0003c0 f5 70 85 3e 21 9b 2a 3e 04 26 11 be 7d a6 d8 3d
       0.26062742 0.1666074 -0.14174658 0.1057863
0003d0 4a b6 e7 3c 9b fd a2 be 50 56 3f bd 5e d9 7e be
       0.028285164 -0.3183411 -0.046713173 -0.24887607
0003e0 18 2d b6 be 1c 2a 0a be ec a2 ca 3e 3d 04 d1 be
       -0.3558128 -0.13492626 0.39577425 -0.40823546
0003f0 50 fb b0 3e d2 24 c1 be 43 f4 56 be 5f da d3 be
       0.34566736 -0.37723404 -0.20991616 -0.4137754

fc1.bias f4 [64]
000000 2a 28 0c bd 58 d2 ad 3d 26 9c ce 3e a2 eb ba 3d
       -0.03421799 0.084873855 0.40353507 0.09126975
000010 8e 5f 3c bd 66 4e 67 3e 9d b8 89 be 75 09 a8 3d
       -0.045989566 0.225885 -0.2689866 0.08204929
000020 15 43 87 be 80 d3 7f be 10 36 96 3e f7 d3 6c 3e
       -0.26418367 -0.24983025 0.2933812 0.23127733
000030 41 d4 ba 3e da 44 f8 3e f8 a3 7a 3e e7 57 a8 be
       0.36490062 0.4849003 0.24476612 -0.32879564
000040 32 c5 5a 3d 97 f3 e7 3e 83 bf a2 3e 6e 3b 95 3e
       0.053410716 0.45303032 0.31786737 0.29146904
000050 11 b3 61 be df bf b8 3d d2 8f 9c 3e 42 63 2a 3e
       -0.22040965 0.090209715 0.30578476 0.16639426
000060 9b 38 b8 3e 92 cc 58 3c 7f fd 6c be 2e fb 66 3e
       0.35980687 0.013232367 -0.23143576 0.22556755
000070 fe eb c0 3e e3 ca 55 3d cf 50 fa 3e 49 04 31 bd
       0.37680048 0.05219544 0.48889777 -0.043216977
000080 2b 69 b8 bd ab 1f bf bd b1 5e d9 bd e5 bf 9e 3d
       -0.09004434 -0.09332212 -0.10613764 0.07751445
000090 cf ea 3f 3e 30 44 3a be 7b 59 b5 be f0 3e 8e 3e
       0.18741916 -0.18190074 -0.3541983 0.27782393
0000a0 de c6 24 3f d8 92 1d be 5e a8 73 3e f4 31 9f be
       0.6436595 -0.15388048 0.23794696 -0.310928
0000b0 6f 6f 8c be c8 7f 0c 3e 06 fc ed 3c b4 50 ca 3c
       -0.27428767 0.1372062 0.029050838 0.024696685
0000c0 8e 28 ed 3d 1b 0f 8a bd 32 61 0c 3e 37 0f 8e bc
       0.11580001 -0.067411624 0.13708952 -0.01734124
0000d0 67 21 6f be c6 6d 1f bc 58 5d df bd 16 f6 f1 3d
       -0.23352586 -0.009730762 -0.10906476 0.11814515
0000e0 7d 47 a7 3e 1f 43 40 3e 8c db 35 be 61 42 d7 bd
       0.3267173 0.18775605 -0.17759532 -0.10510708
0000f0 66 b2 84 3e c3 bd 07 3e 45 62 27 3e d7 0c b3 3d
       0.25917357 0.13255982 0.1634608 0.087426834

fc2.weight f4 [64, 64]
000000 5e 9c dd 3d d2 6f 93 3d a8 8d 21 3d c3 3a 25 3e
       0.1082084 0.071990624 0.039441735 0.16135697
000010 ab f9 1b 3d 0c d3 50 bd 97 34 6e 3d 4a 63 80 bd
       0.0380799 -0.05098252 0.058155622 -0.06268938
000020 90 fa d6 3d 5c 49 5d bc a5 e6 2a 3e b6 27 dc 3d
       0.1049701 -0.01350626 0.16689546 0.10749762
000030 f7 f1 0f 3d c0 9b d0 3d 45 78 b4 3d 22 3c bb bd
       0.035142865 0.10185957 0.08812002 -0.09142329
000040 79 c6 c7 bd fd 23 e2 bc b1 59 66 bd 32 cd 90 bc
       -0.097546525 -0.027605051 -0.05623788 -0.01767597
000050 92 7d 3b bc 00 5a b6 3d 23 5a 35 3e e1 a5 5d 3e
       -0.0114435125 0.08903885 0.17710166 0.21645309
000060 5a 71 a9 3d d5 9c 85 3d 97 8e d7 3d 2b b1 8a bc
       0.08273573 0.06524054 0.10525244 -0.016930183
000070 24 d0 9c 3c 02 8f 58 3e d4 52 e1 3d 8d a5 32 bc
       0.019142218 0.21148303 0.11002126 -0.010903728
000080 f2 75 44 3e 6b a6 b1 bc b2 6a 7b 3d 98 ad af 3d
       0.19185618 -0.0216858 0.06138105 0.08578032
000090 c1 94 84 3e ae 96 90 3d 47 f1 a6 bb a5 3c 0c 3e
       0.2589474 0.0705999 -0.0050946805 0.13695009
0000a0 99 6b 16 bd dd a3 8b bd ba 50 56 3d 28 93 d8 3d
       -0.036723707 -0.06818364 0.05232308 0.10574943
0000b0 ce b5 33 3b 1b b9 1b 3e f3 d2 5d 3e 48 a1 1a 3c
       0.0027421596 0.15207331 0.21662502 0.0094378665
0000c0 63 c7 05 bd 09 8a 44 3e e0 aa 8d 3d 77 0b 20 3e
       -0.032660853 0.19193281 0.069173574 0.15629373
0000d0 7a f7 cd 3b 8f c6 ea bd 33 ff 46 bc bb 7c ac 3d
       0.006285605 -0.11463653 -0.012145805 0.08422228
0000e0 74 5a 27 3e 1e 00 c6 3c d0 dc 10 be 3c 98 ad 3d
       0.16343099 0.024169978 -0.14146733 0.08476302
0000f0 c5 53 21 3e 75 eb 2f 3e 2f 23 1b 3e 7d 51 e0 3d
       0.15754612 0.17179663 0.1515014 0.10953043
000100 8b af ac be 96 13 8a 3e bc a9 cf 3d a2 c1 19 bd
       -0.3372768 0.26968068 0.10139796 -0.03753818
000110 d0 1c 87 3d 69 55 90 3d ee b2 c3 3d 57 d0 3f 3d
       0.065972924 0.07047541 0.095556125 0.046829548
000120 b4 96 c5 bb 9e b8 9b 3c 58 14 d4 bc cb a9 0a bd
       -0.006029928 0.01900893 -0.025888607 -0.033853333
000130 09 9c d6 3d bf 45 30 3e db 2d 01 3e 1f be 1b 3e
       0.1047898 0.17214106 0.12615149 0.15209244
000140 12 a0 6a bb 84 cc 31 3d 78 f0 0c 3e 12 5e a4 3c
       -0.0035800976 0.043407932 0.13763607 0.020064387
000150 54 77 1b 3e 84 f8 ee bc e0 d3 03 be 68 27 4b 3b
       0.15182239 -0.029171236 -0.12873793 0.003099883
000160 f9 bd 28 3e bf 8d d5 bd ff e5 a2 bd 2b 75 a4 3d
       0.16478719 -0.104274265 -0.079540245 0.080301605
000170 cf 13 1f 3e 50 8c f2 3d 8d 87 2b 3e 99 59 81 bd
       0.155349 0.11843169 0.16750927 -0.063159175
000180 5d d6 ab 3d 10 26 9c bd c7 a7 7d 3d 4d e6 9d bb
       0.08390496 -0.07624447 0.061927583 -0.0048187138
000190 d1 61 9b bd 56 68 87 bd ac 77 93 bd d4 e2 6e 3e
       -0.075870164 -0.066116974 -0.0720056 0.23328716
0001a0 e0 80 c6 3d 60 64 c8 3c 25 80 49 3c 11 20 6c 3e
       0.0969255 0.024461925 0.012298618 0.23059107
0001b0 2a 1c 5c bd 83 96 ad 3b e1 cf 75 3e 04 e6 0e bd
       -0.053737797 0.0052974834 0.24005081 -0.03488733
0001c0 2e 2e 57 3d 57 17 2c 3e 57 d7 63 bd aa e8 a8 3d
       0.052534275 0.16805778 -0.055625286 0.08247502
0001d0 54 17 21 3e 0a 61 b1 3c e0 52 db 3d e1 7c 31 bd
       0.15731555 0.021652717 0.107091665 -0.043331984
0001e0 fb 3b 51 3e 56 5c 70 3e af 7d dd 3d 7a 8b a3 bc
       0.20433037 0.23472723 0.10814988 -0.019963969
0001f0 14 84 16 3c 03 10 d2 3d 4c 40 8a 3e 87 39 80 3d
       0.009186763 0.1025696 0.2700218 0.062609725
000200 59 cc d7 3d 1a fe 8d bd 9e 3e d8 3d 45 0b 47 3d
       0.10537023 -0.06933232 0.10558818 0.04859473
000210 7a 87 2f 3e 7d 07 74 bd 3a a9 55 3d c5 35 25 3d
       0.17141524 -0.059577454 0.05216334 0.04033448
000220 b1 aa cd 3d 2e b4 15 be 7c 0f 2a 3e 0a b7 e8 3c
       0.100423224 -0.14619514 0.1660747 0.028407592
000230 0f 3c 25 3d 02 b8 0e 3d cd 2a 14 3d 09 d0 a3 3b
       0.04034048 0.034843452 0.03617363 0.004999165
000240 7e 84 55 3d a8 66 a9 3d 45 a7 1b be d1 71 f9 bc
       0.052128308 0.08271533 -0.15200527 -0.03044978
000250 f0 93 b2 be 67 bd 3d bd 54 f5 76 bd 95 ad c1 3d
       -0.34878492 -0.046323206 -0.060292557 0.09456936
000260 54 ae a7 bd 98 2a d8 3d bf 66 09 3e 69 34 c3 3c
       -0.08187547 0.10554999 0.13418101 0.023828702
000270 17 c2 a3 3d a6 16 9b be 58 b5 18 3d 88 e4 06 bd
       0.07996004 -0.30290717 0.037282318 -0.032932788
000280 5d 8f cd 3d 44 62 1f bb 0a ec 16 3e 3e 5f 44 be
       0.1003711 -0.0024320045 0.1473848 -0.19176957
000290 08 d4 0a 3e 5b 17 0c be de e8 9e be b1 f5 f2 3d
       0.13557446 -0.13680784 -0.3103704 0.11863268
0002a0 fe 37 06 3f 6d 7d 00 bf 86 51 07 3d 3d 80 79 bd
       0.5242919 -0.50191385 0.03303673 -0.060913313
0002b0 35 37 dd 3c 19 13 9b bd d3 06 1a bd 89 1b 47 be
       0.027003864 -0.07572002 -0.037604164 -0.19444098
0002c0 e0 e9 3f 3d 96 86 b4 bd 7b ba c7 3c b9 01 9c be
       0.0468539 -0.08814733 0.024380913 -0.30470064
0002d0 23 fe cc bd 4d 97 43 3d 2a 95 9a 3b a2 19 1b 3e
       -0.1000941 0.047751714 0.004717489 0.15146497
0002e0 03 50 75 3c 28 b8 88 bd 28 ac 24 be ed 27 9c 3d
       0.01497269 -0.0667575 -0.16081297 0.07624803
0002f0 c4 40 3a 3e b0 10 f0 3d 3a 8b fb 3d c7 55 01 3e
       0.18188769 0.11721933 0.12282415 0.12630378
000300 99 a4 8d bb 91 19 18 3e 27 d2 91 bd 44 78 60 bd
       -0.0043226 0.14853503 -0.071201615 -0.054802194
000310 49 28 d3 3d 52 80 0f 3e 40 9c 9f 3c 78 32 76 3d
       0.10310418 0.14013794 0.019483685 0.060106725
000320 cb 97 f3 3d 9f 1d 24 be ac ce 0e 3d 89 fd 61 3e
       0.118941866 -0.16026925 0.034865066 0.22069372
000330 2c 83 1b 3e 08 bb 53 3e 84 c1 69 3d f0 42 91 3c
       0.15186757 0.20676816 0.057069317 0.017732114
000340 7d ec b6 3c 94 e5 4c bd d8 1f 8c bd ed c6 56 3c
       0.022329563 -0.05002363 -0.06842011 0.013108951
000350 f6 91 14 bd 06 3a 7e bd dd a2 ff 3d 3f 90 c3 3d
       -0.03627201 -0.062067054 0.124822356 0.09548997
000360 3f 9f 8b 3d a2 04 15 be 44 ae 0e 3e dc 24 d6 3d
       0.06817483 -0.14552549 0.13933665 0.10456249
000370 ad b3 83 bc 9b 57 c5 bc 18 12 1f be 4d 4e c1 bc
       -0.016076887 -0.024089625 -0.15534246 -0.023596907
000380 be d8 40 3a 3c f0 12 bd 7c d1 92 3d ce b5 0d 3d
       0.0007356516 -0.035873637 0.07168862 0.03459721
000390 83 a4 03 be 75 98 81 3d 64 74 3a 3e 7e 5f 4b be
       -0.12855725 0.06327907 0.18208462 -0.19860646
0003a0 24 40 8b bd 9b f4 c7 bd a4 da b9 bd c6 f1 34 bd
       -0.06799343 -0.09763452 -0.090749055 -0.044175886
0003b0 a2 bc 89 3d 37 57 6a 3d 04 a8 fa bd 88 8c 9e 3d
       0.06725432 0.05721208 -0.12239078 0.07741648
0003c0 6e a5 26 bd b3 31 37 3e 1b 8e 08 3e 7a 20 c1 bb
       -0.04068511 0.17890052 0.13335459 -0.005893764
0003d0 8a 1f 86 bc 0f e0 0e 3e 1f 3e bd 3d f1 f9 06 be
       -0.01637246 0.13952659 0.09240364 -0.13181283
0003e0 80 3c 3d bd 3c 10 9f be 61 c7 64 bd 4d d0 13 be
       -0.046200275 -0.31067073 -0.055854205 -0.14434929
0003f0 15 4b 00 3d 87 79 7c 3d ab 42 a9 bc 0d d6 9e 3d
       0.031321604 0.061639335 -0.020661673 0.07755671

fc2.bias f4 [64]
000000 f5 b7 64 bc 71 df 14 3e 1e e0 4b 3e 78 a9 3a 3e
       -0.013959874 0.14538361 0.19909713 0.1822871
000010 5e a3 fa bc f8 99 8d 3d 4f a5 81 3d 05 e5 96 3d
       -0.030595478 0.06914133 0.06330358 0.07367901
000020 51 10 b6 3c c3 37 02 3e fa 3e f4 bd 42 cd 92 3d
       0.022224577 0.12716584 -0.11926074 0.07168056
000030 93 02 1d 3e 38 c4 ca bd a8 72 56 bd 0d 5a 8f 3d
       0.15333013 -0.09900707 -0.05235544 0.06999598
000040 c4 e6 11 3d 55 0c c9 bc 18 2b b2 3d 08 6d a0 3d
       0.035620466 -0.024542013 0.08699626 0.07833296
000050 85 6f 90 3d 5d 3a 4c 3e 57 3a fa 3d f8 19 b5 3d
       0.07052521 0.19944139 0.12218159 0.08842844
000060 f4 73 26 3e 90 c5 08 3d 9b 75 9d 3e 0a 1d ca bd
       0.1625517 0.033391535 0.30753788 -0.0986882
000070 3b 54 ac bc f2 1f 19 3d 62 54 02 3e d5 9d 21 3d
       -0.021036258 0.03738398 0.12727502 0.03945716
000080 dd a1 4d 3e ec 2e 07 3e 48 8a 91 3d ae a2 b6 bc
       0.20081277 0.13201493 0.07106453 -0.022294369
000090 bb c5 16 bc a6 8f 09 3e 45 e8 93 3d ee eb 9e bd
       -0.009202416 0.13433704 0.07222036 -0.07759844
0000a0 46 1d 99 bd 6b b2 8f 3e ca a5 0d 3e 92 d5 98 3d
       -0.074762866 0.2806581 0.13832775 0.0746261
0000b0 fc e3 18 3e 84 b3 5f 3e 12 63 92 bd c1 c5 c8 3d
       0.14930719 0.21845824 -0.071478024 0.098033436
0000c0 01 ef 2a bb 9f b3 0a 3e 93 52 19 bd d6 98 23 3d
       -0.0026082399 0.13545083 -0.037432265 0.039940678
0000d0 26 27 63 3d d3 28 2e 3d 0d 3d aa bd 74 27 f9 3c
       0.055457257 0.0425194 -0.08312426 0.03041432
0000e0 83 59 b0 3d 84 db e0 bd 6a fd 66 3e 8b 59 43 3d
       0.08610823 -0.10979369 0.22557607 0.047692817
0000f0 75 1c ba 3d 3e 45 93 ba 4b 3b 6e 3b c0 67 47 3e
       0.09087459 -0.0011235846 0.003635126 0.19473171

fc3.weight f4 [3, 64]
000000 6a 78 51 3d 72 0f 98 be 6f 69 a7 bd d4 eb 1a 3e
       0.051140226 -0.29699284 -0.08174407 0.15129024
000010 bd ca 22 bf ab 7b 91 be e5 e4 d8 3d 32 05 18 3e
       -0.63590604 -0.28414664 0.10590533 0.14845732
000020 16 46 80 be f0 a1 4e 3e a1 1e be 3e eb 17 19 be
       -0.2505347 0.20178962 0.37132743 -0.1495053
000030 8b 44 e3 3d 6c 94 28 3e d7 13 49 3d 0f ad df bd
       0.11097058 0.16462868 0.049091186 -0.1092168
000040 53 05 11 be a3 e5 60 3e 92 91 ea bd 69 66 45 be
       -0.14162187 0.219626 -0.114535466 -0.19277348
000050 8b ac 2e bd b3 83 70 be c7 b8 05 bf b8 8c 20 be
       -0.04264502 -0.2348774 -0.5223507 -0.1567868
000060 48 1e 3b be b7 f7 42 be 61 3f 64 bf 20 63 c3 bc
       -0.1827327 -0.19039808 -0.8915921 -0.023850977
000070 4c 10 0b be 9c dd 03 bd 83 88 10 3f 6a 27 c3 3d
       -0.13580436 -0.032193765 0.564583 0.09529002
000080 7b 95 3d be 35 80 53 be 57 de 4a be e1 fe 22 be
       -0.18514054 -0.20654376 -0.19811378 -0.15917541
000090 c1 a1 b9 3d db 44 f7 bd fd 96 cb 3c c2 5b 02 be
       0.09064055 -0.1207368 0.02485227 -0.12730315
0000a0 db c2 1c 3e 1e d5 5c bd 58 10 57 bd a4 a5 32 be
       0.15308706 -0.053914182 -0.05250582 -0.17446
0000b0 c0 25 88 3d cf 61 53 be d5 7a 33 3e 9b c2 10 3e
       0.06647825 -0.2064278 0.17527325 0.14136736
0000c0 ae 5e 38 3e 73 5b 2a be 3a c0 d0 3d 44 9e af be
       0.18004867 -0.16636448 0.10192914 -0.34300435
0000d0 ab 19 37 be 08 9b e9 bd 4b d9 2c 3e 39 8a 39 be
       -0.17880885 -0.11406523 0.16879766 -0.18119134
0000e0 93 62 5e be 9b b8 f5 bc 6d 99 61 be 71 13 be bc
       -0.2171729 -0.029995253 -0.22031184 -0.02320263
0000f0 bd c2 a3 bd ea 5b 4e be 2c bb 00 3f ef ce 05 be
       -0.07996128 -0.2015225 0.502856 -0.1306722
000100 e9 bb 31 be 45 b2 63 be c3 87 c4 bc 11 72 7e bd
       -0.17356838 -0.22235973 -0.023990517 -0.0621205
000110 ad 59 96 be d3 27 23 3e bd d7 50 be 79 fc 46 be
       -0.29365292 0.1593316 -0.20394798 -0.19432248
000120 a4 af 31 be 5f 41 9c be 30 0a 7e 3e 5d 15 f4 bd
       -0.17352158 -0.30518624 0.24808574 -0.11918137
000130 72 2f 07 be 90 fc 87 3e fd 67 3c be c8 8e 08 3e
       -0.13201693 0.26559877 -0.18399043 0.13335717
000140 d0 ac b2 bc 2f e8 84 3e c1 87 c0 bd b6 ba 93 bf
       -0.021810919 0.25958392 -0.09400893 -1.1541355
000150 64 4d 55 bd fc 00 3b bd 16 cf 43 be e9 4a 29 3e
       -0.05207576 -0.045655236 -0.19121966 0.16532482
000160 5f 78 d3 bd 97 7b a9 3d c7 22 16 be b6 c2 71 3e
       -0.10325693 0.08275526 -0.14661704 0.23609433
000170 b0 62 c1 bd 24 97 44 be 09 a5 48 3e 7d 90 7d 3e
       -0.09442651 -0.1919828 0.19594206 0.24762149
000180 42 36 0b be c9 ee 28 bd 38 90 51 3d 54 9d 16 3e
       -0.13594916 -0.04124335 0.05116293 0.14708453
000190 eb 80 a7 bc 5f 3e 4f 3c 10 31 6e be 53 b5 db 3d
       -0.020447215 0.012649148 -0.23260903 0.10727944
0001a0 e2 2a 38 be 23 fc 1c 3e 68 60 63 3d 6d 54 92 be
       -0.17985108 0.15330558 0.055511862 -0.28580037
0001b0 f9 e6 85 be 54 6e 79 bd 5b af c2 3d 31 72 19 be
       -0.2615278 -0.060896233 0.09506103 -0.14984967
0001c0 84 f0 11 bd d8 cd 0f be 71 cc 8e 3e 80 f5 eb 3d
       -0.035629764 -0.14043367 0.2789035 0.11521435
0001d0 a1 c2 ae be ee 8a 1d be 4d 32 dd 3d b1 be 1d be
       -0.34132865 -0.15385029 0.1080061 -0.15404774
0001e0 03 63 9e bc f7 d1 1f be a2 42 94 be ef 69 03 3d
       -0.019334322 -0.15607439 -0.28957087 0.032083448
0001f0 69 ca 3a be 10 b2 f3 bd fd 37 17 3e 6e b9 ee bd
       -0.18241276 -0.11899197 0.14767452 -0.11656462
000200 fe 8c 5b be 00 0a d1 bd a4 76 98 be 35 14 c4 bc
       -0.21440503 -0.102069855 -0.29778016 -0.023935417
000210 61 37 2b bd 31 9d c7 3c 92 ce b9 3d 79 44 1e bd
       -0.04180086 0.024366947 0.09072603 -0.03863952
000220 c5 3b 98 bd 1f 2a 93 be bb 11 23 3d 0b d7 b7 3d
       -0.07433275 -0.28743073 0.03981183 0.08976563
000230 75 b3 8a be 40 70 29 3d 51 05 35 be 2f 08 1f 3d
       -0.2709004 0.041366816 -0.1767781 0.038826164
000240 c5 cb 21 3e b6 78 cd 3d cf 89 d2 be ad b9 f0 3e
       0.15800388 0.100327894 -0.41120765 0.4701666
000250 de 3d a2 3d c9 37 09 be 7e 3c 2f 3c 55 25 6e 3c
       0.079219565 -0.13400187 0.010695575 0.014535268
000260 60 13 f6 be e7 46 12 be b5 f5 46 3e e7 d0 3a bd
       -0.48061657 -0.1428486 0.19429667 -0.04560938
000270 49 0c b9 bd e7 26 85 be e1 36 8a be 99 48 3f 3e
       -0.09035546 -0.26006243 -0.26994994 0.18680038
000280 c9 54 fc bd 73 7b 35 be 2c 51 be 3d 66 eb 9c bd
       -0.12320859 -0.17722873 0.09292826 -0.07662086
000290 dc c3 28 bd 98 4c 8a be 28 de 1a 3e ff 95 87 3d
       -0.04120241 -0.2701156 0.15123808 0.06620406
0002a0 9e 2e 84 be 75 49 a2 3c ef d4 5c be 2f 49 8a bd
       -0.25816816 0.019810418 -0.21565603 -0.0675224
0002b0 d5 a1 81 be 48 0b 1d be f6 b9 56 3d d1 c8 a6 be
       -0.2531878 -0.15336335 0.05242344 -0.32575086
0002c0 eb b5 9d bd 96 24 60 bf 5b be 67 be 55 3f 5b 3e
       -0.07700714 -0.87555826 -0.22631209 0.21410878
0002d0 0a 60 ac be 2e c5 17 be 0b 88 bf be 95 f1 f1 3d
       -0.33667022 -0.14821312 -0.3740848 0.11813656
0002e0 f4 ec 7a 3d ac 4c a4 3d 3f 3f 98 3e 6b b6 c2 3d
       0.061261132 0.080224365 0.29735753 0.0950745
0002f0 c0 12 18 be 03 e6 ab 3d 34 9f b5 bc 74 1b 06 be
       -0.14850903 0.08393481 -0.02217064 -0.1309641

fc3.bias f4 [3]
000000 47 af 9c bd 0e 7d aa bd ca 54 d0 bd
       -0.07650619 -0.083246335 -0.10172422
