SAC/sac/actor_checkpoint_5.pth (torch, 22902 bytes, 6 tensors)

fc1.weight f4 [64, 10]
000000 20 d4 87 3c 64 5e 37 be ca 9a 72 3e be cd 40 be
       0.016580641 -0.17907101 0.2369186 -0.18828484
000010 d0 36 13 be eb 03 07 bd e3 99 a9 3e 03 a9 19 bf
       -0.14376378 -0.03296272 0.3312522 -0.60023516
000020 a6 7a 9a 3e 04 7f de bd 8c 95 06 bf 98 ad 61 be
       0.30171698 -0.1086407 -0.5257194 -0.22038877
000030 4a 91 46 be bd e6 a0 bd 35 ca 5f be 9a 7e 97 be
       -0.19391361 -0.0785651 -0.2185448 -0.29588777
000040 5b 83 1a 3d 18 1b 90 3e ac 99 0f 3d 50 24 9c be
       0.037722927 0.2814567 0.035058662 -0.30496454
000050 fc 4a 9a 3e fd e7 f6 be 70 db 64 be c1 46 99 be
       0.30135334 -0.48223868 -0.22349334 -0.29936793
000060 7b 0a d9 be d7 71 45 bd 82 42 0b bd 85 68 79 bd
       -0.42390808 -0.04820427 -0.033998974 -0.060890693
000070 29 d3 63 be 02 0a 09 be 42 5b 2b be 99 12 01 be
       -0.2224852 -0.13382724 -0.16734031 -0.1260475
000080 fd 2b 3c 3e a7 81 1b be 92 ee a0 3e e2 8d 78 3e
       0.18376155 -0.15186177 0.31432015 0.24272874
000090 be e7 8c 3e 30 f7 ce 3c 21 5b 17 be ea 74 dd bd
       0.27520555 0.025264353 -0.14780857 -0.10813315
0000a0 8b 10 f0 be 0e ee 99 3c cd 5e 5d 3e 73 0e 1f 3e
       -0.4688762 0.018790271 0.21618195 0.15532856
0000b0 f7 7e 66 be 81 19 22 be c4 4c 81 3e 9d 81 a9 bd
       -0.2250937 -0.15830041 0.2525388 -0.08276675
0000c0 2a 1c 1f 3e 11 74 af be a5 1b 72 be 4f 38 27 be
       0.15538087 -0.3426824 -0.23643358 -0.16330074
0000d0 79 da e6 3d c8 6f db 3d ef fb 87 3d 2c 2e b1 be
       0.11272139 0.1071468 0.066398494 -0.3460554
0000e0 36 04 6c bc c6 1a af 3d 5e 1c 53 be 30 99 37 3b
       -0.014405301 0.085500285 -0.2061629 0.002801489
0000f0 a6 cd d2 3d c2 b0 7e 3e e0 37 93 3d 58 0b 72 3e
       0.102931306 0.24872115 0.07188392 0.2363714
000100 33 33 57 be cd 3e 85 be 73 19 33 3e 97 97 3a be
       -0.21015625 -0.26024476 0.17490177 -0.1822189
000110 0c 20 2b be 23 b3 3e 3e dc 42 ff 3d f6 29 ba bd
       -0.16711444 0.18623023 0.12463924 -0.09090035
000120 95 4d b3 bd 2c 44 11 be b9 38 3a 3e 1b e6 2b be
       -0.08755032 -0.14186162 0.181857 -0.16786997
000130 29 15 b7 3e 07 da 1a bf a3 f5 b8 bd 3e 56 90 3e
       0.3575833 -0.60488933 -0.090312265 0.28190798
000140 49 17 05 3d 0a ae 48 3e b4 74 7a be 5e 0b 66 be
       0.03249291 0.1959764 -0.24458581 -0.22465274
000150 93 6c ff 3d c9 b0 a8 3c 3b b9 73 bd 95 03 e1 3e
       0.12471881 0.02059211 -0.05950282 0.43948045
000160 d1 50 36 be ff 38 b7 be 13 3c c6 3d 36 64 d3 be
       -0.17804267 -0.35785672 0.09679427 -0.41287392
000170 61 ce 82 3d 04 56 90 bd 4f af 8b bb ee 1d 99 be
       0.0638702 -0.07047656 -0.004262842 -0.29905647
000180 2f f3 de 3d 27 99 9e be 22 94 a3 be e8 5d 5e 3e
       0.10886227 -0.3097622 -0.31948954 0.2171551
000190 93 c9 46 be 47 39 8d be 4a 57 80 3d 90 06 4a 3e
       -0.19412832 -0.27582762 0.06266649 0.19729066
0001a0 82 fb fd bd 0c d6 90 3e d0 34 6e bd b0 ad f6 be
       -0.12401487 0.28288305 -0.058155835 -0.48179388
0001b0 79 02 b8 bc 1e cf 8e bd 81 ba 0c bc 77 e5 80 3e
       -0.022462117 -0.06973098 -0.008589388 0.25175068
0001c0 10 30 31 3d 07 0f ac 3e ba c5 f7 bd 89 ad b2 3d
       0.043258727 0.33605215 -0.1209826 0.087245055
0001d0 5b 10 b0 be 12 19 b3 bd 69 0c ce be 72 6f 6c 3e
       -0.34387478 -0.08745016 -0.40243843 0.23089388
0001e0 83 4c 85 be 41 d5 aa be 03 cc 03 bd 6f e3 9b 3d
       -0.26034936 -0.33365825 -0.032176983 0.07611739
0001f0 fb 48 99 bd fe 78 64 be 65 c9 c3 be 53 3f 26 be
       -0.07484623 -0.2231178 -0.3823959 -0.16235094
000200 29 9f 91 3e 34 91 ea bd 38 4f 27 be 36 0d 0f 3f
       0.28441742 -0.114534765 -0.16338813 0.55879533
000210 ac d4 6f be 6c ec 03 bf 21 7d e6 be 2e 13 1c bf
       -0.23420972 -0.51532626 -0.4501734 -0.60966766
000220 0e 7b f8 3d 58 02 75 3e 21 f5 a3 bb d6 52 50 3e
       0.12132846 0.23926675 -0.005003587 0.203441
000230 7d a5 30 be 0d 8f 9f be 98 3c 02 3e e2 78 81 3e
       -0.17250629 -0.31163827 0.12718427 0.2528754
000240 04 eb 30 3e 29 1a 88 bd d6 80 82 bd 80 4d 3f 3d
       0.17277151 -0.06645615 -0.0637223 0.04670477
000250 68 2e c5 be c6 a4 56 be 91 54 3d 3d bb b9 ab be
       -0.38511968 -0.20961294 0.046223227 -0.3354014
000260 c6 29 bb be 41 ab be 3c ca ef 9e 3d 8d cb 5b 3e
       -0.36555308 0.02327502 0.0776058 0.21464367
000270 43 fd d4 bd bd 03 85 bd c3 a8 03 3d 89 47 a5 3e
       -0.10399868 -0.06494854 0.032143366 0.3228114
000280 28 89 bc 3d eb 23 9e be ee 83 e5 3d b3 73 47 3e
       0.09205848 -0.30886778 0.11206804 0.1947773
000290 70 cf 5e 3e 57 34 10 be 3f f8 7d 3d 48 3f 2d be
       0.21758819 -0.14082466 0.062004324 -0.16918671
0002a0 33 1e 21 3e 33 94 de 3e 62 e0 f4 bd a3 e8 77 3e
       0.15734176 0.43472442 -0.1195686 0.24209838
0002b0 10 89 c0 3e e6 c0 82 bd 55 71 94 be b2 2b 96 be
       0.3760457 -0.06384449 -0.28992715 -0.29330212
0002c0 61 c5 79 be ae 3c 6c 3e e9 9f 8e be 5d 8a 4b be
       -0.243917 0.23070022 -0.27856377 -0.19877
0002d0 64 69 8b be 6e 05 95 3e 6a 84 30 bd a8 5a b7 be
       -0.27228844 0.29105705 -0.04309503 -0.35811353
0002e0 ac 6e 8a be e7 be 69 bd ae da ad 3e 0e 7e 9e 3e
       -0.2703756 -0.057066824 0.33955902 0.30955547
0002f0 8b 66 25 be 8c 64 fb 3c 7d 74 ce 3e 59 d6 aa be
       -0.16152398 0.030687593 0.40323249 -0.3336666
000300 4a 9a a8 3e 07 ff c7 3c 98 7b 80 3e 89 bd f9 bb
       0.32930213 0.024413599 0.25094295 -0.0076214713
000310 9f aa 78 be 79 fc 76 be d3 98 1d bd f7 0e 9c 3e
       -0.24283837 -0.24119748 -0.038475823 0.30480167
000320 e6 14 88 be 07 ed 89 3d 69 d4 dc bd ff 92 30 be
       -0.26578444 0.067346625 -0.107827015 -0.17243575
000330 0a 82 e5 3d 88 94 1f 3e 15 80 98 3e fa 90 c1 3e
       0.112064436 0.15584004 0.2978522 0.3780592
000340 07 a7 a3 be d1 93 0e bd df 29 9a 3e 2d 59 85 3d
       -0.3196337 -0.034808937 0.3011007 0.065111496
000350 e7 2f 33 3e 1b ea 65 3e de 4e 5b 3e 3a 11 29 be
       0.17498742 0.22452585 0.21416804 -0.16510478
000360 e3 29 58 3e 31 82 7b 3e c4 66 45 be bd ba d3 bd
       0.21109729 0.24561383 -0.19277483 -0.10338352
000370 46 4f 4e be 57 5d 23 bc 8a b0 1d 3e a0 4c e8 be
       -0.20147428 -0.009970984 0.15399376 -0.4537096
000380 ee 00 0f bf 37 5c 96 be 84 b0 e7 be 9b 89 68 3e
       -0.55860794 -0.2936723 -0.45251858 0.22708742
000390 b6 40 2c 3e 1e bf cd 3c bb a6 25 be d5 09 d6 3e
       0.1682156 0.025115546 -0.16176884 0.41804376
0003a0 eb 12 77 3e 21 be a9 3e 80 4e ad be 67 06 16 3e
       0.2412831 0.3315287 -0.33848953 0.1465088
0003b0 6b 3a 5e bd c6 5b bb bd 40 75 b0 3e 73 28 ca 3e
       -0.05425493 -0.09148364 0.34464455 0.39483985
0003c0 a5 11 86 3e 7f d4 29 3e d5 fb 12 be 2b 13 d8 3d
       0.26185337 0.16584967 -0.14353879 0.10550531
0003d0 dc 65 e4 3c d2 6c a3 be d4 f3 42 bd 8f c4 80 be
       0.027880602 -0.3191896 -0.047595814 -0.25149962
0003e0 98 38 b6 be c2 cc 0a be a8 90 ca 3e c8 fa d0 be
       -0.35590053 -0.13554671 0.3956349 -0.4081633
0003f0 bf f7 b0 3e 0a 24 c1 be aa f2 56 be a5 c1 d3 be
       0.34564015 -0.37722808 -0.20991006 -0.41358677

fc1.bias f4 [64]
000000 df 1a 16 bd 80 99 c8 3d f2 c9 d2 3e df f2 c1 3d
       -0.03664672 0.09794903 0.41169697 0.09470152
000010 67 9d 22 bd 8f 6c 6c 3e d1 72 89 be 42 63 a9 3d
       -0.03970089 0.23088287 -0.2684541 0.08270885
000020 bf f3 86 be a0 5f 80 be 07 75 99 3e a9 b2 73 3e
       -0.2635784 -0.25072956 0.29972097 0.23798622
000030 4a 65 c2 3e b2 e4 fe 3e 4b 3b 81 3e 24 5c a8 be
       0.37967902 0.49783856 0.2524055 -0.32882798
000040 cd 3b 63 3d d6 f6 ec 3e f4 a8 a6 3e 8a d8 96 3e
       0.055476952 0.4628207 0.32550776 0.2946208
000050 52 00 62 be ff 0d bd 3d cc 83 9f 3e 20 85 37 3e
       -0.22070435 0.09231185 0.3115524 0.17921877
000060 2d 6e bc 3e 3d 72 51 3c e0 02 6d be 07 20 6a 3e
       0.36802807 0.012783584 -0.23145628 0.2286378
000070 8d 0c c4 3e 04 75 6d 3d b0 53 ff 3e e8 bc 1f bd
       0.38290825 0.057972923 0.49868536 -0.038998514
000080 f2 06 a9 bd 69 f4 b7 bd 99 b2 d0 bd e1 ff a1 3d
       -0.08253278 -0.089821644 -0.10190315 0.07910133
000090 55 83 43 3e d1 1f 3d be f2 4e b6 be 99 db 97 3e
       0.19093068 -0.18469168 -0.35607105 0.29659727
0000a0 c0 fc 27 3f db 58 1d be 7e f1 77 3e ca 8d 9e be
       0.6562004 -0.15365927 0.24213216 -0.3096755
0000b0 c2 8b 8c be 6a 75 12 3e df a1 27 3d c6 bb d4 3c
       -0.27450377 0.14302602 0.040925857 0.025968444
0000c0 9b b5 f5 3d 21 2b 84 bd 54 56 10 3e ad c3 6d bc
       0.11997529 -0.06453539 0.14095432 -0.014511985
0000d0 52 28 6a be 19 ef 28 bc 88 48 d1 bd cb ce 05 3e
       -0.22866943 -0.010310912 -0.10218912 0.13067167
0000e0 d7 84 ad 3e 8f af 47 3e 84 cb 35 be 5e c2 d6 bd
       0.3389041 0.19500564 -0.17753416 -0.10486291
0000f0 e5 86 88 3e 7c bd 10 3e 5c 80 31 3e a3 82 c2 3d
       0.26665416 0.14134783 0.17334121 0.09497573

fc2.weight f4 [64, 64]
000000 d4 33 df 3d 97 86 94 3d 00 10 26 3d 8f 72 25 3e
       0.10898557 0.072522335 0.040542603 0.16156982
000010 46 f5 1d 3d 9b 88 4d bd cb 2e 6e 3d 0b 18 7e bd
       0.03856399 -0.050179105 0.058150094 -0.062034648
000020 93 37 d7 3d 42 c6 5a bc ed f6 2b 3e bc b2 dd 3d
       0.10508647 -0.013352932 0.16793413 0.108251065
000030 4a 68 17 3d c0 ea d4 3d be 39 b5 3d 3c 3d bb bd
       0.036964692 0.103963375 0.08848904 -0.09142539
000040 2b 34 c6 bd 7d b5 d6 bc e2 38 61 bd c6 f6 86 bc
       -0.09677919 -0.026209587 -0.05498589 -0.016475093
000050 1a 0e 3a bc 4b 70 b6 3d 9d 09 37 3e 43 d4 5e 3e
       -0.011355901 0.08908137 0.17874761 0.21760659
000060 5b bf aa 3d c4 07 86 3d 13 70 d7 3d 90 25 83 bc
       0.083372794 0.0654445 0.10519423 -0.016009122
000070 4f fc a3 3c 3b 4b 59 3e e2 59 e4 3d 8e 15 2d bc
       0.020017771 0.21220104 0.11149956 -0.010564221
000080 fc b1 44 3e 1c ce b0 bc ea 96 7d 3d 32 ed b0 3d
       0.1920852 -0.021582656 0.0619115 0.086389914
000090 c3 a1 84 3e 8a 9e 90 3d 19 80 a3 bb bf 04 0d 3e
       0.25904664 0.07061489 -0.0049896357 0.13771342
0000a0 b5 6a 0d bd b8 9b 8b bd 5b ca 59 3d b4 a0 d8 3d
       -0.034525592 -0.0681681 0.053171497 0.10577527
0000b0 26 3d 39 3b a2 19 1c 3e dc 43 5e 3e 5f 40 24 3c
       0.0028265207 0.15244153 0.21705574 0.010025113
0000c0 e5 8f 01 bd f0 8f 44 3e 7e 9f 8e 3d ca 30 20 3e
       -0.03163137 0.19195533 0.069640145 0.15643612
0000d0 80 07 d8 3b ec d7 e9 bd 57 26 3e bc ed e7 ad 3d
       0.006592691 -0.11418137 -0.011605821 0.08491502
0000e0 13 61 28 3e de 20 ca 3c 80 e2 10 be e2 8f ad 3d
       0.16443281 0.024673875 -0.14148903 0.08474709
0000f0 ab 24 22 3e d7 43 30 3e e1 5d 1b 3e 2c 20 e1 3d
       0.158343 0.17213379 0.1517253 0.109924644
000100 e0 4f ab be b7 38 8a 3e 5c 4c d5 3d a3 86 16 bd
       -0.33459377 0.26996395 0.10414955 -0.036749493
000110 6f 91 89 3d 52 ec 92 3d c2 d5 c3 3d 82 f8 49 3d
       0.067171924 0.07173981 0.095622554 0.04930926
000120 ab d9 b8 bb 69 87 a3 3c 6f 01 ba bc 29 d8 05 bd
       -0.0056411824 0.01996203 -0.022705762 -0.03267685
000130 4c 79 dd 3d 01 c0 32 3e 10 37 02 3e 05 c4 1b 3e
       0.10814151 0.17456056 0.12716317 0.15211494
000140 db c6 f7 ba 7d c3 3a 3d d7 43 0e 3e c8 26 ba 3c
       -0.0018903868 0.04559659 0.13893066 0.02272357
000150 21 77 1b 3e c6 10 ea bc e9 4a 01 be 57 44 a9 3b
       0.15182163 -0.028572451 -0.12626232 0.0051656174
000160 53 e1 2a 3e e6 fe d1 bd 76 08 a3 bd e4 5a a7 3d
       0.16687517 -0.10253696 -0.07960598 0.08171633
000170 5f ee 20 3e c2 4d f5 3d f3 a7 2d 3e cd 3c 80 bd
       0.15715931 0.11977722 0.16958599 -0.06261597
000180 77 f5 ac 3d ca de 9b bd 4d c1 80 3d f4 1b 76 bb
       0.08445256 -0.07610853 0.06286869 -0.0037553282
000190 59 a7 98 bd 84 e0 86 bd a9 9e 92 bd cd 9c 70 3e
       -0.07453794 -0.06585792 -0.07159168 0.23497315
0001a0 30 be cc 3d f1 c8 c9 3c a4 86 61 3c 90 25 6c 3e
       0.09997213 0.02463195 0.013765011 0.23061204
0001b0 51 9d 5b bd b7 1a f5 3b 39 e6 76 3e 92 50 0b bd
       -0.053616825 0.0074799913 0.2411126 -0.034012385
0001c0 ba b3 5e 3d 51 e0 2c 3e 34 2d 5e bd 07 c2 a9 3d
       0.05437062 0.16882445 -0.054242328 0.08288961
0001d0 6b 56 21 3e 99 23 b7 3c 2a d5 dc 3d e7 80 28 bd
       0.15755622 0.022355841 0.10782845 -0.041138556
0001e0 10 13 53 3e d9 e3 70 3e 88 70 dd 3d 75 51 a1 bc
       0.2061274 0.23524417 0.10812479 -0.019692162
0001f0 91 d1 31 3c 2b 64 d4 3d c3 ae 8a 3e d9 39 81 3d
       0.010853187 0.10370668 0.27086458 0.06309862
000200 25 e0 da 3d a1 bf 8c bd 86 be da 3d 88 ef 48 3d
       0.106872834 -0.06872488 0.10680871 0.04905656
000210 9a 29 30 3e 0e 17 70 bd 0f be 55 3d 73 e5 29 3d
       0.1720337 -0.058615737 0.052183207 0.041478585
000220 df c5 cd 3d ad 95 15 be 24 c0 2b 3e c8 44 ee 3c
       0.100475065 -0.14607878 0.16772515 0.029085532
000230 c3 74 2e 3d 89 49 16 3d 06 05 17 3d b7 35 a5 3b
       0.04259182 0.036691222 0.036870025 0.0050418037
000240 a4 e4 59 3d 8c 28 ac 3d f1 cd 1a be ca 44 ed bc
       0.053196564 0.08406171 -0.15117623 -0.028963465
000250 f0 93 b2 be da 24 3d bd af 77 6f bd 04 8c c4 3d
       -0.34878492 -0.046177723 -0.05846375 0.09597018
000260 ed c6 a5 bd a1 60 d9 3d b0 5f 09 3e b5 45 ca 3c
       -0.08094583 0.106141336 0.13415408 0.024691442
000270 65 82 a5 3d 0a fa 9a be 3f 06 1f 3d ba 42 05 bd
       0.080815114 -0.3026889 0.038824316 -0.03253434
000280 47 18 ce 3d f3 a0 14 bb 83 7b 17 3e 98 16 44 be
       0.10063224 -0.002267894 0.1479321 -0.19149244
000290 d5 3b 0b 3e 7c 0d 0c be 56 ea 9e be 17 72 f5 3d
       0.13597043 -0.13677019 -0.3103816 0.119846515
0002a0 91 73 06 3f 6d 7d 00 bf 3d b3 0b 3d b5 70 79 bd
       0.5252009 -0.50191385 0.03410648 -0.0608985
0002b0 fb 75 dd 3c a9 1f 99 bd 26 1b 17 bd 84 a2 46 be
       0.027033797 -0.07476742 -0.036891125 -0.19397932
0002c0 7a 54 45 3d b5 04 b4 bd 5f d2 ce 3c e6 02 9c be
       0.048176266 -0.0878996 0.025246797 -0.3047096
0002d0 74 c3 cc bd 31 b3 45 3d 26 2e b0 3b de 2f 1c 3e
       -0.09998217 0.048266593 0.005376595 0.15252635
0002e0 0a ad 84 3c 62 18 88 bd 26 ae 24 be 8d 2a 9c 3d
       0.016195793 -0.06645276 -0.16082057 0.076253034
0002f0 6b 22 3b 3e 2a f4 f0 3d bd af fc 3d e6 79 01 3e
       0.18274848 0.117653206 0.12338207 0.12644157
000300 41 fc a0 bb 06 15 18 3e b0 73 92 bd 6b b5 60 bd
       -0.0049128835 0.1485177 -0.07150972 -0.054860514
000310 0a e8 d2 3d f4 75 0f 3e ae 5e 9f 3c 44 38 74 3d
       0.10298164 0.1400984 0.019454326 0.05962397
000320 b5 97 f3 3d 87 4d 24 be d0 c1 0c 3d 0b f9 61 3e
       0.1189417 -0.160452 0.03436452 0.22067659
000330 1f 33 1b 3e d9 b8 53 3e c1 3f 69 3d 50 17 91 3c
       0.1515622 0.20675983 0.056945566 0.017711312
000340 ff 2b b5 3c 60 ca 4c bd 69 1d 8c bd 20 5b 52 3c
       0.022115706 -0.049997687 -0.06841547 0.012839109
000350 07 92 14 bd c8 48 7e bd 25 90 ff 3d 12 65 c3 3d
       -0.036272075 -0.06208113 0.12478665 0.09540762
000360 77 fd 8a 3d fa 46 15 be 88 a7 0e 3e 4c 1b d6 3d
       0.06786626 -0.14577857 0.13931096 0.10454425
000370 50 c1 84 bc 8b a2 c4 bc 0f 15 1f be cf f1 c1 bc
       -0.01620546 -0.024003288 -0.15535377 -0.023674874
000380 9e 1a 4a 3a 67 0d 13 bd 9d a4 92 3d 3b e1 0d 3d
       0.0007709655 -0.035901453 0.07160304 0.034638625
000390 de b4 03 be c4 92 81 3d fd 64 3a 3e 58 71 4b be
       -0.12861964 0.063268214 0.18202586 -0.19867456
0003a0 c7 0c 8b bd 9b f4 c7 bd 6e eb b9 bd fc f0 34 bd
       -0.067895465 -0.09763452 -0.09078108 -0.044175133
0003b0 de b9 89 3d 12 cb 68 3d a0 e7 fa bd a6 7f 9e 3d
       0.067249045 0.056834288 -0.1225121 0.07739191
0003c0 8c 8e 27 bd fb 12 37 3e ab 78 08 3e e0 14 c0 bb
       -0.040907428 0.17878334 0.13327281 -0.0058618635
0003d0 0f f7 85 bc 8a d2 0e 3e bf 24 bd 3d 21 43 07 be
       -0.016353158 0.13947502 0.092355244 -0.13209201
0003e0 91 7c 3d bd 3b 10 9f be 12 ce 64 bd 52 d1 13 be
       -0.046261374 -0.3106707 -0.055860586 -0.14435318
0003f0 fa 15 00 3d e7 31 7c 3d b8 67 aa bc 38 c8 9e 3d
       0.03127096 0.061571028 -0.02080141 0.077530324

fc2.bias f4 [64]
000000 24 1a 2e bc 7b a4 1a 3e cd 6d 4f 3e 68 5b 3a 3e
       -0.01062635 0.15101807 0.2025673 0.18198931
000010 f5 84 c0 bc ff 0f 8f 3d ef 73 81 3d 10 7c 96 3d
       -0.023500899 0.06985473 0.06320941 0.07347882
000020 8c d1 db 3c 30 97 04 3e 53 70 f4 bd ac 17 95 3d
       0.026833318 0.12948298 -0.11935487 0.07279906
000030 64 da 1f 3e c6 1b cc bd c5 6c 4e bd f8 26 8e 3d
       0.15610653 -0.09966235 -0.0503967 0.069410264
000040 ae bd 11 3d 58 73 da bc 85 23 be 3d d6 72 b2 3d
       0.035581283 -0.026666328 0.092841186 0.087133095
000050 cd 6c 90 3d ee 01 50 3e 21 32 03 3e c6 00 b4 3d
       0.07052002 0.20313236 0.12812091 0.0878921
000060 ea b1 2d 3e 34 dd 10 3d 1c d1 a0 3e 0d 29 ca bd
       0.169624 0.035367206 0.31409538 -0.09871111
000070 c3 94 93 bc 04 3a 2c 3d 06 54 02 3e a7 7c 21 3d
       -0.018015271 0.042047516 0.12727365 0.03942552
000080 b3 c7 51 3e af 06 0b 3e a4 89 92 3d 04 eb b0 bc
       0.20486335 0.13576768 0.07155159 -0.02159644
000090 bb c5 16 bc fb 00 0c 3e d1 4c 95 3d cc 1f a0 bd
       -0.009202416 0.13672249 0.07290042 -0.07818565
0000a0 d3 ef 93 bd 8f 5d 8f 3e ae 39 0f 3e 36 9b a2 3d
       -0.07223477 0.28001067 0.13986847 0.079397604
0000b0 ad 44 1d 3e 52 85 63 3e 51 6b 92 bd a8 79 cf 3d
       0.15358229 0.22218826 -0.07149375 0.10130626
0000c0 4b d7 46 bb 10 02 16 3e f3 42 19 bd 5f 0e 22 3d
       -0.0030340727 0.14649224 -0.037417363 0.039564487
0000d0 79 df 81 3d e9 6b 3e 3d 75 30 a9 bd 2a ab 04 3d
       0.06341452 0.04648963 -0.082611956 0.032389797
0000e0 01 74 b2 3d 97 cb e0 bd d7 44 68 3e 6e b7 3f 3d
       0.08713532 -0.10976332 0.2268251 0.04680579
0000f0 db 11 c2 3d 43 2b 2a 3a 1f e7 59 3b d2 e8 4a 3e
       0.09476062 0.0006491432 0.0033249331 0.19815376

fc3.weight f4 [3, 64]
000000 eb fd 27 3d 65 8b 9b be 54 6c b7 bd 7b 2d 18 3e
       0.04101364 -0.30379787 -0.08956209 0.148611
000010 20 13 23 bf 47 da 92 be 99 15 d8 3d 7c 7a 14 3e
       -0.6370106 -0.28682157 0.105509944 0.14499849
000020 a7 90 85 be d1 40 4a 3e 29 27 be 3e 7a f4 1a be
       -0.26086923 0.19751288 0.37139252 -0.15132323
000030 2b 28 d5 3d af 63 28 3e 04 3f 33 3d 63 4e e7 bd
       0.10408052 0.16444276 0.04376127 -0.11294248
000040 34 c7 12 be 15 aa 60 3e 50 e9 00 be 8f 74 51 be
       -0.14333802 0.21939881 -0.12589002 -0.2045462
000050 a3 02 35 bd 68 b9 7a be 1e 7a 07 bf 61 29 22 be
       -0.044191968 -0.2448479 -0.5292071 -0.15836097
000060 6a 73 48 be 01 a3 47 be c0 9d 66 bf 4a f0 c3 bc
       -0.19575277 -0.19495775 -0.9008446 -0.02391829
000070 51 15 15 be b9 1c 33 bd 83 88 10 3f bf e1 c2 3d
       -0.14558913 -0.043728564 0.564583 0.09515714
000080 b5 65 48 be 4e 74 59 be 12 76 4b be cf d4 26 be
       -0.19570048 -0.21235773 -0.19869259 -0.16292118
000090 c1 a1 b9 3d 88 3d 04 be 11 58 90 3c f1 a9 02 be
       0.09064055 -0.12914097 0.017620118 -0.1276014
0000a0 0b 78 1a 3e f1 75 6c bd c5 43 74 bd 7d 23 3a be
       0.15084855 -0.057729665 -0.059634943 -0.181776
0000b0 38 ca 6d 3d 83 e5 5b be e5 73 33 3e 24 56 0b 3e
       0.05805418 -0.2147427 0.17524679 0.13607079
0000c0 89 b3 35 3e 39 00 3c be 0f 57 d0 3d 07 b6 af be
       0.17744268 -0.1835946 0.10172855 -0.34318563
0000d0 f6 c8 3c be f6 80 01 be 19 15 2c 3e da 7b 3f be
       -0.18436036 -0.12646851 0.16804923 -0.1869959
0000e0 e7 f0 5f be f9 a5 f8 bc a5 60 62 be af 65 d5 bc
       -0.2186924 -0.03035258 -0.2210718 -0.026049463
0000f0 3d 32 b5 bd 2a 26 51 be 06 bb 00 3f d4 54 0f be
       -0.08847473 -0.20424715 0.50285375 -0.13997203
000100 e9 a3 3b be 18 5e 6d be 27 4c 01 bd f4 2b 87 bd
       -0.18324246 -0.23180425 -0.031566765 -0.0660018
000110 68 b1 97 be e6 bb 1f 3e ee d7 50 be 95 a6 47 be
       -0.29627538 0.15599021 -0.2039487 -0.1949714
000120 dd a1 3d be a6 17 9d be 85 1b 7e 3e cb 29 fa bd
       -0.18518777 -0.30682105 0.24815185 -0.122150026
000130 2a 02 11 be e0 f2 87 3e 1e 60 3e be ee 16 04 3e
       -0.14160982 0.26552486 -0.18591353 0.12899372
000140 99 bd c5 bc 3f a7 84 3e cc c6 e0 bd 68 ca 94 bf
       -0.024138259 0.2590885 -0.109754175 -1.162427
000150 46 fd 62 bd 39 ac 6d bd 27 a9 4c be 5a 3b 26 3e
       -0.05541732 -0.058025572 -0.19986401 0.16233578
000160 08 f1 e9 bd 5e be a3 3d 24 a8 25 be e2 fc 71 3e
       -0.11422926 0.07995294 -0.16177422 0.23631623
000170 e5 fe d4 bd e2 1d 51 be b7 aa 48 3e 7d 90 7d 3e
       -0.1040018 -0.20421556 0.19596373 0.24762149
000180 78 17 17 be 2a 03 4b bd 42 9a 4f 3d 6c 1e 13 3e
       -0.14755046 -0.049563564 0.05068422 0.14367074
000190 eb 80 a7 bc 74 35 06 3c c8 0a 75 be f8 9e d9 3d
       -0.020447215 0.008191455 -0.23929894 0.10626024
0001a0 2e 82 3a be dc 4f 17 3e 9d 5b 51 3d 4c b9 95 be
       -0.18213722 0.14776558 0.05111276 -0.29242933
0001b0 ba fb 89 be 37 bf 8c bd 6a b4 c2 3d a9 f0 23 be
       -0.26949865 -0.06872409 0.095070675 -0.16009773
0001c0 19 cc 1c bd da 0c 24 be 4d c0 8e 3e 6c 4f e8 3d
       -0.03828058 -0.16020527 0.2788109 0.113432735
0001d0 2e fb b1 be 33 c9 29 be 6d ed d8 3d 42 10 24 be
       -0.34761947 -0.16580658 0.105921604 -0.16021827
0001e0 53 28 ae bc 69 ca 1f be 0c 02 95 be c3 0e e6 3c
       -0.021259462 -0.15604557 -0.29103124 0.02808321
0001f0 62 0f 43 be 7b 99 fe bd 2d 3a 17 3e 02 db 00 be
       -0.19048837 -0.12431618 0.14768286 -0.12583545
000200 1e 87 64 be c4 50 e4 bd b1 14 9c be 72 2b e3 bc
       -0.22317168 -0.11148217 -0.30484536 -0.027730677
000210 8f 80 32 bd ca 36 b1 3c cf 6e b9 3d e8 95 22 bd
       -0.043579634 0.02163257 0.09054338 -0.039693743
000220 7d ef ac bd e0 0d 95 be 09 fa 22 3d e7 cd b0 3d
       -0.08444116 -0.29112148 0.039789233 0.08633023
000230 7a 20 8f be 01 6a 29 3d 4e eb 36 be 2b 6b 0e 3d
       -0.27954465 0.04136086 -0.17863199 0.034770172
000240 c7 c0 1e 3e 70 c8 cc 3d 35 17 da be a4 0b ea 3e
       0.15503226 0.09999168 -0.4259583 0.45712006
000250 2a 20 9c 3d ac d9 14 be 12 12 11 39 a5 13 3f 3c
       0.07623322 -0.1453616 0.0001383501 0.011662398
000260 ab 28 fb be 6f 13 15 be 09 ab 36 3e 9b 35 3b bd
       -0.49054465 -0.14558195 0.17838682 -0.04570542
000270 a4 d9 cb bd a3 a3 8a be e1 36 8a be 99 48 3f 3e
       -0.09953621 -0.2707797 -0.26994994 0.18680038
000280 93 04 0a be 85 2f 3d be bc 53 bd 3d 59 76 a3 bd
       -0.13478307 -0.18475159 0.09244487 -0.079815574
000290 dc c3 28 bd 6b de 8b be 9b f6 12 3e c4 97 84 3d
       -0.04120241 -0.2731813 0.14351885 0.064742595
0002a0 ff 78 85 be 08 ef 5d 3c f0 56 61 be 34 39 95 bd
       -0.26068875 0.013545759 -0.2200582 -0.07286301
0002b0 9b c0 86 be 25 ad 24 be e1 b9 56 3d d6 02 ab be
       -0.2631882 -0.16081674 0.05242336 -0.334006
0002c0 15 3a a3 bd ef f0 64 bf fc df 67 be 07 a3 5a 3e
       -0.07970063 -0.89430135 -0.22644037 0.21351252
0002d0 cb d6 ae be b4 fe 23 be 83 11 c0 be 3a 09 e3 3d
       -0.3414825 -0.1601513 -0.3751336 0.11085744
0002e0 cb 22 73 3d 92 67 a3 3d 83 f9 96 3e 38 bc bb 3d
       0.059359353 0.07978739 0.29487237 0.09166759
0002f0 7e 92 20 be 21 01 a2 3d 4e 7e b6 bc 77 87 0f be
       -0.15680882 0.079103716 -0.022277024 -0.1401652

fc3.bias f4 [3]
000000 59 09 ae bd 55 33 be bd 12 2f e3 bd
       -0.08497877 -0.092871346 -0.11092962
