SAC/sac/actor_checkpoint_4.pth (torch, 22902 bytes, 6 tensors)

fc1.weight f4 [64, 10]
00000000: e398 893c d9bd 37be 519e 723e cdcd 40be
00000010: df36 13be 2ee1 07bd 3eaf a93e b4d8 19bf
00000020: 487e 9a3e fe76 dfbd c847 06bf 8601 61be
00000030: 6f04 47be 8589 a0bd 22a6 5fbe ce87 97be
00000040: fe9c 1b3d 7e46 903e 12bf 0a3d 148d 9cbe
00000050: 78ad 9a3e e985 f6be 6b47 65be 3944 99be
00000060: f307 d9be 4617 44bd 48bf 0cbd a6c3 73bd
00000070: 98ba 64be b641 09be 58ae 2abe b8a3 00be
00000080: 538f 3b3e cf7a 1bbe ffee a03e 337b 783e
00000090: 46dd 8c3e 11b2 d33c 8ff3 17be 0760 debd
000000a0: 679b efbe 483a 9f3c b3b3 5c3e e41b 1f3e
000000b0: 8671 66be 6015 22be d93c 813e cd33 a7bd
000000c0: 8838 1e3e 8ba0 afbe 33ba 71be 2cc2 26be
000000d0: ec77 e63d a883 db3d cf0f 883d ca29 b1be
000000e0: 0826 6dbc 40ac b03d fa8a 53be 372b 273b
000000f0: 8680 d23d 62ca 7e3e e227 933d 6b0b 723e
00000100: 2033 57be dd37 85be 11fd 323e eb1f 3abe
00000110: 5615 2bbe c5d5 3e3e 0114 ff3d 68e8 b9bd
00000120: 6b69 b3bd 2a44 11be bb38 3a3e 80e0 2bbe
00000130: 7e12 b73e c8c9 1abf acfc b8bd d55e 903e
00000140: e6c2 043d c5a5 483e 6556 7abe 5e0b 66be
00000150: 366d ff3d 59be a83c 0267 73bd 90f5 e03e
00000160: a04d 36be f239 b7be 353c c63d be79 d3be
00000170: bbbc 823d 5356 90bd 2a41 8cbb 3424 99be
00000180: 760c df3d 95c3 9ebe 4290 a3be 9f72 5e3e
00000190: 7496 45be 40db 8cbe b3cf 7d3d 9217 4a3e
000001a0: a4cc fdbd 5ed4 903e d154 6ebd 3a1d f6be
000001b0: c41e c0bc 2f37 90bd 33cd 08bc 9be5 803e
000001c0: d768 323d 2710 ac3e 049f f7bd 2389 b23d
000001d0: fdc6 afbe f910 b4bd 302c cebe f96a 6b3e
000001e0: 8002 85be 4d58 aabe 002d 03bd 5950 9c3d
000001f0: 11dc 98bd 7377 64be 6d61 c3be e01b 25be
00000200: 3f10 913e 40ca ecbd 8eac 26be 2d11 0f3f
00000210: 62b2 6fbe 9ceb 03bf 3372 e6be fa24 1cbf
00000220: e069 fa3d c803 743e 9458 b7bb 358f 4e3e
00000230: d6b1 2fbe e744 9fbe cfbb 013e 117b 813e
00000240: 19fa 303e 23a0 87bd 4abf 82bd 8d82 423d
00000250: 7998 c5be 123b 57be 055f 3d3d 71b8 abbe
00000260: 422b bbbe aaa9 be3c c1ef 9e3d 61d2 5b3e
00000270: 3630 d5bd daed 84bd 96e6 033d d346 a53e
00000280: bff0 bc3d 8204 9ebe d1f5 e43d d573 473e
00000290: 92cf 5e3e 7e2c 10be ee84 7d3d 8aa8 2cbe
000002a0: 6ed3 203e 4a8b de3e b3d0 f2bd 4765 783e
000002b0: 653a c03e c87d 82bd ce6c 94be b535 96be
000002c0: f285 79be 8182 6c3e c424 8fbe 9271 4cbe
000002d0: b540 8bbe a910 953e 84b8 30bd 4b59 b7be
000002e0: 4f6d 8abe 9a1f 6abd 5a17 ae3e f13c 9e3e
000002f0: 8cd4 25be 8b22 f43c 7b7c ce3e 58b1 aabe
00000300: 0992 a83e 746b c83c a27b 803e 0e48 f7bb
00000310: c984 78be a48b 76be 5776 1ebd 95f1 9b3e
00000320: e614 88be 3cfa 893d b119 ddbd ff92 30be
00000330: 0a82 e53d 6491 1f3e ce80 983e 4891 c13e
00000340: 07a7 a3be 8a89 0ebd a121 9a3e 2d36 853d
00000350: 8864 333e 3bea 653e fe4e 5b3e 4213 29be
00000360: 0850 583e 6c42 7b3e 455b 45be 25f0 d3bd
00000370: e206 4ebe 594d 21bc 11cd 1d3e 4f4c e8be
00000380: ec00 0fbf ac6f 96be 5b66 e7be 7a2c 683e
00000390: f2c8 2b3e 16cf c63c 3033 24be c758 d63e
000003a0: 9e3f 763e 20c9 a93e 8143 adbe 27a1 153e
000003b0: 0477 5abd cd74 bbbd 47ae af3e 6945 c93e
000003c0: 2fec 853e 0421 2a3e 6a40 12be 3340 d83d
000003d0: f781 e53c 424f a3be 3e8a 41bd 0c5f 80be
000003e0: 872e b6be 5bf4 0abe 0992 ca3e bcf7 d0be
000003f0: eff7 b03e 0a24 c1be aaf2 56be 92c1 d3be
0.016796535 -0.17943515 0.23693205 -0.18828507 -0.143764 -0.033173732 0.33141512 -0.6009629
0.3017447 -0.10911368 -0.5245328 -0.21973237 -0.19435285 -0.0783873 -0.21840718 -0.29595798
0.037991516 0.2817878 0.033873625 -0.30576384 0.3021047 -0.4814904 -0.22390525 -0.29934862
-0.42388877 -0.047873758 -0.034362108 -0.059512757 -0.22336805 -0.13403973 -0.1666807 -0.12562454
0.18316393 -0.15183567 0.3143234 0.24265747 0.27512568 0.025841745 -0.14839004 -0.108581595
-0.4679825 0.01943697 0.21552925 0.15537983 -0.22504243 -0.15828466 0.25241736 -0.08164177
0.15451252 -0.34302172 -0.23606186 -0.16285008 0.11253342 0.10718471 0.0664364 -0.34602195
-0.014474399 0.08626604 -0.20658484 0.0025507936 0.1027842 0.2488189 0.071853414 0.23637168
-0.21015596 -0.26019183 0.1747935 -0.18176238 -0.16707358 0.18636234 0.12454987 -0.09077531
-0.08760341 -0.14186159 0.18185703 -0.16784859 0.35756296 -0.60464144 -0.09032568 0.2819735
0.032412432 0.19594486 -0.2444702 -0.22465274 0.12472002 0.020598577 -0.059424408 0.4393735
-0.17803049 -0.35786396 0.09679452 -0.4130382 0.06383654 -0.07047715 -0.004280229 -0.29910433
0.108910486 -0.31008592 -0.31945997 0.21723412 -0.19295675 -0.27511024 0.061965656 0.19735554
-0.12392548 0.28287023 -0.058186356 -0.48069173 -0.02345217 -0.070417754 -0.008349705 0.25175175
0.043557014 0.33606073 -0.12090877 0.08717563 -0.34331504 -0.087923 -0.40268087 0.22990026
-0.2597847 -0.33270493 -0.032025337 0.076325126 -0.07463849 -0.22311191 -0.38160267 -0.16123915
0.28332707 -0.115620136 -0.16276762 0.55885583 -0.23407891 -0.51531386 -0.45009002 -0.6099392
0.12227225 0.23829567 -0.005595276 0.20171817 -0.17157683 -0.31107256 0.126693 0.25289205
0.17282905 -0.066223405 -0.06384142 0.047487784 -0.3859289 -0.21018627 0.046233196 -0.33539155
-0.3655644 0.023274262 0.07760573 0.21466972 -0.10409586 -0.06490679 0.032202326 0.32280597
0.09225606 -0.30862814 0.11179698 0.1947778 0.2175887 -0.14079472 0.06189435 -0.16861168
0.15705654 0.43465644 -0.118562125 0.24257384 0.37544551 -0.06371647 -0.2898926 -0.2933785
-0.24367502 0.23096658 -0.27957737 -0.19965199 -0.27197805 0.29114273 -0.043144718 -0.35810313
-0.2703652 -0.057159044 0.3400219 0.3090587 -0.16194361 0.029801628 0.40329346 -0.33338428
0.32923916 0.0244653 0.25094324 -0.0075464314 -0.24269404 -0.24076706 -0.038687076 0.3045775
-0.26578444 0.067371815 -0.10795916 -0.17243575 0.112064436 0.15582806 0.2978577 0.37806153
-0.3196337 -0.034799136 0.30103782 0.06504474 0.17518818 0.22452633 0.21416852 -0.16511253
0.2112428 0.24537057 -0.19273098 -0.10348538 -0.20119813 -0.009845101 0.15410258 -0.4537072
-0.5586078 -0.29382074 -0.4519528 0.22673216 0.16775873 0.024268668 -0.16035151 0.41864607
0.24047706 0.3316126 -0.33840564 0.14612256 -0.05333616 -0.09153137 0.3431265 0.39310768
0.26156756 0.16614157 -0.14282385 0.1055912 0.028016074 -0.31896406 -0.04725098 -0.25072515
-0.35582373 -0.13569777 0.3956454 -0.40814006 0.34564158 -0.37722808 -0.20991006 -0.4135862

fc1.bias f4 [64]
00000000: 9b6a 13bd 37b4 be3d aa41 d13e 2c10 bf3d
00000010: e33b 2cbd 3c8b 6a3e 8b87 89be 7611 a93d
00000020: 0e0e 87be 2f43 80be 892e 983e a91f 713e
00000030: 96a7 bf3e c953 fc3e 5c85 7f3e 9b59 a8be
00000040: 9ef0 5f3d 7f16 eb3e ef41 a53e 0d49 963e
00000050: e7f1 61be f88e bb3d 6575 9e3e 676e 323e
00000060: 9300 bb3e 53a9 523c fffd 6cbe 14fd 683e
00000070: 46f5 c23e 38a0 643d f06d fd3e 1431 26bd
00000080: 6213 afbd fc90 babd caf7 d3bd 41c9 a03d
00000090: 16fb 413e 6633 3cbe b602 b6be 1069 943e
000000a0: 3fcd 263f b068 1dbe 9c5f 763e dec8 9ebe
000000b0: 0387 8cbe e02f 103e 4889 153d e31f d13c
000000c0: 1d85 f23d 771c 86bd fbbc 0e3e cebf 7ebc
000000d0: 59f4 6bbe f86d 27bc a071 d6bd 9239 013e
000000e0: 7841 ab3e ac03 453e d2d1 35be 1ae5 d6bd
000000f0: 721e 873e f787 0d3e 7eda 2d3e 8982 bc3d
-0.03599034 0.09311717 0.4087041 0.093292564 -0.0420493 0.22904676 -0.26861224 0.082552835
-0.2637791 -0.25051257 0.29723004 0.23547234 0.37432545 0.49282673 0.24953216 -0.32880864
0.05467283 0.459156 0.32276866 0.29352608 -0.22064935 0.091581285 0.3094894 0.17424928
0.36523876 0.012857753 -0.23143767 0.22752792 0.38077754 0.05581686 0.49497938 -0.04057415
-0.08548619 -0.09109685 -0.103499964 0.07850886 0.18943438 -0.18378982 -0.35548943 0.28986406
0.6515693 -0.15371966 0.2405991 -0.31012625 -0.27446756 0.14080763 0.036507875 0.0255279
0.118417956 -0.06548398 0.13939278 -0.0155486595 -0.2304243 -0.01021909 -0.10470891 0.12619618
0.33448386 0.19239682 -0.17755821 -0.104929164 0.26390415 0.13821398 0.1697788 0.09204585

fc2.weight f4 [64, 64]
00000000: 0185 de3d 082a 943d f230 243d 285a 253e
00000010: 7a2c 1d3d 7bda 4ebd 2d25 6e3d 245b 7fbd
00000020: 8226 d73d 0fb3 5cbc 5883 2b3e ab18 dd3d
00000030: 5974 143d 835a d33d afe8 b43d 0249 bbbd
00000040: ebdb c6bd ca32 dbbc d817 63bd d729 8bbc
00000050: d04c 3abc 3e68 b63d d76e 363e 835c 5e3e
00000060: b540 aa3d 69c8 853d 076b d73d 1f39 86bc
00000070: 3914 a13c b80e 593e 4b3a e33d efcb 2fbc
00000080: 5e99 443e 4928 b1bc 6db5 7c3d 927b b03d
00000090: 5998 843e 189c 903d a007 a5bb 33b9 0c3e
000000a0: 15e2 10bd 079d 8bbd 7e8d 583d 8d9c d83d
000000b0: bef6 363b bfec 1b3e 2f19 5e3e 05a0 203c
000000c0: 9c57 03bd 188e 443e 5241 8e3d 351f 203e
000000d0: 0b2d d43b 5f30 eabd dd8d 41bc 8c50 ad3d
000000e0: 0afb 273e 19b2 c83c 8ae2 10be 8e87 ad3d
000000f0: 40d5 213e 7023 303e c948 1b3e 69e3 e03d
00000100: 8bbc abbe 662e 8a3e 215a d33d 2992 17bd
00000110: c2ce 883d 0c01 923d b5c6 c33d 9e66 463d
00000120: 1a2d bdbb 1e89 a03c 1c2f c3bc feba 07bd
00000130: 3806 db3d d3e0 313e 42ea 013e 29ba 1b3e
00000140: 721b 27bb bb92 373d 11d1 0d3e be24 b23c
00000150: 2177 1b3e b087 ebbc 132d 02be d23a 8f3b
00000160: ee3f 2a3e 4f23 d3bd 1d10 a3bd b455 a63d
00000170: f45f 203e 9e65 f43d a5f5 2c3e 0fa7 80bd
00000180: 3b8c ac3d effa 9bbd e113 803d 9dee 87bb
00000190: c5a6 99bd 2dfb 86bd c4e3 92bd d812 703e
000001a0: 8a73 ca3d b47c c93c d45b 593c 2524 6c3e
000001b0: 52bd 5bbd 0fd7 dc3b 9088 763e 9083 0cbd
000001c0: 50c0 5b3d 08b1 2c3e c913 60bd c46e a93d
000001d0: 0c40 213e 60aa b43c d24d dc3d 588c 2bbd
000001e0: 9468 523e 15c0 703e 5c70 dd3d 79ff a1bc
000001f0: 31b2 273c 2794 d33d bd94 8a3e 39e7 803d
00000200: c0c8 d93d 5d2b 8dbd 2ce4 d93d bb3a 483d
00000210: 80ef 2f3e d685 71bd 78b9 553d 2643 283d
00000220: 91bc cd3d 439f 15be 061f 2b3e 420a ec3c
00000230: 04f2 2a3d 3266 133d 840a 163d 2f8f a43b
00000240: d239 583d d225 ab3d b11d 1bbe 7be8 f1bc
00000250: f093 b2be f741 3dbd 1f5b 72bd 3164 c33d
00000260: eb5a a6bd 6a0a d93d 845f 093e f39b c73c
00000270: 48f3 a43d a804 9bbe ad9d 1c3d 12cd 05bd
00000280: cbe6 cd3d d8d8 18bb 9042 173e fd31 44be
00000290: ba1c 0b3e 130f 0cbe 5aea 9ebe 9087 f43d
000002a0: 355d 063f 6d7d 00bf 6625 0a3d 1275 79bd
000002b0: 306d dd3c 46c9 99bd 8338 18bd fdcf 46be
000002c0: e43a 433d 2624 b4bd 4039 cc3c b303 9cbe
000002d0: efd9 ccbd 3af0 443d 9dcd a73b acc8 1b3e
000002e0: 41af 803c 2f4e 88bd 26ae 24be 9e29 9c3d
000002f0: fdcb 3a3e 6fae f03d 8759 fc3d 5e6e 013e
00000300: 606e 9bbb 0a15 183e 544e 92bd 9ea6 60bd
00000310: 00f7 d23d 2276 0f3e 2068 9f3c fcb6 743d
00000320: ab97 f33d f745 24be ab52 0d3d 8af8 613e
00000330: c946 1b3e 76b6 533e 8d5b 693d 7f15 913c
00000340: e1a1 b53c a5d6 4cbd 4420 8cbd e888 533c
00000350: 0792 14bd 6245 7ebd 1e93 ff3d d370 c33d
00000360: 4324 8b3d e939 15be 88a7 0e3e b419 d63d
00000370: 6a87 84bc f3e1 c4bc 6215 1fbe d2d6 c1bc
00000380: 1c17 453a ee0a 13bd fbad 923d ded0 0d3d
00000390: 9db4 03be 4a93 813d 7566 3a3e d76e 4bbe
000003a0: 2220 8bbd 9bf4 c7bd 1fe8 b9bd 3cf1 34bd
000003b0: deb9 893d 3a32 693d 39d7 fabd b481 9e3d
000003c0: 9558 27bd 9118 373e d27b 083e 4abd c0bb
000003d0: 2707 86bc 8ad2 0e3e 052b bd3d 3131 07be
000003e0: 5e75 3dbd 3b10 9fbe 12ce 64bd 52d1 13be
000003f0: 7e23 003d a03c 7c3d 691e aabc 38c8 9e3d
0.10865212 0.07234579 0.04008574 0.16147673 0.038372494 -0.050501328 0.058140922 -0.062342778
0.10505392 -0.013470425 0.16749322 0.10795721 0.03624377 0.10319998 0.088334434 -0.091447845
-0.09709915 -0.026757617 -0.05544266 -0.016987724 -0.011370853 0.08906601 0.1781572 0.21714978
0.08313123 0.06532366 0.10518461 -0.01638466 0.019662963 0.21197021 0.11095103 -0.010729774
0.1919913 -0.021625655 0.06169646 0.08617319 0.25897482 0.070610225 -0.0050363094 0.13742523
-0.03537186 -0.0681706 0.052869312 0.10576735 0.0027918066 0.1522703 0.21689294 0.009803777
-0.032065973 0.1919483 0.069460526 0.15636905 0.006475096 -0.11435007 -0.011813608 0.08462629
0.16404358 0.024498986 -0.14148918 0.08473121 0.15804005 0.17201018 0.15164484 0.10980875
-0.33542284 0.26988524 0.10319925 -0.037004624 0.06680061 0.07129106 0.09559385 0.048437707
-0.005773199 0.019596633 -0.023826174 -0.033137314 0.106945455 0.1737092 0.12687019 0.15207733
-0.0025498536 0.044817667 0.13849284 0.021746036 0.15182163 -0.028751224 -0.12712507 0.0043710256
0.1662595 -0.10309469 -0.07962058 0.08121815 0.15661603 0.119334444 0.16890581 -0.06281864
0.08425184 -0.07616221 0.062537916 -0.004148318 -0.07502512 -0.06590877 -0.07172349 0.23444688
0.098853186 0.024595596 0.013266522 0.23060663 -0.053647347 0.006739504 0.24075532 -0.034305155
0.0536502 0.16864407 -0.05470637 0.0827308 0.15747088 0.022053897 0.107570305 -0.04188189
0.20547706 0.23510773 0.108124465 -0.01977514 0.010235355 0.10330992 0.27066603 0.06294102
0.10633993 -0.068930365 0.106392235 0.048884135 0.17181206 -0.058965527 0.05217883 0.041079663
0.10045732 -0.14611535 0.16711053 0.028813485 0.04173471 0.035986133 0.036631122 0.0050219516
0.052789517 0.08356823 -0.15148045 -0.0295298 -0.34878492 -0.046205487 -0.05916893 0.09540594
-0.0812281 0.105976894 0.13415343 0.024366355 0.08054215 -0.3027699 0.03823631 -0.032666273
0.10053786 -0.0023322608 0.14771485 -0.19159694 0.13585177 -0.13677625 -0.3103817 0.11939919
0.5248597 -0.50191385 0.033727072 -0.060902663 0.027029604 -0.07509093 -0.03716327 -0.19415279
0.047663584 -0.08795957 0.024929643 -0.30471572 -0.10002505 0.04808066 0.0051209466 0.15213269
0.015708568 -0.06655537 -0.16082057 0.07625125 0.18241878 0.117520206 0.123217635 0.12639758
-0.0047433823 0.14851776 -0.07143846 -0.0548464 0.10301018 0.14009908 0.01945883 0.05974482
0.11894163 -0.16042314 0.034502666 0.22067466 0.15163721 0.20675072 0.056972075 0.017710445
0.022171916 -0.05000939 -0.06842092 0.012911059 -0.036272075 -0.062077887 0.12479232 0.09543004
0.06794026 -0.14572872 0.13931096 0.10454121 -0.016177852 -0.024033522 -0.155355 -0.023662005
0.0007518397 -0.035899095 0.071620904 0.03462302 -0.12861867 0.06326921 0.18203147 -0.19866501
-0.06793238 -0.09763452 -0.09077477 -0.04417537 0.067249045 0.056932665 -0.12248082 0.07739583
-0.040855963 0.17880465 0.13328484 -0.00588194 -0.016360832 0.13947502 0.09236721 -0.13202359
-0.04625451 -0.3106707 -0.055860586 -0.14435318 0.031283848 0.061581254 -0.020766454 0.077530324

fc2.bias f4 [64]
00000000: 9cd6 43bc b897 183e 3019 4e3e f46b 3a3e
00000010: 6a30 d5bc 33ba 8e3d 397c 813d 9979 963d
00000020: bafc cd3c a7a1 033e 8151 f4bd f659 943d
00000030: a1ba 1e3e 83ac cbbd b998 51bd 33a3 8e3d
00000040: 9007 123d 4cc8 d4bc 668d b93d 7373 ac3d
00000050: 356b 903d 60ae 4e3e a319 013e 1871 b43d
00000060: 08fe 2a3e 2b1b 0e3d b2c6 9f3e 101d cabd
00000070: 23d3 9cbc bed2 243d 0654 023e 8d84 213d
00000080: 234c 503e 68ac 093e 5f4c 923d 67be b2bc
00000090: bbc5 16bc 9323 0b3e 7bc6 943d 0aad 9fbd
000000a0: e608 96bd d977 8f3e aca6 0e3e f104 9f3d
000000b0: eb97 1b3e da2d 623e 6f6a 92bd 42c5 cc3d
000000c0: 488c 41bb 0ead 113e dc35 19bd 4bcc 223d
000000d0: 0e89 773d cc40 383d 5ba4 a9bd ace1 013d
000000e0: 45d2 b13d 43cd e0bd 9cd7 673e c915 413d
000000f0: ce15 bf3d 8a00 3637 d8a8 5f3b f2a7 493e
-0.011953022 0.14901626 0.20126796 0.18205243 -0.026024062 0.069691084 0.06322522 0.07347412
0.025144923 0.12854634 -0.11929608 0.07243721 0.15500881 -0.099450134 -0.05117104 0.069647215
0.035651743 -0.025974415 0.09060173 0.08420458 0.07051698 0.20183706 0.12607436 0.088106334
0.16698468 0.03469388 0.3120628 -0.098688245 -0.019143647 0.040240042 0.12727365 0.03943305
0.20341544 0.13444674 0.07143473 -0.021819307 -0.009202416 0.13587789 0.0726442 -0.077966765
-0.07325916 0.28021124 0.13930768 0.077646144 0.15194671 0.22087803 -0.07149207 0.099985614
-0.0029533077 0.14226171 -0.03740488 0.03974561 0.06043344 0.04498367 -0.082833014 0.031709358
0.08682684 -0.109766506 0.22640842 0.047139917 0.09330331 1.0848171e-05 0.0034127738 0.19692972

fc3.weight f4 [3, 64]
00000000: 406a 353d 1870 9abe b90e b2bd 6e10 193e
00000010: e703 23bf 8e73 92be a83a d83d b367 153e
00000020: c8d4 83be 8589 4b3e 2927 be3e df54 1abe
00000030: a9d7 d93d 166f 283e 4dc5 393d a7cf e4bd
00000040: fb3f 12be e3b9 603e 1cf1 f9bd 0b71 4dbe
00000050: abc4 32bd b045 77be a8ed 06bf c0af 21be
00000060: 8919 44be 9f33 46be 19db 65bf 79c4 c3bc
00000070: acd0 11be 178a 23bd 8388 103f 18e9 c23d
00000080: 36c4 44be 936d 57be 1145 4bbe f9ac 25be
00000090: c1a1 b93d e49c 01be 35a3 a33c 4e93 02be
000000a0: ef15 1b3e 9ef4 66bd 3ae7 6abd d4c9 37be
000000b0: 0a58 793d 862b 59be 0a74 333e 2e23 0d3e
000000c0: c675 363e cd12 36be b573 d03d 18b1 afbe
000000d0: 72f7 3abe 1aac fabd 8748 2c3e 4282 3dbe
000000e0: 7a87 5fbe 6005 f8bc 091b 62be 47c2 cdbc
000000f0: 7268 afbd c03f 50be 06bb 003f ce32 0cbe
00000100: fcd9 37be e7a6 69be ee9c eabc 7d3c 84bd
00000110: 8032 97be 36f5 203e eed7 50be 664c 47be
00000120: 3afb 38be c9ca 9cbe 2932 7e3e 91f6 f7bd
00000130: 2a51 0dbe 3bf8 873e be86 3dbe 24bb 053e
00000140: a503 bebc 62bc 843e 19b8 d4bd ba71 94bf
00000150: bae6 5dbd 8f24 5abd 4051 49be df5b 273e
00000160: e931 e1bd c72d a63d 131a 20be a901 723e
00000170: f24b cdbd 8d4b 4cbe b7aa 483e 7d90 7d3e
00000180: f88d 12be 0ed3 3dbd d2ec 503d 807f 143e
00000190: eb80 a7bc 5c24 253c 8b6a 72be 2a76 da3d
000001a0: 16b9 39be 9244 193e 41ad 583d ce69 94be
000001b0: 067c 88be eca0 86bd 6ab4 c23d 2511 20be
000001c0: ccee 18bd bd7a 1cbe bbc7 8e3e 0ec8 e93d
000001d0: a5cb b0be 6210 25be 7757 da3d 7197 21be
000001e0: 2079 a7bc ffc7 1fbe aab8 94be 30ac f13c
000001f0: 87d3 3fbe 1c4a fabd 5f3a 173e 865a fabd
00000200: c822 61be b527 ddbd 38a7 9abe 5648 d7bc
00000210: cac5 2fbd a62b ba3c 4078 b93d f448 21bd
00000220: efba a4bd 3275 94be 2c01 233d b666 b33d
00000230: 8188 8dbe 536a 293d 734e 36be f4be 143d
00000240: 5dbe 1f3e 56ff cc3d cd3e d7be e88d ec3e
00000250: 4057 9e3d fa6e 10be e01d 893b 0ed6 503c
00000260: 2c35 f9be 2e0d 14be 13e0 3c3e d514 3bbd
00000270: 2bc2 c4bd 1998 88be e136 8abe 9948 3f3e
00000280: 9979 05be d23e 3abe 0f96 bd3d 6211 a1bd
00000290: dcc3 28bd d84b 8bbe 20e1 153e 9c8b 853d
000002a0: ea19 85be 9fb4 823c 0aa3 5fbe 0c2c 91bd
000002b0: 9be6 84be d9d1 21be e1b9 563d 867e a9be
000002c0: 682c a1bd 7726 63bf c2d5 67be 5dcf 5a3e
000002d0: 2df3 adbe c55f 1fbe 89e2 bfbe 0d97 e83d
000002e0: dbad 753d f386 a33d 404f 973e ef5a be3d
000002f0: b65f 1dbe 22b3 a53d 6c5e b6bc daf7 0bbe
0.04429078 -0.30163646 -0.086942144 0.14947674 -0.6367783 -0.28603786 0.10558063 0.1459034
-0.25748277 0.19876678 0.37139252 -0.15071438 0.10636837 0.16448626 0.045354176 -0.11172419
-0.14282219 0.2194591 -0.12204191 -0.20062654 -0.04364459 -0.24147677 -0.52706385 -0.157897
-0.19150366 -0.1935563 -0.8978744 -0.023897396 -0.14239758 -0.039926615 0.564583 0.09517115
-0.19215474 -0.21037893 -0.19850565 -0.16179265 0.09064055 -0.12657505 0.019975284 -0.12751505
0.15145086 -0.05638563 -0.05734942 -0.17948085 0.060874976 -0.21208009 0.17524734 0.13782951
0.17818365 -0.1778061 0.10178319 -0.343148 -0.18258455 -0.12239857 0.16824542 -0.1850672
-0.21829024 -0.030276 -0.22080626 -0.025117053 -0.08564843 -0.20336819 0.50285375 -0.13691255
-0.17954248 -0.22817574 -0.028639283 -0.0645685 -0.29530716 0.1571854 -0.2039487 -0.19462737
-0.18064585 -0.30623463 0.24823822 -0.12107576 -0.13800493 0.26556572 -0.18508431 0.1305967
-0.023195097 0.25924975 -0.10386676 -1.1597207 -0.054175116 -0.05325752 -0.196599 0.1634364
-0.10995848 0.081142 -0.15634947 0.23633446 -0.10024251 -0.19950695 0.19596373 0.24762149
-0.1431197 -0.046343856 0.0510071 0.14501762 -0.020447215 0.0100794695 -0.23673455 0.10667069
-0.18137011 0.14967564 0.052899603 -0.28986973 -0.26657122 -0.06573662 0.095070675 -0.1563154
-0.03733711 -0.15281196 0.27886757 0.114151105 -0.34530368 -0.16119531 0.10661214 -0.15780427
-0.0204435 -0.15603636 -0.29047137 0.02950105 -0.18733035 -0.122211665 0.1476836 -0.12224297
-0.21985924 -0.10798589 -0.30205703 -0.02627961 -0.042913236 0.022725891 0.09056139 -0.039376214
-0.08043467 -0.28995663 0.03979604 0.08759825 -0.27643207 0.041361164 -0.17803364 0.03631492
0.15599962 0.10009639 -0.420401 0.46202016 0.07731485 -0.14104834 0.0041844696 0.012746347
-0.4867338 -0.14458153 0.18444853 -0.045674164 -0.09607347 -0.2667854 -0.26994994 0.18680038
-0.13034667 -0.18188027 0.09257137 -0.07864644 -0.04120241 -0.27206302 0.1463666 0.06520769
-0.25996333 0.015955267 -0.21839538 -0.070884794 -0.25957188 -0.15802707 0.05242336 -0.33104342
-0.07869798 -0.8873057 -0.22640136 0.21368165 -0.3397459 -0.15563877 -0.3747752 0.11356936
0.059980255 0.07984724 0.2955265 0.09294688 -0.15368542 0.080908075 -0.02226182 -0.13668767

fc3.bias f4 [3]
00000000: 183c a8bd 7adb b6bd a7dd dbbd
-0.08214587 -0.089285806 -0.10735636
