SAC/sac/actor_checkpoint_1.pth (torch, 22902 bytes, 6 tensors)

fc1.weight f4 [64, 10]
0.021352997 -0.18234585 0.24036619 -0.1854759 -0.14095484 -0.012626647 0.31680906 -0.5878316
0.30528146 -0.14380053 -0.4917757 -0.16170116 -0.21732834 -0.039651215 -0.18607 -0.2548349
0.03942339 0.24586263 0.0733597 -0.27084213 0.30945745 -0.45729372 -0.26973253 -0.2885958
-0.41313595 -0.030493561 -0.04127461 -0.056696337 -0.21451084 -0.1077255 -0.1450783 -0.08868604
0.15848148 -0.12950061 0.3409045 0.27769566 0.24201272 0.07676897 -0.12716831 -0.15342717
-0.40723076 0.05849882 0.18255642 0.19141327 -0.18706495 -0.10672905 0.19241363 -0.022354517
0.17713444 -0.34632888 -0.23773216 -0.16018073 0.11682276 0.09851591 0.03984594 -0.35295942
-0.006112428 0.079014406 -0.21160418 0.020725647 0.09925884 0.22862688 0.086930096 0.22331662
-0.22324347 -0.27788922 0.19151899 -0.18993664 -0.18539284 0.19270895 0.1355763 -0.08919967
-0.08615514 -0.13059165 0.1735699 -0.16277185 0.336912 -0.5954385 -0.0832931 0.29398358
0.019688353 0.17120233 -0.2763249 -0.23171632 0.12757115 0.02163397 -0.13484764 0.43074912
-0.17468554 -0.33826315 0.104184605 -0.45196053 0.11700129 -0.09308478 -0.02968909 -0.33682126
0.1442265 -0.34163082 -0.35579702 0.20332178 -0.1700534 -0.24747102 0.039146632 0.21818225
-0.103032745 0.32185185 -0.09453321 -0.43470874 -0.008952411 -0.10620537 0.0010584054 0.2691048
0.035332177 0.3508181 -0.10575287 0.108874805 -0.34691122 -0.08266392 -0.38354024 0.20545815
-0.2626832 -0.3064784 -0.06841101 0.07941044 -0.0721684 -0.22582875 -0.3749741 -0.16730413
0.283364 -0.06708036 -0.16856298 0.5659701 -0.2308713 -0.5078841 -0.44198632 -0.59316987
0.11888649 0.23354852 0.0074307616 0.18672274 -0.1601267 -0.2754638 0.11261181 0.2768416
0.19928531 -0.030562248 -0.085611016 0.07363625 -0.36338744 -0.22571012 0.05801423 -0.32459867
-0.35717854 0.023650505 0.058605716 0.21847062 -0.0979782 -0.07564687 0.04207943 0.32506013
0.092824064 -0.31130832 0.11225863 0.18687278 0.19300103 -0.14844435 0.067136936 -0.1729692
0.14549923 0.43963858 -0.11333278 0.2769044 0.35103184 -0.036720682 -0.265949 -0.2640972
-0.24996226 0.25552016 -0.25962633 -0.21469899 -0.27026284 0.28832164 -0.026174923 -0.3581235
-0.2703856 -0.056745373 0.34578717 0.3043457 -0.16365802 0.024608532 0.3835281 -0.33817372
0.36039048 0.015109655 0.22460231 -0.02367231 -0.22591725 -0.2543232 -0.04587929 0.30568758
-0.267102 0.052876998 -0.09802416 -0.18361066 0.09144057 0.13256551 0.3184007 0.37709454
-0.34254938 -0.03516127 0.28085765 0.07589602 0.19158716 0.2300491 0.22016698 -0.15192589
0.20434365 0.23958926 -0.17688216 -0.09622569 -0.22985129 -0.0066092224 0.16106309 -0.46235526
-0.56734246 -0.31729767 -0.42866656 0.1953513 0.16569985 0.05163855 -0.11345558 0.44962147
0.19702339 0.36131567 -0.30686957 0.17940286 -0.04951977 -0.06154496 0.35047013 0.35365608
0.23733664 0.17078449 -0.1274754 0.10402568 0.0088265715 -0.3220806 -0.032902304 -0.26373988
-0.34776142 -0.11354872 0.40873557 -0.39866754 0.34864882 -0.37307104 -0.20578018 -0.40022203
00000000: 7bec ae3c dfb8 3abe 8e22 763e 65ed 3dbe
00000010: 7756 10be ffdf 4ebc cc34 a23e 227c 16bf
00000020: da4d 9c3e 7240 13be 06ca fbbe fd94 25be
00000030: 528b 5ebe 5069 22bd 2289 3ebe b879 82be
00000040: 6c7a 213d 6ac3 7b3e 9c3d 963d d2ab 8abe
00000050: 3571 9e3e 6722 eabe 621a 8abe d4c2 93be
00000060: 8e86 d3be a2cd f9bc 910f 29bd 6b3a 68bd
00000070: bba8 5bbe 309f dcbd 688f 14be 07a1 b5bd
00000080: f848 223e cf9b 04be 098b ae3e 202e 8e3e
00000090: 2fd2 773e 0d39 9d3d 6938 02be 031c 1dbe
000000a0: 8d80 d0be 759c 6f3d 12f0 3a3e d701 443e
000000b0: f48d 3fbe c394 dabd 1408 453e d220 b7bc
000000c0: bb62 353e 0552 b1be 0f70 73be 6b06 24be
000000d0: c540 ef3d b6c2 c93d 7f35 233d 19b7 b4be
000000e0: c34a c8bb 4ed2 a13d c4ae 58be d5c8 a93c
000000f0: 3848 cb3d 2a1d 6a3e 6808 b23d 1dad 643e
00000100: f099 64be 7f47 8ebe 8e1d 443e c07e 42be
00000110: 9fd7 3dbe 7f55 453e 83d4 0a3e 51ae b6bd
00000120: 1b72 b0bd d1b9 05be 4fbc 313e aaad 26be
00000130: bb7f ac3e a86e 18bf 9395 aabd 0485 963e
00000140: 7849 a13c aa4f 2f3e 757a 8dbe 0b47 6dbe
00000150: 03a2 023e b939 b13c 8015 0abe 268b dc3e
00000160: c4e0 32be d430 adbe bd5e d53d 5f67 e7be
00000170: 5f9e ef3d 3ca3 bebd 8936 f3bc d673 acbe
00000180: 1db0 133e 3cea aebe 072b b6be 9633 503e
00000190: 7a22 2ebe 0b69 7dbe 3858 203d 2b6b 5f3e
000001a0: d502 d3bd c4c9 a43e a19a c1bd 2592 debe
000001b0: 22ad 12bc 3382 d9bd 31ba 8a3a 1bc8 893e
000001c0: 79b8 103d 6e9e b33e f694 d8bd c1f9 de3d
000001d0: 599e b1be b44b a9bd 635f c4be 9f63 523e
000001e0: 6a7e 86be bdea 9cbe 121b 8cbd f1a1 a23d
000001f0: 07cd 93bd a73f 67be 9bfc bfbe c651 2bbe
00000200: 1615 913e 6e61 89bd c69b 2cbe 6be3 103f
00000210: 8769 6cbe b104 02bf 084c e2be fbd9 17bf
00000220: c37a f33d 5827 6f3e bf7d f33b 3f34 3f3e
00000230: 41f8 23be 9709 8dbe 05a1 e63d 2fbe 8d3e
00000240: 7311 4c3e ae5d fabc d454 afbd 9ace 963d
00000250: eb0d babe 8e20 67be 54a0 6d3d cc31 a6be
00000260: 1be0 b6be b4be c13c 8c0c 703d c3b6 5f3e
00000270: cba8 c8bd bfec 9abd 7b5b 2c3d 486e a63e
00000280: 8b1a be3d ce63 9fbe dae7 e53d 945b 3f3e
00000290: 10a2 453e cc01 18be 177f 893d d71e 31be
000002a0: c0fd 143e 4f18 e13e 041b e8bd 6ac6 8d3e
000002b0: 72ba b33e 6d68 16bd 782a 88be c037 87be
000002c0: 1bf6 7fbe 8ad3 823e beed 84be 0dda 5bbe
000002d0: e45f 8abe e59e 933e cb6c d6bc f75b b7be
000002e0: fb6f 8abe d66d 68bd 040b b13e 33d3 9b3e
000002f0: f895 27be d597 c93c cc5d c43e 1b25 adbe
00000300: 1a85 b83e 7d8e 773c 26fe 653e 6fec c1bc
00000310: da56 67be a736 82be eceb 3bbd 1583 9c3e
00000320: 98c1 88be 8d95 583d e4c0 c8bd 6f04 3cbe
00000330: 3245 bb3d 41bf 073e 6b05 a33e 8912 c13e
00000340: a262 afbe 4405 10bd 93cc 8f3e 5f6f 9b3d
00000350: 6d2f 443e fe91 6b3e 7473 613e 7692 1bbe
00000360: 763f 513e e356 753e 9920 35be f911 c5bd
00000370: 235e 6bbe 2d92 d8bb b9ed 243e d4b9 ecbe
00000380: 5b3d 11bf d774 a2be 2f7a dbbe 2c0a 483e
00000390: 39ad 293e f282 533d 665b e8bd c934 e63e
000003a0: 80c0 493e 5efe b83e 021e 9dbe 62b5 373e
000003b0: 3ed5 4abd 9116 7cbd d270 b33e 6912 b53e
000003c0: 6008 733e 21e2 2e3e e988 02be 6a0b d53d
000003d0: 539d 103c c0e7 a4be 91c4 06bd ea08 87be
000003e0: c90d b2be 3b8c e8bd ca45 d13e 271e ccbe
000003f0: 1982 b23e 2b03 bfbe 0ab8 52be e7e9 ccbe

fc1.bias f4 [64]
-0.015079095 -0.04287011 0.34388268 0.039628632 -0.12990443 0.20955464 -0.2514365 0.07515446
-0.27695778 -0.20621625 0.2503021 0.19074729 0.3116431 0.4356346 0.17204365 -0.33797097
0.051859085 0.36975288 0.28959522 0.29271704 -0.19447929 0.06614563 0.30043206 0.080236465
0.3331865 0.016169054 -0.2154499 0.21421805 0.32948312 0.028173592 0.42040578 -0.07392686
-0.14307313 -0.11820296 -0.14333726 0.068503715 0.14840052 -0.13855447 -0.32084313 0.09251138
0.5090562 -0.14877073 0.23301564 -0.33165178 -0.24488965 0.07499925 -0.016393408 0.0059921355
0.09523659 -0.09939451 0.11299547 -0.039539386 -0.31464964 0.005982392 -0.14315906 0.01727595
0.2581414 0.12428802 -0.17212813 -0.12788846 0.22609054 0.05849843 0.09590571 0.030700501
00000000: 4f0e 77bc 9298 2fbd 6411 b03e a251 223d
00000010: ab05 05be 7e95 563e 49bc 80be 95ea 993d
00000020: 69cd 8dbe 5a2a 53be 9927 803e 4253 433e
00000030: af8f 9f3e 800b df3e 362c 303e 880a adbe
00000040: 316a 543d 4050 bd3e d345 943e 02df 953e
00000050: 9425 47be 5c77 873d 3bd2 993e 0453 a43d
00000060: 6c97 aa3e f774 843c e69e 5cbe fa5b 5b3e
00000070: 03b2 a83e 4ecc e63c 6d3f d73e f766 97bd
00000080: c381 12be 6514 f2bd 01c7 12be ad4b 8c3d
00000090: 4ef6 173e 39e1 0dbe 8d45 a4be 9b76 bd3d
000000a0: 8251 023f 5b57 18be a79b 6e3e 43ce a9be
000000b0: 5ac4 7abe 3599 993d 784b 86bc ad59 c43b
000000c0: 670b c33d 598f cbbd 2b6a e73d 0df4 21bd
000000d0: c219 a1be f107 c43b 4a98 12be 4b86 8d3c
000000e0: 1c2b 843e b88a fe3d 5b42 30be 31f5 02be
000000f0: 4784 673e 0d9c 6f3d 366a c43d 9e7f fb3c

fc2.weight f4 [64, 64]
0.080197714 0.055659518 0.008922385 0.14700006 0.023254713 -0.07509701 0.0413596 -0.08751472
0.09139463 -0.03685769 0.14179751 0.09162685 0.006626716 0.069351554 0.067980245 -0.09877342
-0.119555116 -0.048393294 -0.08394116 -0.03822456 -0.028811242 0.07202691 0.15546325 0.2077322
0.052631173 0.03882345 0.08915598 -0.03808433 -0.013008789 0.1849796 0.07868007 -0.03377557
0.18153366 -0.038454756 0.03917628 0.076841354 0.23540771 0.048458945 -0.01614047 0.058283817
-0.093287416 -0.09065448 0.027908696 0.11665767 -0.017514654 0.12370497 0.21242936 -0.021298038
-0.05747859 0.1517603 0.04752343 0.13743888 0.009979283 -0.13438086 -0.022202304 0.04456556
0.13911238 -0.00091946364 -0.15738367 0.07047313 0.1466805 0.14276598 0.121470764 0.08584642
-0.35993966 0.23452616 0.06745717 -0.080876864 -0.0031602262 0.047605593 0.089117445 0.028763333
-0.042309124 0.009524281 -0.06177037 -0.05212397 0.051724512 0.13388774 0.08055399 0.13703537
-0.015696026 -0.007342577 0.108232684 0.006105543 0.13173763 -0.05722968 -0.1706857 -0.010818588
0.13264383 -0.11671299 -0.086549036 0.066666365 0.11243084 0.08700928 0.10998699 -0.08527935
0.07543735 -0.083048254 0.053384803 -0.01823207 -0.096226126 -0.094102785 -0.08830905 0.14731966
0.04703076 -0.009836308 -0.04239648 0.22022772 -0.06390906 -0.035979513 0.23776057 -0.12395295
0.03383237 0.13130228 -0.06475786 0.060488235 0.10885364 0.0015140127 0.08766685 -0.071148515
0.18773948 0.20962526 0.09965829 -0.028709263 -0.019468267 0.07234159 0.24147728 0.04679473
0.08426488 -0.12162871 0.08365517 0.031409793 0.15131927 -0.08083519 0.039881963 0.022371786
-0.08346539 -0.16033828 0.14076465 0.012301564 0.0040757894 0.0074857674 0.013665866 0.0073844413
0.03278486 0.05466246 -0.17297807 -0.052072216 -0.35607237 -0.061981358 -0.08702636 0.07654964
-0.102974795 0.08897915 0.12135863 0.0028017731 0.054403998 -0.32497004 0.006601951 -0.0535482
0.09714484 -0.012091925 0.13065527 -0.20692687 0.116616726 -0.14975092 -0.3194125 0.055399895
0.21533212 -0.5124933 0.008308149 -0.063760296 0.014794478 -0.09531039 -0.054082792 -0.22147149
0.026074784 -0.14025997 0.0041932627 -0.31259865 -0.11515205 0.032979492 -0.011116774 0.10632861
-0.0036464166 -0.07774024 -0.17119588 0.062543325 0.16004977 0.09554458 0.0997638 0.10933578
-0.005829438 0.14180943 -0.08712144 -0.039870396 0.066465884 0.15595311 0.013943557 0.058540557
0.11644438 -0.16167307 0.048049558 0.22744608 0.18384032 0.20731571 0.07294206 0.014637624
0.02905213 -0.025260622 -0.067888804 0.023198633 -0.03681689 -0.057404354 0.15715015 0.1340948
0.061303485 -0.14746305 0.14469324 0.11072733 -0.027562428 -0.029696796 -0.1422377 -0.012270403
-0.0021272225 -0.03462193 0.07651608 0.04554649 -0.12781608 0.04055404 0.17319787 -0.20842968
-0.053267743 -0.084138155 -0.069379434 -0.025270676 0.06772991 0.037062924 -0.093182966 0.07323551
-0.034284923 0.16736858 0.14741965 -0.014190383 0.00845704 0.1491455 0.122689836 -0.06728776
-0.053462893 -0.3334138 -0.05902366 -0.14096296 0.06412415 0.062480167 -0.028227147 0.077467576
00000000: b33e a43d 3cfb 633d 322f 123c 2f87 163e
00000010: ab80 be3c 76cc 99bd af68 293d eb3a b3bd
00000020: 1c2d bb3d 17f8 16bd 5e33 113e dca6 bb3d
00000030: ec24 d93b 3008 8e3d 3a39 8b3d b849 cabd
00000040: 50d9 f4bd 0c38 46bd 58e9 abbd 5b91 1cbd
00000050: 8e05 ecbc d882 933d c231 1f3e c0b7 543e
00000060: c993 573d 5705 1f3d 6997 b63d 50fe 1bbd
00000070: d122 55bc 4b6b 3d3e 0423 a13d 4158 0abd
00000080: f6e3 393e bc82 1dbd 4f77 203d 005f 9d3d
00000090: b80e 713e e37c 463d 0539 84bc 03bb 6e3d
000000a0: 790d bfbd 0ea9 b9bd c7a0 e43c 37ea ee3d
000000b0: e47a 8fbc 0859 fd3d 1587 593e 3979 aebc
000000c0: ac6e 6bbd 0d67 1b3e eea7 423d c7bc 0c3e
000000d0: 2680 233c 239b 09be 9be1 b5bc 608a 363d
000000e0: 7a73 0e3e 2908 71ba 2f29 21be 3754 903d
000000f0: 6a33 163e 3f31 123e aac5 f83d 3fd0 af3d
00000100: 034a b8be a027 703e fc26 8a3d c5a2 a5bd
00000110: cc1b 4fbb 15fe 423d 3583 b63d 15a1 eb3c
00000120: 554c 2dbd bb0b 1c3c ed02 7dbd f27f 55bd
00000130: 15dd 533d de19 093e 7ef9 a43d 0053 0c3e
00000140: f494 80bc 009a f0bb 19a9 dd3d 0211 c83b
00000150: 3be6 063e ab69 6abd 3bc8 2ebe 7240 31bc
00000160: c9d3 073e 3807 efbd 9f40 b1bd 6088 883d
00000170: 2442 e63d ec31 b23d dc40 e13d f1a6 aebd
00000180: e67e 9a3d 3415 aabd 06aa 5a3d 6c5b 95bc
00000190: 3412 c5bd f6b8 c0bd 60db b4bd f7da 163e
000001a0: 54a3 403d 7728 21bc eea7 2dbd 6083 613e
000001b0: c1e2 82bd 415f 13bd 8277 733e 0bdb fdbd
000001c0: d093 0a3d 1b74 063e c59f 84bd 83c2 773d
000001d0: a8ee de3d d671 c63a ad8a b33d 50b6 91bd
000001e0: c73e 403e 01a8 563e a519 cc3d b02f ebbc
000001f0: ea7b 9fbc d427 943d d245 773e d5ab 3f3d
00000200: 1193 ac3d 7918 f9bd 6753 ab3d 8ea7 003d
00000210: 70f3 1a3e ec8c a5bd 455b 233d 0945 b73c
00000220: e7ef aabd b82f 24be 9c24 103e 808c 493c
00000230: 338e 853b 2b4b f53b cce6 5f3c 2ff9 f13b
00000240: 6b49 063d bee5 5f3d 2a21 31be ad49 55bd
00000250: 1e4f b6be 2ae0 7dbd e03a b2bd 0fc6 9c3d
00000260: 73e4 d2bd b33a b63d e08a f83d f49d 373b
00000270: bad6 5e3d 7962 a6be 2e55 d83b 5b55 5bbd
00000280: e0f3 c63d 361d 46bc 7fca 053e a3e4 53be
00000290: c0d4 ee3d 4e58 19be 098a a3be 00eb 623d
000002a0: 0680 5c3e c332 03bf e71e 083c c294 82bd
000002b0: 8a64 723c 1832 c3bd eb85 5dbd 6cc9 62be
000002c0: c99a d53c 4fa0 0fbe a367 893b ee0c a0be
000002d0: d7d4 ebbd 8115 073d 2123 36bc d0c2 d93d
000002e0: b8f8 6ebb 4636 9fbd f94d 2fbe b716 803d
000002f0: 16e4 233e e0ac c33d f750 cc3d 70eb df3d
00000300: df04 bfbb 7e36 113e ba6c b2bd 244f 23bd
00000310: 441f 883d 2cb2 1f3e 8473 643c 39c8 6f3d
00000320: 647a ee3d a08d 25be 9dcf 443d a0e7 683e
00000330: a340 3c3e 924a 543e a662 953d a5d2 6f3c
00000340: bcfe ed3c 5def cebc 4909 8bbd 0f0b be3c
00000350: 4fcd 16bd d420 6bbd f8eb 203e 2650 093e
00000360: 5d19 7b3d 8e00 17be 772a 143e 03c5 e23d
00000370: 9aca e1bc b246 f3bc c2a6 11be cd09 49bc
00000380: df68 0bbb bacf 0dbd 76b4 9c3d f58e 3a3d
00000390: 38e2 02be fe1b 263d c85a 313e 976e 55be
000003a0: 472f 5abd a050 acbd ce16 8ebd 7304 cfbc
000003b0: fbb5 8a3d 4bcf 173d b6d6 bebd 80fc 953d
000003c0: 596e 0cbd ab62 2b3e 2df5 163e c87e 68bc
000003d0: 668f 0a3c 99b9 183e cf44 fb3d 2ace 89bd
000003e0: e8fb 5abd 37b5 aabe cbc2 71bd 9858 10be
000003f0: 8653 833d 34eb 7f3d 9e3c e7bc 52a7 9e3d

fc2.bias f4 [64]
-0.050639253 0.09357122 0.15965512 0.19714855 -0.085317485 0.071498975 0.07175149 0.06645742
-0.022272663 0.08399456 -0.101961784 0.07586176 0.11617413 -0.08529497 -0.083044045 0.09709752
0.05690307 0.011454339 0.018473014 -0.005566195 0.08897453 0.1527052 0.08333206 0.10324476
0.096580744 0.00966356 0.1492099 -0.088763475 -0.06637281 -0.008949678 0.12631892 0.06812893
0.14941221 0.086469494 0.08450096 -0.025876673 -0.009201764 0.09912161 0.08734949 -0.053493228
-0.10263707 0.30950484 0.110890776 0.03323126 0.08636061 0.16786264 -0.041001044 0.06502291
0.006878355 0.03488893 -0.040422656 0.06466747 -0.003672801 -0.0031155196 -0.09387617 0.032499846
0.092968464 -0.10613171 0.22729862 0.07958988 0.048232034 -0.0025142888 0.033090364 0.14908437
00000000: 1b6b 4fbd 45a2 bf3d a27c 233e 4fe1 493e
00000010: efba aebd 0e6e 923d 72f2 923d d41a 883d
00000020: 2975 b6bc 5705 ac3d 57d1 d0bd 695d 9b3d
00000030: b4ec ed3d 21af aebd ff12 aabd 11db c63d
00000040: 3213 693d fbaa 3b3c b854 973c a164 b6bb
00000050: 4738 b63d c05e 1c3e 00aa aa3d fd71 d33d
00000060: 20cc c53d e953 1e3c 7bca 183e a0c9 b5bd
00000070: 78ee 87bd aca1 12bc bf59 013e 2e87 8b3d
00000080: 84ff 183e eb16 b13d d70e ad3d 51fb d3bc
00000090: ffc2 16bc 4500 cb3d 4ae4 b23d b71b 5bbd
000000a0: 6233 d2bd 6b77 9e3e b41a e33d 801d 083d
000000b0: d5dd b03d 2fe4 2b3e b6f0 27bd bb2a 853d
000000c0: d363 e13b b2e7 0e3d 3a92 25bd 6170 843d
000000d0: 60b3 70bb bf2d 4cbb 2642 c0bd 8f1e 053d
000000e0: 4066 be3d 955b d9bd f8c0 683e 0500 a33d
000000f0: f48e 453d c4c6 24bb c389 073d 93a9 183e

fc3.weight f4 [3, 64]
0.1031482 -0.14859729 -0.019084815 0.21397927 -0.576803 -0.2236879 0.11053504 0.15951787
-0.19283304 0.17128848 0.4092997 -0.08757651 0.16949596 0.1817427 0.062875584 -0.06044525
-0.0774537 0.2689981 -0.002453372 0.2741188 0.026407583 -0.10236873 -0.3554982 -0.11039076
-0.06150696 -0.16031119 -0.48872098 0.013970451 -0.06314811 0.03138972 0.59457165 0.059322506
-0.09012541 -0.09840048 -0.16226874 -0.12982409 0.09064055 -0.080932155 0.0927726 -0.093157
0.15410893 0.20470122 -0.023421187 -0.11942499 0.15182693 -0.13168104 0.1774624 0.21219523
0.19815391 -0.015503933 0.102219656 -0.29190892 -0.08342541 -0.04327413 0.18349259 -0.08959072
-0.17172028 -0.002665453 -0.17440455 0.01937713 0.021860972 -0.111465104 0.46481535 -0.0524629
-0.11682306 -0.17054538 0.009092798 -0.025183735 -0.265599 0.18458498 -0.1855856 -0.17143777
-0.124948114 -0.2630828 0.25089243 -0.0950047 -0.062999055 0.26361632 -0.15624297 0.16939428
0.004929767 0.2711032 -0.0015209954 -0.4027705 -0.022732412 0.016642198 -0.15062948 0.1956456
-0.05605395 0.11281763 0.040790003 0.24360356 -0.03936155 -0.12709041 0.20230623 0.2990985
-0.078911126 0.007333559 0.066877104 0.18141598 -0.020447275 0.054354515 -0.18751694 0.12620403
-0.06852366 0.20101233 0.09055585 -0.24214838 -0.18245982 -0.009435242 0.106302485 -0.07477617
0.036407255 -0.03604802 0.26804674 0.14074646 -0.30515072 -0.09267555 0.13214755 -0.118779734
0.010831393 -0.14378268 -0.26555791 0.06722332 -0.13799192 -0.081178635 0.15661442 -0.06429318
-0.14029309 -0.032806545 -0.24237414 0.025885269 -0.020613298 0.05572566 0.095961966 -0.0069491784
-0.011502152 -0.13368604 0.050604764 0.12753068 -0.18655735 0.048448943 -0.13854648 0.08185053
0.19570906 0.11615537 -0.2858744 0.5031093 0.11919303 -0.05678058 0.08333753 0.048232492
-0.40869465 -0.10807803 0.3002491 -0.026962351 -0.023257535 -0.18390587 -0.2582952 0.20089611
-0.043616366 -0.115833126 0.11534725 -0.03942232 -0.04120241 -0.22772032 0.21495603 0.09551262
-0.22836563 0.09517011 -0.16998138 -0.0214125 -0.034072172 -0.07761242 0.064890675 -0.24609509
-0.021138404 -0.7020588 -0.2174025 0.23790969 -0.28234005 -0.06855116 -0.15023975 0.17590113
0.09402943 0.102129504 0.33178177 0.1346129 -0.08127478 0.12710166 -0.00964933 -0.060015373
00000000: 5d3f d33d e329 18be c257 9cbc 621d 5b3e
00000010: 5da9 13bf 710e 65be 3260 e23d a758 233e
00000020: 0676 45be 3f66 2f3e bb8f d13e 505b b3bd
00000030: 5990 2d3e c21a 3a3e eac4 803d 7095 77bd
00000040: 0ca0 9ebd 1eba 893e c1c8 20bb 4d59 8c3e
00000050: b754 d83c b2a6 d1bd dc03 b6be 8d14 e2bd
00000060: b9ee 7bbd 9e28 24be a339 fabe 52e4 643c
00000070: cc53 81bd 8292 003d d935 183f 28fc 723d
00000080: ac93 b8bd 3186 c9bd c729 26be 9bf0 04be
00000090: c1a1 b93d c2bf a5bd 90ff bd3d 19c9 bebd
000000a0: bbce 1d3e 329d 513e cadd bfbc 1795 f4bd
000000b0: 8578 1b3e 65d7 06be b4b8 353e b549 593e
000000c0: dce8 4a3e 3504 7ebc 8a58 d13d 1675 95be
000000d0: f1da aabd 3740 31bd 7be5 3b3e 577b b7bd
000000e0: 71d7 2fbe e1ae 2ebb 1b97 32be c9bc 9e3c
000000f0: c815 b33c d147 e4bd 47fc ed3e 56e3 56bd
00000100: ee40 efbd 73a3 2ebe f6f9 143c 1f4e cebc
00000110: 98fc 87be d803 3d3e 270a 3ebe 628d 2fbe
00000120: cce4 ffbd cab2 86be f974 803e d391 c2bd
00000130: a605 81bd b8f8 863e 28fe 1fbe b275 2d3e
00000140: e289 a13b 0ace 8a3e 235c c7ba ef37 cebe
00000150: 5339 babc 3855 883c 9d3e 1abe 5257 483e
00000160: d498 65bd ee0c e73d 6b13 273d 3673 793e
00000170: 9439 21bd fd23 02be 5d29 4f3e 7023 993e
00000180: 289c a1bd 5a4e f03b ddf6 883d 1cc5 393e
00000190: 0b81 a7bc d7a2 5e3d 7104 40be a13b 013e
000001a0: 2256 8cbd 2dd6 4d3e 5875 b93d bff5 77be
000001b0: bfd6 3abe 4696 1abc 1eb5 d93d 4024 99bd
000001c0: c61f 153d 17a7 13bd 6c3d 893e d71f 103e
000001d0: b73c 9cbe aecc bdbd b051 073e ca42 f3bd
000001e0: 2876 313c c43b 13be 35f7 87be 61ac 893d
000001f0: c14d 0dbe fc40 a6bd 885f 203e 25ac 83bd
00000200: fea8 0fbe 2860 06bd ed30 78be 580d d43c
00000210: 38dd a8bc 9740 643d b587 c43d efb5 e3bb
00000220: 8673 3cbc fee4 08be f146 4f3d 6797 023e
00000230: e408 3fbe 6672 463d 21df 0dbe 40a1 a73d
00000240: f567 483e dee2 ed3d 215e 92be c5cb 003f
00000250: 7a1b f43d c192 68bd deac aa3d 6f8f 453d
00000260: 6d40 d1be 0458 ddbd 40ba 993e 26e0 dcbc
00000270: 9686 bebc d251 3cbe 453f 84be b6b7 4d3e
00000280: 13a7 32bd eb39 edbd 2e3b ec3d 4c79 21bd
00000290: dcc3 28bd 842f 69be 6f1d 5c3e 1f9c c33d
000002a0: aed8 69be 8ce8 c23d 990f 2ebe 4469 afbc
000002b0: 438f 0bbd 43f3 9ebd 67e5 843d 5a00 7cbe
000002c0: 722a adbc 20ba 33bf c39e 5ebe 999e 733e
000002d0: e08e 90be 8d64 8cbd 73d8 19be 6d1f 343e
000002e0: 8092 c03d 4629 d13d 4ddf a93e f7d7 093e
000002f0: 6473 a6bd f026 023e 3918 1ebc aed2 75bd

fc3.bias f4 [3]
0.0368035 -0.0285528 -0.028588979
00000000: 44bf 163d 90e7 e9bc 6f33 eabc
