SAC/sac/critic1_checkpoint_3.pth (torch, 23178 bytes, 5 tensors)

fc1.weight f4 [64, 13]
00000000: d4e5 05be 705d 443f 5b95 8f3d cbcb 803e
00000010: a590 13bf 623f dbbe a9ba d43d eebb abbc
00000020: c455 1e3e 238f 04be 2de1 34be 9308 b53d
00000030: 1a91 38bd 4ed6 573e 462a 923e 9555 f33d
00000040: 31eb e4bd 345f e8bd 2b72 003f b866 efbd
00000050: 8df1 233e b7de 103f f9da 0f3e 1a17 2f3d
00000060: b93f a53c e5e0 963d b616 fa3e 0ca4 023f
00000070: 0d18 c5bd 4122 573e d5fc bd3d 9208 ad3d
00000080: 6923 afbd 0069 4ebe 433a 043e 770c ac3d
00000090: e138 c73d 691a b83e 8359 6d3e 428f 163e
000000a0: 9adc 353e d2bb 003e 54e4 f3be f82d eabe
000000b0: 3e19 a63c 0d5f 383d 3c83 b3be b93c bf3e
000000c0: 26fc c0bd a594 a53d a5bc c13d dd05 2dbd
000000d0: f377 a7be 4149 483e f091 a8bd bed5 26be
000000e0: a294 07bf d8cb 60be 67ca cd3b 9498 933e
000000f0: bb87 f9bd c149 8dbc 1f0b 5d3e 11b0 32bd
00000100: 4b76 cbbc 557e 8dbe 725e b4be 0e3b 4fbe
00000110: bd98 84bf 1829 69bf fe95 f7be 3b41 253e
00000120: 8843 e93e a49b 61be 3665 6ebe 2a6f 42bd
00000130: d56c c6bd fdcd 9abd 775f 97be cd44 e93d
00000140: 3a02 b5be 97ea 77be e60d 80be fd41 693e
00000150: 96d6 f0bd 824d c23d fabc 3e3d b8d2 31bd
00000160: fb96 c33d e5e7 123e 8cab e33c 9caa 5b3e
00000170: dd0f 8dbe b6cf cfbb adfe 46bf c120 383e
00000180: 90bc 3ebe 3555 6a3e a627 2bbe f004 93bc
00000190: fee0 d1bd b03f eb3d a5bc debd e45c a4bd
000001a0: fde7 603c c651 9c3e 1ff5 b73c 28d4 023e
000001b0: ae36 04bf dfe5 3fbe c505 9e3e 9d26 1bbd
000001c0: 37c3 81be 11cb 53be f213 9f3e 1409 c2bc
000001d0: 044b a73d af4f b7bc 0e5c 223e 39c7 8e3c
000001e0: 3470 63be 6ad6 52be a8e1 a73e cc81 a2bd
000001f0: 7e4d b73c ce4a cd3e 41cd 2f3e 2381 5d3d
00000200: 6526 c23d 7639 7f3b 5d24 54be 4f57 3c3f
00000210: 6266 b13c 472d dfbe 6714 b4be bd20 403b
00000220: 4d5b 4bbe 4c28 1d3e ae48 653e 82c6 e0bd
00000230: 0d91 11bb 9f40 a73c d0b0 213d e2bf a43e
00000240: 5880 183e 5cd5 493e 418f b2be 1b84 70be
00000250: 9e62 f7bd b640 053e 724b a43c e9dd 323e
00000260: ced9 943e 470a c03e c68a 663e fafb 233e
00000270: 9af6 2ebd 3f7a 55be 9a04 78be 4e40 00bf
00000280: ea0c 0f3d 746d 603d e986 0fbe a217 9ebc
00000290: 47a6 a3bd 0435 2cbe 02c5 93bd d880 6fbd
000002a0: 1806 ecbd 896c a33e 5fe0 b53e c5d6 db3d
000002b0: c9de f2be 4171 ee3d d00f 1a3e 954b ddbe
000002c0: dc38 963e 5c6a bb3d 6f6f dd3e fa65 b1bd
000002d0: d373 e73d f80b af3d c848 febd e4bd 9d3e
000002e0: 2c45 36be bc64 8cbe e364 3bbc 2498 813d
000002f0: 7b84 153d 8339 88be 6a00 ef3d 42cd bf3e
00000300: 2931 113d 4134 d53c 6183 2ebc a176 2dbd
00000310: a002 183e 77c2 303e 6040 3e3e 8725 8d3c
00000320: 4c0d bd3e 3f1c 35be d806 b63d 8a4e 803d
00000330: 4857 893e 43a0 8cbd 5b06 9d3d 3ff9 cf3d
00000340: c772 0b3f ef77 a13d 6a8b 12be 726c 70bc
00000350: 639d fbbe 05da 893d 7f81 cdbd 61d8 b83e
00000360: 459b 2c3e 6ba7 e1bd 1b71 c33c dab2 4ebc
00000370: 5fd8 8fbc 1ab2 1f3e 5740 ad3d bcd3 2d3e
00000380: a11c dfbd 7306 4dbe 0710 773e 72ab b8bd
00000390: d84b febd ef71 aa3e 04b6 943e 77c5 123d
000003a0: ba81 583d d603 153d 8fa9 16bd 5c4b 233f
000003b0: fdf4 bdbc 41cc b9be 8616 06be 7297 d1bc
000003c0: 3d63 e6bd d9cc dc3d c6a5 153e 15cf 8b3e
000003d0: b690 46be 19a4 01be 5889 8f3d b4fd fc3d
000003e0: 3cfd 44bd 81d4 953e db61 0bbf 7e13 013e
000003f0: be80 5f3e ea14 3dbe 7e24 47be a06a 983e
-0.13075954 0.76705074 0.07010909 0.25155482 -0.57642585 -0.42821795 0.10387165 -0.020963635
0.15462404 -0.12945227 -0.17664023 0.08839526 -0.045060255 0.21077845 0.28547877 0.11881558
-0.11177672 -0.113462836 0.50174206 -0.11689514 0.16010113 0.56589836 0.14048375 0.04274664
0.020171987 0.07367114 0.48845452 0.51031566 -0.09623728 0.2100916 0.092767395 0.084489
-0.08551676 -0.20157242 0.1291285 0.08400815 0.09727646 0.3595765 0.23178677 0.14703086
0.17759934 0.12571648 -0.47635138 -0.45738196 0.020275708 0.045012522 -0.3506106 0.37351015
-0.094230935 0.08084992 0.09459809 -0.04224192 -0.32708701 0.19559194 -0.0823096 -0.16292474
-0.5296117 -0.2195276 0.0062802318 0.28827345 -0.12184092 -0.017247083 0.21586274 -0.04362494
-0.02483668 -0.27635446 -0.35228306 -0.20237371 -1.0359112 -0.9107833 -0.48356622 0.16138165
0.45559335 -0.22032028 -0.23280796 -0.047469296 -0.09688727 -0.075588204 -0.2956502 0.11390076
-0.3535326 -0.24210583 -0.25010604 0.22779079 -0.11759679 0.0948744 0.04656694 -0.043413848
0.095502816 0.14346273 0.02779176 0.21451801 -0.27551165 -0.0063418997 -0.77732354 0.17981245
-0.18626618 0.22884066 -0.16714343 -0.01794669 -0.10247992 0.11486757 -0.10875825 -0.0802553
0.013727185 0.30531138 0.02245575 0.12776244 -0.51645935 -0.18740033 0.30863777 -0.03787862
-0.2534425 -0.20682932 0.31069905 -0.02368597 0.08168605 -0.022376863 0.15855429 0.017428981
-0.22210771 -0.20589605 0.3278935 -0.07934913 0.022375818 0.40096134 0.17168142 0.054078232
0.094799794 0.0038944161 -0.20716996 0.7357072 0.021655265 -0.4358923 -0.35171816 0.0029316389
-0.19859047 0.15347403 0.22391006 -0.10975362 -0.00222117 0.020416556 0.039475262 0.32177645
0.1489271 0.19710296 -0.3487492 -0.23487894 -0.120793566 0.13012967 0.020055506 0.17467465
0.29072422 0.3750784 0.22513875 0.1601409 -0.042715646 -0.20847414 -0.24220505 -0.5009812
0.034924425 0.054791883 -0.14016308 -0.019298378 -0.07990699 -0.16817099 -0.07215311 -0.058472484
-0.115246 0.31918743 0.35522744 0.107343234 -0.47435597 0.11642695 0.15045094 -0.43221727
0.29340255 0.09151146 0.4324908 -0.086620286 0.113013886 0.08547205 -0.12416226 0.30808938
-0.17799824 -0.27420604 -0.0114376275 0.06327847 0.036503296 -0.26606378 0.11670001 0.37461287
0.035447273 0.026025893 -0.01065144 -0.04234946 0.14844751 0.17261682 0.18579245 0.017229808
0.36924207 -0.17686556 0.08888024 0.0626498 0.26824403 -0.06866505 0.07667228 0.10154962
0.5447201 0.07884204 -0.14310995 -0.014674293 -0.49143514 0.06731037 -0.10034465 0.36102584
0.16856106 -0.110182606 0.023857644 -0.012615884 -0.017559228 0.15595284 0.084595375 0.16975302
-0.108941324 -0.20021991 0.24127208 -0.090170756 -0.1241681 0.3329005 0.29045117 0.03583285
0.052858092 0.03638061 -0.036782797 0.63786864 -0.023188109 -0.36288646 -0.1309453 -0.02558491
-0.11249397 0.10781259 0.14614019 0.2730643 -0.1939114 -0.12660255 0.07008618 0.123530775
-0.048093066 0.2926369 -0.5444619 0.12605092 0.21826455 -0.1846501 -0.19447514 0.29768848

fc1.bias f4 [64]
00000000: 323f bd3e 9f4d a5be 4722 223e b5bc a63e
00000010: 56fe 153f abcb 1b3f e938 203f a00c ff3e
00000020: 778c 8c3e 2ff7 903e b893 db3e 7025 713e
00000030: c977 413f c900 c43e 74b3 b63e 451d 46be
00000040: 0578 7f3e d4d7 02be b6c0 a4be 21c5 f13e
00000050: 6135 de3e 4dd4 19be f0fe 8d3e 5a4d 3e3d
00000060: 9b37 983d 76ef 0abd a10c 7f3f 0554 0b3f
00000070: 705b 10bf 6ce8 d03d 52c9 3b3e 5ec2 b33e
00000080: fe25 6cbe 16aa 76be d06c c1bc a282 253f
00000090: f774 e83e d4a3 30bd 341b b3bd 70f3 ef3e
000000a0: 7774 5a3e b916 82be 336b 683d a82c 243f
000000b0: 50ff a43d 3bfd 373e 9863 3abe 4956 8a3e
000000c0: 7f25 693f 96dc a53e 8734 9f3e e0a6 bb3e
000000d0: d21e 783f e728 e23e 47cb 873e 0747 9e3e
000000e0: 7741 493f 8fe1 4f3f 259d 373f a323 033f
000000f0: 1908 8d3e 0a59 333f 7482 15bd f884 f93e
0.36962277 -0.32285783 0.15833388 0.32565847 0.5859121 0.6085765 0.6258684 0.4981432
0.27450916 0.28313586 0.42886138 0.23549438 0.755734 0.3828185 0.35683787 -0.19347103
0.24948128 -0.12777644 -0.32178277 0.4722071 0.434001 -0.15022393 0.27733564 0.046460487
0.07432481 -0.033919774 0.99628645 0.5442508 -0.5638952 0.10200581 0.18338516 0.35109228
-0.23061368 -0.2408832 -0.023611456 0.64652455 0.45401737 -0.04312499 -0.08745423 0.46865416
0.2133349 -0.2540796 0.05674286 0.6413064 0.080565095 0.17967694 -0.18202055 0.27018955
0.9107284 0.32394856 0.31094763 0.36650753 0.9692203 0.4417183 0.26522276 0.30913565
0.78615516 0.8120355 0.7172416 0.5122625 0.2754524 0.7005774 -0.036501363 0.4873426

fc2.weight f4 [64, 64]
00000000: e41e cd3d fc5e 6fbd f7de 1cbe 4647 e53d
00000010: 2e0b ae3d 9b16 87bc 58c0 5b3e 3a94 553e
00000020: df77 b7bd 982b 6d3e 0d47 47be 0ebd a03d
00000030: f862 543d eb0d 813d f186 01bd 4acb 8bbd
00000040: c2d8 ac3d 35e1 18be 7439 303e 3da2 873d
00000050: 7cca 81bd 32a5 ffbc 943b 553d d319 8ebd
00000060: 26ab f03d ff34 0cbe 8bcd efbd 7a39 133e
00000070: c0b6 bb3c ee85 4b3d 8e6b 83bd ecb2 353e
00000080: f865 ee3d 446e bc3e 8a7a 3a3e 0723 d5bd
00000090: d99b 913e 42d7 093e b1d6 d3bc 9636 b73d
000000a0: c48b 113d 4e18 3dbd 263f 7cbe 4d74 a2be
000000b0: 77db 4c3e 95f7 553e 7c67 363e fe73 913e
000000c0: 0364 2bbd 7196 04be f559 773c 150f 163e
000000d0: f2a4 6d3d 395a 00be 0384 81bc 960c aa3d
000000e0: c81d 8e3e 53e3 debd 6a17 4b3d 1033 69bd
000000f0: cceb fa3b 9cf4 7b3e 76c9 04bd e97c 893e
00000100: 6349 3b3c ee71 5b3d 1296 733d aeb3 9e3c
00000110: dc93 eebd 1dd7 cabd 3e88 5c3d ff76 9bbe
00000120: 682a 613e 3b60 36be 1f58 e0be a897 2fbc
00000130: 4439 0dbf a5e6 e23d 314a 7f3d c484 ef3d
00000140: ebc0 bf3d b635 a23d dd58 913d e688 c2be
00000150: 4f0b 0bbe 4d2c 043e 953e 4bbd 3847 263e
00000160: 818d 5ebe d497 de3c bfd7 aebe bd14 bb3d
00000170: 729e 003e 7e6f b63e ef9e 17bf 783b c23b
00000180: 25ce 663e f5ea 7a3e 0988 bebe 809b bcbe
00000190: 19f8 4dbe b90c 033e 4a1e 753d bada a7be
000001a0: 5942 7cbe bb28 e83b 57f1 cbbe 4b32 82be
000001b0: 86b6 893d 8885 4a3d 8585 3c3e 6085 57be
000001c0: f792 8a3d 7c38 b2bc e000 05be 5250 c0be
000001d0: 8603 a23d 83e3 22be b8a8 fc3d 80a0 20bd
000001e0: 9084 5bbe 0937 02be 297c 1fbf 2088 a5bd
000001f0: 8500 ab3d 090d b53b 0071 60be cd44 0b3d
00000200: 20c6 b03d 6dc8 4f3e b855 363e 013f 073e
00000210: 70fd af3e f9ac 85bb 4e73 2a3d 8fe0 973d
00000220: d537 623e a3a7 c03e a389 d63c 5a9c 723d
00000230: e737 063e a986 963d 8d0b cd3d 64de 203e
00000240: 5ef9 023e 6f7f e53d 6a76 78bd 75a0 5b3d
00000250: 0f64 013e d67f b43c 4326 513e e9ec 1b3e
00000260: e8e0 5fb8 ac95 e6bc 51b7 be3c 9fe2 483e
00000270: 6856 f3bd eec5 393e b74d 123e 1bf0 753d
00000280: f1c9 c5bc 6556 f0bb 8336 81bd e770 553e
00000290: e3dd 963e 72fa 8d3d 9547 103e a871 c43d
000002a0: f849 9a3e 7617 993d 3ef9 093d e122 403e
000002b0: 83f2 183e 75be 353e 4b71 633d e458 613e
000002c0: 57f6 a83d c499 013e a8ba 063e 77a8 843d
000002d0: 5768 193e 7371 383e 6a9a 633e 8b4a 123d
000002e0: 19f5 6c3e 78c9 453e 455e 233e 4c17 f8bc
000002f0: cb69 853e e649 273e b751 ca3c 3030 d33d
00000300: a8b8 a5bd 4e74 76bc 9ce7 8c3d b2c3 d7bd
00000310: d6c7 0fbe 04ce 5bbd 7fc9 0dbe 3b10 c3bd
00000320: 8825 8a3c 214b dc3c 5c8d fcbc be59 b9bc
00000330: 475d 0abd 5661 f9bd 6d64 373d 1442 9ebd
00000340: be7f 15be 706c 8bbc 047f de3d b02d 26bd
00000350: 4370 8e3d 906e 7bbc f877 90bd a01f 0fbc
00000360: 4802 07bd 9c71 19bd 3850 a2bc ab7b ccbd
00000370: 6239 0bbc 4655 293d 50d5 273d 388d 183d
00000380: f299 13bd 1033 153d 6275 a4bd 1182 86bd
00000390: 6c52 5e3d 2022 c7bd 034d c03d dab6 dd3c
000003a0: 2eec 6bbd 4a1d 733d 725c 5b3d a2fb 35bd
000003b0: ae33 953b 72c0 78bd dca6 03bd 7871 f1bc
000003c0: a4dc ad3d c0b5 f1bb e8a7 443d 969d bb3d
000003d0: eabd afbd 1a90 98bd 4f33 0e3d fa2a 4d3d
000003e0: 1649 493c c2c7 f5bd a894 90bd 9602 68bd
000003f0: 4fe8 cbbc 27ed fabd 1498 123b 619e d0bd
0.100156575 -0.058440194 -0.1531943 0.11195235 0.08498226 -0.016490271 0.21460092 0.20857325
-0.089584105 0.23161161 -0.19460697 0.07848559 0.051852196 0.06301483 -0.03162283 -0.06825884
0.08439781 -0.1492966 0.17209417 0.06622741 -0.06337449 -0.031206701 0.05205877 -0.06938519
0.11751394 -0.13692091 -0.11709126 0.14377394 0.02291429 0.049688272 -0.06416999 0.17744035
0.11640543 0.36802876 0.18210807 -0.104070716 0.28439215 0.1346102 -0.025859209 0.08945958
0.03553368 -0.046165757 -0.24633464 -0.31729355 0.20005594 0.20895226 0.17812914 0.28408808
-0.041843425 -0.12948014 0.015097131 0.14654191 0.058018632 -0.12534417 -0.015810018 0.08303182
0.27757096 -0.108832024 0.049582876 -0.056933463 0.0076575037 0.2460503 -0.03241869 0.2685311
0.011431071 0.05357545 0.05946929 0.019372787 -0.11649296 -0.09904311 0.05384087 -0.30364224
0.21988833 -0.17810147 -0.4381723 -0.01071731 -0.55165505 0.11079148 0.062326614 0.11695245
0.09362968 0.07920401 0.070970275 -0.3799507 -0.13578533 0.12907524 -0.04962023 0.16238105
-0.21733667 0.027172007 -0.34148976 0.09134815 0.12560442 0.35631937 -0.5922689 0.0059274994
0.22539575 0.24503691 -0.37213162 -0.36837387 -0.20114173 0.12797822 0.05984334 -0.32784063
-0.24634685 0.0070849336 -0.39832565 -0.25428995 0.06724267 0.04944375 0.18410309 -0.21046972
0.067663126 -0.02175545 -0.12988615 -0.3756128 0.07910828 -0.15907101 0.12336868 -0.039215565
-0.21437287 -0.12716307 -0.6229883 -0.080826044 0.083497085 0.0055252356 -0.21918106 0.03400116
0.08631539 0.202913 0.17806137 0.13207628 0.34373045 -0.004079458 0.04161387 0.07415878
0.2209161 0.37627897 0.026188677 0.05923114 0.13107263 0.07349903 0.10011969 0.15709835
0.12790439 0.11205947 -0.060659803 0.05361982 0.12635826 0.022033613 0.20424752 0.15227093
-5.3376803e-05 -0.028147541 0.023280771 0.19617699 -0.11881715 0.1814191 0.14287458 0.060043436
-0.024144145 -0.007334518 -0.063092254 0.2084385 0.2946616 0.06932534 0.14089806 0.09591991
0.3013456 0.07475178 0.03368496 0.18763305 0.14936261 0.17748435 0.055527966 0.22006565
0.082501106 0.12656313 0.13157141 0.064774446 0.14981209 0.18012027 0.22226873 0.03571562
0.23140372 0.19315135 0.1595393 -0.030284546 0.26057276 0.16336784 0.024697168 0.103119254
-0.08091861 -0.015042378 0.068801135 -0.10535373 -0.14041075 -0.05366327 -0.13846396 -0.0952458
0.0168636 0.026891293 -0.030829124 -0.0226258 -0.033780362 -0.121767685 0.044773508 -0.07727447
-0.14599511 -0.01701948 0.1086407 -0.040570915 0.06955006 -0.015346184 -0.07054132 -0.008735567
-0.03296116 -0.037461862 -0.019813642 -0.09984525 -0.008497568 0.04134109 0.040974915 0.03724405
-0.036035486 0.03642565 -0.080302015 -0.06567777 0.054277822 -0.09723306 0.09389689 0.02706473
-0.057598285 0.059354104 0.05355496 -0.04442943 0.00455328 -0.060730405 -0.03214155 -0.029473051
0.084893495 -0.0073764026 0.04801169 0.091609165 -0.08581145 -0.0744936 0.0347169 0.050089814
0.012285491 -0.120009914 -0.07059604 -0.05664309 -0.024891047 -0.122522645 0.0022368478 -0.101864584

fc2.bias f4 [64]
00000000: 210f ae3d 31b4 3cbe 469e 0a3f dfda 18be
00000010: fe72 bd3e 6a54 b5be f739 c9bd 5a58 babd
00000020: edb0 e23e 5ec6 f93e e850 533e 4994 85bd
00000030: 4cab dc3e 22ba 9f3e 644c bd3e 1c8e f1bd
00000040: 571f 783e 681a 133d 7a6f a63e bf2e 4bbd
00000050: 23b0 c73e 574f acbe 0421 6f3e e72b 92be
00000060: 630b a8bd 06cc ee3e 925d b23e 97d4 a03e
00000070: d89b 0b3d 4091 a73e 46bd edbd dade adbd
00000080: 1af4 f93e 876e a33e b9b3 13be 0df7 d13e
00000090: 9031 c33e 6feb b03e 4148 f13e 5af9 e03e
000000a0: 6b00 a73e 42de d33e c01a bc3e 9c03 ed3e
000000b0: 7a2d f03e f309 7fbe f641 963e 40c0 da3e
000000c0: 89b4 f63e e320 1dbc e9f2 9f3e b63e a4be
000000d0: 330d d03e e0fc 6f3d 42fd bd3d 6451 9e3e
000000e0: 684d c63e a1d1 a1be cffd e5bd e51d b8be
000000f0: 3535 92bd c74b bc3e 5c8c 83be 56b8 c33e
0.08498979 -0.18428113 0.54147756 -0.14927243 0.37001795 -0.35415965 -0.09825509 -0.09098883
0.4427561 0.48784155 0.20636332 -0.06522424 0.4309944 0.31196696 0.36972344 -0.11794683
0.24230705 0.035913855 0.32506925 -0.049605127 0.3900157 -0.33654281 0.23352438 -0.2854912
-0.08205297 0.46640033 0.34837013 0.31412193 0.03408417 0.32728004 -0.11608367 -0.08489771
0.48819047 0.31920263 -0.14424028 0.41008797 0.3812375 0.34554622 0.47125438 0.4394024
0.32617506 0.41380507 0.3673916 0.46291816 0.46909696 -0.24906139 0.293472 0.427248
0.48184612 -0.00959036 0.31240013 -0.32079095 0.4063507 0.05859077 0.09276821 0.3092147
0.3873093 -0.31605247 -0.11230051 -0.35960308 -0.07139055 0.36776564 -0.25693023 0.38226575

fc3.weight f4 [1, 64]
00000000: c5c6 f43e b31a c03e 9956 9bbd a7cc 63bd
00000010: 2351 0dbe 12ad 063f c8d9 5d3f 3e47 d03e
00000020: b7b2 d3bd 8290 b4bd 7d5f f43e c938 c43e
00000030: fa86 c5bd 4b9f 61be 9ca8 8ebd 7ef4 dc3d
00000040: b636 babd 42d4 e73e f23f 3cbe 9a80 f6be
00000050: b0fa 0dbe 9a99 bf3e 6c1b b43e acb6 db3e
00000060: 3422 ce3e eb0d 2dbe f8c1 45be 5d58 50be
00000070: 6b23 ea3e 4f19 1ebe 5817 963d 61b1 573e
00000080: a807 acbd 48c0 ebbd 81a1 ca3d c1e9 e8bd
00000090: b696 c6bd 4271 eebd 9f2e 06be 01ff 21be
000000a0: df3d fcbd bd07 d6bd f2a1 f3bd b861 32be
000000b0: dd51 88bd 45d0 d73e 84fe ac3e 9a47 bebd
000000c0: d022 14be 4e53 c73e 7f54 90bd 88cc 813e
000000d0: b565 1cbe 4fbe dd3e f07d 843c 0f0c 07bf
000000e0: 4331 d7bd 5508 ff3f dc1c a33e a515 a33e
000000f0: d4b0 d03e 003f 3ebe 94d9 b03f 982e c9bd
0.478079 0.3752037 -0.075848766 -0.055615094 -0.13800482 0.52607834 0.8666043 0.40679353
-0.103368215 -0.08816625 0.47729102 0.38324574 -0.09644885 -0.22033422 -0.069657534 0.10788821
-0.090924665 0.45279127 -0.18383768 -0.4814499 -0.13865161 0.37421876 0.3517717 0.42912805
0.4026047 -0.1689984 -0.19312274 -0.20346208 0.45730147 -0.15439342 0.07328671 0.21063758
-0.08399898 -0.11511284 0.09894086 -0.1137271 -0.096967146 -0.11642696 -0.13103722 -0.15819933
-0.123164885 -0.10450695 -0.11896123 -0.17420089 -0.06656239 0.42151085 0.3378793 -0.09291001
-0.14466405 0.38930744 -0.07047366 0.25351357 -0.15273173 0.43309256 0.016173333 -0.52752775
-0.10507443 1.9924418 0.31857955 0.3185245 0.4075991 -0.1857872 1.38164 -0.0982334
