SAC/sac/critic1_checkpoint_9.pth (torch, 23178 bytes, 5 tensors)

fc1.weight f4 [64, 13]
0	0xbe1d6dd6	-0.1537393
1	0x3f23149b	0.63703316
2	0x3d09aaee	0.033610277
3	0x3e5419ed	0.20713015
4	0xbe62db54	-0.2215398
5	0xbdd64f20	-0.10464311
6	0x3e1a8ff2	0.15093973
7	0xbe692733	-0.2276886
8	0x3eb1902d	0.3468031
9	0x3d37da1c	0.04488574
10	0x3e5cc83f	0.21560763
11	0x3ebd3158	0.3695171
12	0x3eb2503d	0.34826842
13	0x3e664408	0.2248689
14	0x3ea685d4	0.32523978
15	0x3dd3147d	0.10306642
16	0xbd507191	-0.050889555
17	0x3dd3b06f	0.103363864
18	0x3f08796d	0.5331028
19	0x3b823f24	0.003974812
20	0x3dee0f7b	0.116240464
21	0x3ee03a31	0.43794397
22	0x3db8793f	0.09007501
23	0x3d6285b3	0.055303287
24	0xbcf2244f	-0.029558329
25	0x3dffb630	0.124859214
26	0xbbd05ee2	-0.006358967
27	0x3ebdacc6	0.37045878
28	0xbe1ee7f0	-0.15518165
29	0x3e32996f	0.17441343
30	0x3dedcdb3	0.116115
31	0x3e6a31a1	0.22870494
32	0xbe50e78b	-0.20400827
33	0xbd8ba8b7	-0.06819289
34	0x3ebf3ac4	0.37349522
35	0x3d444969	0.047921572
36	0x3e11850f	0.14210914
37	0x3e2a2392	0.16615131
38	0x3df26600	0.11835861
39	0x3e55183d	0.20810027
40	0x3e304542	0.1721392
41	0x3d869cf7	0.065729074
42	0xbdcbd0ff	-0.09951972
43	0xbda4f8c3	-0.0805526
44	0x3e31d56c	0.1736657
45	0xbc9ace1b	-0.018897107
46	0xbe795e45	-0.24352367
47	0x3f10e0f9	0.5659328
48	0x3d14fde4	0.03637494
49	0x3c4065d6	0.01174303
50	0x3bdd097d	0.006745516
51	0xbc920d57	-0.017828627
52	0xbe70425a	-0.23462811
53	0x3d245b15	0.040125925
54	0xbd352687	-0.044226196
55	0xbcef9d4e	-0.029249813
56	0xbec82aee	-0.39095253
57	0xbe1521b9	-0.14563645
58	0x3da3e5b3	0.08002796
59	0x3e5208cd	0.2051117
60	0xbcf1040f	-0.02942088
61	0xbca12ed3	-0.019675648
62	0x3e82323e	0.25428957
63	0x3d0ee39b	0.03488503
64	0x3e06ca91	0.1316321
65	0xbe33e989	-0.17569555
66	0xbe6a122c	-0.22858495
67	0xbdbbaaa0	-0.091634035
68	0xbf86789e	-1.050556
69	0xbf6ce4e3	-0.92536753
70	0xbeeee308	-0.46657586
71	0x3e49949e	0.19685599
72	0x3ea6b70b	0.32561526
73	0xbe35d57d	-0.1775722
74	0xbdfa6261	-0.122257955
75	0xbc59e8ce	-0.013300134
76	0xbd9063d2	-0.07050289
77	0xbd958946	-0.073015735
78	0xbdcb8979	-0.0993833
79	0x3e1f6432	0.15565565
80	0xbe01f0b8	-0.12689483
81	0x3d1a9159	0.03773627
82	0xbaafbfee	-0.001340864
83	0x3ecedc42	0.40402418
84	0xbc0ced03	-0.00860143
85	0xbd0cbf1a	-0.034361936
86	0x3e782ceb	0.24235885
87	0xbce6a501	-0.028154852
88	0x3e94422f	0.28956744
89	0x3dbcc524	0.09217289
90	0x3e2842d2	0.1643174
91	0x3e3935a3	0.18086867
92	0xbe5485fb	-0.20754234
93	0x3cc10a85	0.023564586
94	0xbf577faa	-0.84179175
95	0x3e0a0f42	0.13482383
96	0xbe847959	-0.2587383
97	0x3e56d6a7	0.20980321
98	0xbd639857	-0.055565204
99	0xbd55412b	-0.052064102
100	0xbdad54b7	-0.08463424
101	0x3da58e1a	0.08083744
102	0xbd28f625	-0.041250367
103	0xbda1f3c6	-0.07907824
104	0xbd977142	-0.07394649
105	0x3e0de655	0.13857396
106	0xbb257d7f	-0.0025251803
107	0x3ddd0e2b	0.10793718
108	0xbea22139	-0.31665972
109	0xbddffa0c	-0.109363645
110	0x3e8cfe6b	0.27537856
111	0xbe469358	-0.19392145
112	0xbdfa6a0b	-0.12227257
113	0xbd7359b9	-0.059411738
114	0x3e935483	0.28775415
115	0xbdaacc4d	-0.083397485
116	0x3e1bc7f4	0.15212995
117	0xbc6db2c6	-0.014507955
118	0x3e0aed2a	0.13567033
119	0xbce1b4bf	-0.027552007
120	0xbe117d41	-0.14207937
121	0x3d161ed6	0.0366505
122	0x3ec73e94	0.3891493
123	0x3c977e5a	0.018492866
124	0xbca0586e	-0.019573417
125	0x3ecf7a59	0.4052303
126	0x3e119a98	0.14219129
127	0x3def52e4	0.11685732
128	0x3dbac600	0.09119797
129	0x3e196161	0.14978553
130	0xbd078a49	-0.033090863
131	0x3f1af11f	0.6052417
132	0x3d006ff4	0.031356767
133	0x3d80948d	0.06278334
134	0x3da464ff	0.08027076
135	0x3e40ffd9	0.18847598
136	0xbd722860	-0.059120536
137	0xbd7868a4	-0.060646668
138	0x3ea4e3e5	0.3220512
139	0xbc0c1684	-0.00855029
140	0x3ebb2aa1	0.3655596
141	0x3e2d7c8f	0.16942047
142	0x3e0a0e35	0.13481982
143	0x3e8ffd96	0.28123158
144	0xbaf960ad	-0.0019026004
145	0x3dbe1e4d	0.09283123
146	0xbe3c90fc	-0.18414682
147	0x3d9722ae	0.073796615
148	0x3e39c5d4	0.18141872
149	0x3e5971b2	0.21234778
150	0x3ce9299a	0.02846222
151	0x3eaaa664	0.3333007
152	0x3e249b84	0.1607495
153	0x3ece5553	0.40299472
154	0x3e56e11a	0.20984307
155	0x3e8a443b	0.2700518
156	0x3deff241	0.11716128
157	0xbe68b68f	-0.2272589
158	0xbc09b774	-0.008405555
159	0xbf01cc8c	-0.5070274
160	0x3c029d81	0.007972122
161	0x3df18fcc	0.11795005
162	0xbda4d314	-0.080480725
163	0xbd884b0b	-0.06654938
164	0xbd9ad661	-0.07560421
165	0xbd55c695	-0.052191336
166	0xbba88e28	-0.0051438995
167	0x3d3261fc	0.043550476
168	0xbd29b4a3	-0.041432034
169	0xbb33608c	-0.002737078
170	0x3f0e0fd2	0.5549289
171	0xbcdebaa1	-0.027188601
172	0xbe3d8046	-0.18505964
173	0x3dfad775	0.122481264
174	0x3ed0b889	0.4076579
175	0xbe34c735	-0.17654116
176	0x3d32e741	0.043677572
177	0x3dd0544c	0.10172328
178	0x3e3e561f	0.1858754
179	0x3ebd87a9	0.37017563
180	0x3ee726a0	0.45146656
181	0x3ed16f15	0.4090506
182	0xbe037be5	-0.12840231
183	0x3e50c5f9	0.2038802
184	0xbe5f84ac	-0.21827954
185	0xbe73f736	-0.23824772
186	0x3dea17f0	0.11430347
187	0x3f1a718c	0.6032951
188	0x3d5ade2d	0.05343454
189	0xbe3b6b1e	-0.1830258
190	0x3ee1708c	0.4403118
191	0x3e8c1747	0.2736151
192	0x3d9fbc1a	0.077995494
193	0x3d6be365	0.057589907
194	0x3ce616ea	0.028087098
195	0xbcf4396d	-0.029812539
196	0x3e189330	0.14899898
197	0xbc6a72b0	-0.01430957
198	0x3dd6e03d	0.10491989
199	0xbc054cb7	-0.008135966
200	0x3e89a6d8	0.26885104
201	0xbd39a112	-0.045319624
202	0xbd0dcd68	-0.03461972
203	0x3e87daf5	0.26534238
204	0x3da737ff	0.08164977
205	0x3e5ca803	0.21548466
206	0x3d2628c4	0.04056622
207	0x3e919410	0.28433275
208	0x3f0169cf	0.50552076
209	0x3cb33404	0.021875389
210	0xbc27e0ab	-0.010246436
211	0xbcb0c4d9	-0.02157824
212	0xbe90acaa	-0.28256732
213	0x3e37d5ee	0.17952701
214	0xbdfc9483	-0.12333014
215	0x3eb15c7b	0.3464087
216	0x3e82aaf6	0.25521058
217	0xbc0ad06e	-0.008472545
218	0x3d2ca77b	0.04215191
219	0x3c6a81e1	0.014313192
220	0x3d3de55f	0.046361323
221	0x3e1d1666	0.15340576
222	0xbd24d439	-0.040241454
223	0x3d754a22	0.05988515
224	0xbdda7e3c	-0.106686085
225	0x3cb20997	0.021733088
226	0x3e064f92	0.13116291
227	0xbda9c90a	-0.08290298
228	0xbe137cff	-0.14403151
229	0x3ed5ce32	0.41758877
230	0x3d89a7bf	0.06721448
231	0xbcfe15fc	-0.031016342
232	0x3dc28837	0.09498637
233	0xbda47638	-0.08030361
234	0xbd89684f	-0.067093484
235	0x3f1848a1	0.5948582
236	0x3b1cedc2	0.0023945426
237	0xbe11f501	-0.14253618
238	0x3da4bbea	0.08043654
239	0x3e4a6888	0.19766438
240	0x3dfaa0e1	0.122377165
241	0xbd3a7d09	-0.0455294
242	0x3e6eab64	0.23307568
243	0x3e0856ad	0.13314314
244	0x3e7b2cc3	0.24528794
245	0x3e1cb212	0.15302303
246	0x3e33e7a3	0.17568831
247	0x3c940550	0.01806894
248	0x3e85b5cb	0.2611526
249	0x3d73dbb6	0.059535705
250	0xbe41d3ee	-0.18928501
251	0x3e07c265	0.1325775
252	0x3eb804f6	0.35941285
253	0x3d2bedf2	0.04197497
254	0xbddaf99b	-0.1069214
255	0x3ebfbca5	0.37448612

fc1.bias f4 [64]
0	0x3c6f11b7	0.014591626
1	0xbf271fd8	-0.65282965
2	0xbd23d3ac	-0.039996788
3	0xbd5247e2	-0.051338084
4	0x3ee4fd10	0.4472432
5	0x3f1f878a	0.6231619
6	0x3ea5af20	0.32360172
7	0x3f10077f	0.5626144
8	0x3d98b793	0.07456889
9	0xbb1b330a	-0.0023681545
10	0xbdf0bc44	-0.11754659
11	0xbe1b2884	-0.15152174
12	0x3f4303eb	0.76177853
13	0xbd674d97	-0.05647048
14	0xbe271293	-0.16315679
15	0xbe212cbe	-0.15739724
16	0x3d26119e	0.040544145
17	0xbeb22e2c	-0.3480085
18	0xbf1271b6	-0.5720476
19	0x3def4f4a	0.11685045
20	0x3d5730c4	0.05253674
21	0x3e663a70	0.2248323
22	0x3e9fcaec	0.31209505
23	0xbcba0fd1	-0.02271262
24	0xbe020907	-0.12698756
25	0xbad85e8c	-0.0016507669
26	0x3f692ca6	0.91083753
27	0x3ee6195f	0.44941232
28	0xbf516d4d	-0.81807405
29	0xbe818c37	-0.25302288
30	0xbe121738	-0.1426667
31	0x3dec538c	0.11539373
32	0xbeeec297	-0.46632835
33	0xbed846f5	-0.42241636
34	0x3c6858ec	0.014181357
35	0x3f2dc42a	0.6787745
36	0x3e972615	0.29521242
37	0xbebacfe2	-0.36486727
38	0xbd460543	-0.04834486
39	0x3e8c74d2	0.27432877
40	0xbe44e6ca	-0.19228664
41	0xbeee9f03	-0.4660569
42	0x3e16a5e0	0.14711714
43	0x3ef01432	0.46890408
44	0xbeb22542	-0.3479405
45	0xbe259ae8	-0.16172373
46	0xbeb87ea5	-0.36034122
47	0x3c9d05de	0.019167837
48	0x3eca5954	0.39521277
49	0xbe214904	-0.1575051
50	0x3d656d72	0.05601258
51	0xbe8a0515	-0.26957002
52	0x3f67e64f	0.905858
53	0x3f096576	0.5367044
54	0xbe2899ba	-0.16464892
55	0xbdbc1659	-0.0918395
56	0x3f3b342b	0.73126477
57	0x3efe24c9	0.4963744
58	0x3f301ea4	0.68796754
59	0x3ec73640	0.38908577
60	0xbde2e0d4	-0.11078039
61	0x3e61c83a	0.22049037
62	0xbe835826	-0.2565319
63	0x3e4d8413	0.20069914

fc2.weight f4 [64, 64]
0	0x3d7b4e43	0.061353933
1	0xbac53bf0	-0.001504777
2	0xbdffe8f7	-0.124956064
3	0xba6eec10	-0.00091141555
4	0x3da7bb55	0.081900276
5	0xbd2f3cb4	-0.0427825
6	0x3e5bc479	0.21461667
7	0x3e4a9fa1	0.19787456
8	0xbe105fa3	-0.14098983
9	0x3e9d4c5a	0.30722314
10	0xbe3e27b4	-0.18569833
11	0x3da904db	0.08252879
12	0x3d7e2f3e	0.062056772
13	0x3d2867be	0.04111456
14	0xbd2b360d	-0.041799594
15	0xbd749325	-0.05971064
16	0x3db8bc5d	0.090203024
17	0xbe211a01	-0.15732576
18	0x3e16a5f7	0.14711748
19	0x3e0a840d	0.13526936
20	0xbd9ecb82	-0.0775366
21	0xbd0067b5	-0.031348903
22	0xbd0e188b	-0.034691375
23	0xbc9e3787	-0.019313587
24	0x3de5ab2c	0.11214289
25	0xbe0039fd	-0.12522121
26	0xbc9268c3	-0.01787222
27	0x3e193a43	0.14963631
28	0xbcbda5d2	-0.023150358
29	0x3d2730e8	0.040818125
30	0xbdb26b92	-0.08711924
31	0x3e126520	0.14296389
32	0x3df71686	0.12064843
33	0x3ead6522	0.3386622
34	0x3e2a5d50	0.16637158
35	0xbd6fe842	-0.058571108
36	0x3e820631	0.2539535
37	0x3d7015b0	0.058614433
38	0xbb7c6685	-0.0038513255
39	0x3d24b1ac	0.040208504
40	0x3d8c9de4	0.06866053
41	0xbbccb481	-0.0062471037
42	0xbe560996	-0.20902094
43	0xbe5df86d	-0.21676798
44	0x3e6ab8ad	0.2292201
45	0x3e595b98	0.21226346
46	0x3e39434a	0.18092075
47	0x3e874616	0.2642066
48	0xbdad928b	-0.084752165
49	0xbe0e06eb	-0.13869826
50	0x3ae266bc	0.0017273049
51	0x3cded44d	0.027200842
52	0x3d55e12e	0.0522167
53	0xbdefefa4	-0.1171563
54	0x3c0d1cb0	0.008612797
55	0x3d8e6848	0.06953484
56	0x3e7ffe4e	0.24999353
57	0xbdbbe090	-0.09173691
58	0x3dcb6a47	0.0993238
59	0xbd9ea617	-0.07746523
60	0x3ce51962	0.027966205
61	0x3e601a0b	0.21884935
62	0xbd4fad40	-0.050702333
63	0x3e666a42	0.22501472
64	0xbb1dd23a	-0.0024081604
65	0xbb1728ed	-0.0023065165
66	0x3b670c44	0.0035255114
67	0xbd4f5ac2	-0.050623663
68	0xbe0615bc	-0.13094229
69	0xbde7930c	-0.11307344
70	0xbc56bb1c	-0.013106134
71	0xbe889fb2	-0.26684338
72	0x3e612a68	0.21988833
73	0xbe82e78e	-0.25567287
74	0xbeb67219	-0.35633925
75	0xbdc22545	-0.09479765
76	0xbf1321bb	-0.57473344
77	0x3d017421	0.03160489
78	0xbd112219	-0.03543291
79	0x3d2bcb42	0.04194189
80	0x3dab5c62	0.0836723
81	0xba8a976f	-0.0010573695
82	0xbc52c984	-0.012865428
83	0xbef70a8e	-0.4825024
84	0xbe1174ea	-0.14204755
85	0x3d57849d	0.052616704
86	0xbdfff282	-0.124974266
87	0x3dc6348a	0.0967799
88	0xbe825459	-0.25454977
89	0xbd576f8a	-0.052596606
90	0xbebf9494	-0.37418044
91	0x3dbec70f	0.09315311
92	0x3d83ee5f	0.0644195
93	0x3e98930f	0.29799697
94	0xbf1eae34	-0.6198456
95	0xbd806585	-0.06269363
96	0x3e1bb2d5	0.15204938
97	0x3e2caff5	0.16863997
98	0xbeda43c2	-0.4262982
99	0xbed0a65a	-0.40751916
100	0xbe803015	-0.25036684
101	0x3e030cb9	0.12797822
102	0x3d0eeec8	0.03489569
103	0xbe9cd759	-0.30633047
104	0xbe97f254	-0.2967707
105	0xbd72d4b3	-0.059284877
106	0xbed9d0d9	-0.4254215
107	0xbe827232	-0.2547775
108	0xbcd1f5a9	-0.025629835
109	0xbcaa9f92	-0.020828042
110	0x3e591ef6	0.21203217
111	0xbe78f099	-0.2431053
112	0x3d97a772	0.074049845
113	0xbdb24556	-0.08704631
114	0xbe3aedde	-0.18254802
115	0xbf05ab2c	-0.5221431
116	0x3da20386	0.07910828
117	0xbe22e383	-0.15907101
118	0x3d4d6748	0.050147325
119	0xbd99f96a	-0.07518275
120	0xbe95f732	-0.29290158
121	0xbe04f52c	-0.1298415
122	0xbf2da1a9	-0.678248
123	0xbe28830a	-0.16456237
124	0x3c772c9e	0.015086321
125	0xbd61e1f5	-0.05514713
126	0xbd9da748	-0.07697922
127	0xbd03560c	-0.032064483
128	0x3e012616	0.12612185
129	0x3e195a0e	0.1497576
130	0x3e21da3b	0.15805905
131	0x3e02a856	0.12759528
132	0x3ea1925e	0.31556982
133	0x3c7f1073	0.015567887
134	0x3cf566d3	0.029956257
135	0x3d734d4b	0.059399884
136	0x3e541bd7	0.20713745
137	0x3e9a77f2	0.30169636
138	0x3d92816d	0.07153592
139	0x3d24c1dc	0.04022394
140	0x3deca870	0.115555644
141	0x3da3404d	0.07971249
142	0x3dc9b176	0.09848301
143	0x3e235dd5	0.15953763
144	0x3de8150d	0.1133214
145	0x3da02b68	0.07820779
146	0xbd95380a	-0.07286079
147	0x3d52246b	0.051304262
148	0x3e00729e	0.12543723
149	0x3b12c3f1	0.0022394622
150	0x3e60e746	0.21963224
151	0x3dc4b521	0.0960486
152	0x3bd38035	0.0064544925
153	0xbd26463d	-0.04059433
154	0xbcf36739	-0.029712306
155	0x3e313bc2	0.17307952
156	0xbdb11d82	-0.08648206
157	0x3e3953cb	0.1809837
158	0x3e03fed9	0.12890185
159	0x3d9ac546	0.07557158
160	0xbcea2caa	-0.02858575
161	0xbc0b2345	-0.008492296
162	0xbc35a164	-0.011085842
163	0x3e35a8f4	0.17740232
164	0x3e8ab99e	0.2709474
165	0x3d8c799d	0.068591334
166	0x3df7f2e2	0.12106873
167	0x3e089f3d	0.13341995
168	0x3e8dae0c	0.2767185
169	0x3dc7df71	0.09759415
170	0x3d62471a	0.05524359
171	0x3dfbf080	0.12301731
172	0x3de3f0dd	0.111299254
173	0x3e1d3f5a	0.15356198
174	0x3d0ba1c2	0.03408981
175	0x3e6c2181	0.23059656
176	0x3db2f8cc	0.087388605
177	0x3e01aded	0.12664004
178	0x3e06dccb	0.13170163
179	0x3e27fc49	0.16404833
180	0x3e2584c2	0.16163924
181	0x3e2cd434	0.16877824
182	0x3e35cdc7	0.17754279
183	0x3c70b5b9	0.014691764
184	0x3e7f5532	0.24934843
185	0x3e40f62f	0.18843912
186	0x3e0b089f	0.13577507
187	0xbcb658dc	-0.022259168
188	0x3e5e4b1b	0.21708338
189	0x3e08cb41	0.13358785
190	0x3c871fde	0.016494688
191	0x3e116907	0.14200221
192	0xbda5b8a8	-0.08091861
193	0xbc76744e	-0.015042378
194	0x3d8ce79c	0.068801135
195	0xbdd7c3b2	-0.10535373
196	0xbe0fc7d6	-0.14041075
197	0xbd5bce04	-0.05366327
198	0xbe0dc97f	-0.13846396
199	0xbdc3103b	-0.0952458
200	0x3c8a2588	0.0168636
201	0x3cdc4b21	0.026891293
202	0xbcfc8d5c	-0.030829124
203	0xbcb959be	-0.0226258
204	0xbd0a5d47	-0.033780362
205	0xbdf96156	-0.121767685
206	0x3d37646d	0.044773508
207	0xbd9e4214	-0.07727447
208	0xbe157fbe	-0.14599511
209	0xbc8b6c70	-0.01701948
210	0x3dde7f04	0.1086407
211	0xbd262db0	-0.040570915
212	0x3d8e7043	0.06955006
213	0xbc7b6e90	-0.015346184
214	0xbd9077f8	-0.07054132
215	0xbc0f1fa0	-0.008735567
216	0xbd070248	-0.03296116
217	0xbd19719c	-0.037461862
218	0xbca25038	-0.019813642
219	0xbdcc7bab	-0.09984525
220	0xbc0b3962	-0.008497568
221	0x3d295546	0.04134109
222	0x3d27d550	0.040974915
223	0x3d188d38	0.03724405
224	0xbd1399f2	-0.036035486
225	0x3d153310	0.03642565
226	0xbda47562	-0.080302015
227	0xbd868211	-0.06567777
228	0x3d5e526c	0.054277822
229	0xbdc72220	-0.09723306
230	0x3dc04d03	0.09389689
231	0x3cddb6da	0.02706473
232	0xbd6bec2e	-0.057598285
233	0x3d731d4a	0.059354104
234	0x3d5b5c72	0.05355496
235	0xbd35fba2	-0.04442943
236	0x3b9533ae	0.00455328
237	0xbd78c072	-0.060730405
238	0xbd03a6dc	-0.03214155
239	0xbcf17178	-0.029473051
240	0x3daddca4	0.084893495
241	0xbbf1b5c0	-0.0073764026
242	0x3d44a7e8	0.04801169
243	0x3dbb9d96	0.091609165
244	0xbdafbdea	-0.08581145
245	0xbd98901a	-0.0744936
246	0x3d0e334f	0.0347169
247	0x3d4d2afa	0.050089814
248	0x3c494916	0.012285491
249	0xbdf5c7c2	-0.120009914
250	0xbd9094a8	-0.07059604
251	0xbd680296	-0.05664309
252	0xbccbe84f	-0.024891047
253	0xbdfaed27	-0.122522645
254	0x3b129814	0.0022368478
255	0xbdd09e61	-0.101864584

fc2.bias f4 [64]
0	0x3d7e711e	0.062119596
1	0xbe80508a	-0.25061446
2	0x3f0c7892	0.54871476
3	0xbe18dadf	-0.14927243
4	0x3ec596f1	0.38591722
5	0xbeca63a1	-0.39529136
6	0xbe0d1c5a	-0.13780347
7	0xbdf3562f	-0.118816726
8	0x3ee8629c	0.45387733
9	0x3efcf3d8	0.49404788
10	0x3e41315f	0.1886649
11	0xbdb78bdd	-0.08962224
12	0x3ee19e5a	0.44066125
13	0x3ea9bffb	0.33154282
14	0x3ebbb065	0.36658016
15	0xbdf18e1c	-0.11794683
16	0x3e3c7508	0.18404019
17	0x3d469f0e	0.04849153
18	0x3eb0dbe7	0.34542772
19	0x3b090a08	0.002091052
20	0x3ecff616	0.40617436
21	0xbea2fdce	-0.31834263
22	0x3e4f1d50	0.20226026
23	0xbea2dae6	-0.3180763
24	0xbdeadc67	-0.1146782
25	0x3ef8642f	0.48513934
26	0x3ebc3915	0.367623
27	0x3eab1ce9	0.33420494
28	0x3bd6224b	0.0065348498
29	0x3eb0d059	0.34533957
30	0xbdf8b0bb	-0.12143084
31	0xbdb9c678	-0.09071058
32	0x3efef7ab	0.4979833
33	0x3eaaa7b4	0.33331072
34	0xbe0e08fa	-0.13870612
35	0x3ed8f80d	0.42376748
36	0x3ec7fde3	0.39060888
37	0x3eb83619	0.35978773
38	0x3ef973e8	0.48721242
39	0x3ee9149a	0.4552353
40	0x3ea8f361	0.32998183
41	0x3ed3db8a	0.41378433
42	0x3ec3e2fd	0.38259116
43	0x3ef54e6d	0.47911397
44	0x3eefe56a	0.46854717
45	0xbe975b37	-0.2956178
46	0x3e89ad11	0.26889852
47	0x3ee085f6	0.43852204
48	0x3eff866d	0.49907246
49	0xbd0e4960	-0.034737945
50	0x3ea2ac5a	0.3177212
51	0xbe99bd2f	-0.30027148
52	0x3ed92851	0.4241357
53	0x3cf82c49	0.030294554
54	0x3da7af9d	0.081877925
55	0x3e64ae5e	0.22332141
56	0x3ecbeb72	0.39828068
57	0xbea50d61	-0.3223677
58	0xbe387c69	-0.18016209
59	0xbea5d03b	-0.3238543
60	0xbdab43dd	-0.08362553
61	0x3ec4ed7a	0.3846243
62	0xbe838c5c	-0.25693023
63	0x3eca01d9	0.39454535

fc3.weight f4 [1, 64]
0	0x3eb78482	0.35843283
1	0x3e85c1d2	0.26124436
2	0xbd34036b	-0.043948572
3	0xbd63cca7	-0.055615094
4	0xbda79b59	-0.08183927
5	0x3ef5704b	0.47937235
6	0x3f233666	0.6375488
7	0x3ebbbe2a	0.3666852
8	0xbd93d568	-0.072184384
9	0xbd26278a	-0.04056505
10	0x3ee80c4d	0.45321885
11	0x3ebc22b5	0.3674523
12	0xbd3ef6d9	-0.04662213
13	0xbe43f4cf	-0.19136356
14	0xbca37e6f	-0.01995775
15	0x3ddcf47e	0.10788821
16	0xbda4b7ab	-0.080428444
17	0x3e9a6c38	0.3016069
18	0xbe15199c	-0.1456055
19	0xbefbde7d	-0.49193183
20	0xbdb827fa	-0.08992
21	0x3e88a105	0.26685348
22	0x3e992a3d	0.29915038
23	0x3e87cb04	0.26522076
24	0x3ebfd0c3	0.3746396
25	0xbe05bd97	-0.13060604
26	0xbe1c87a4	-0.15286118
27	0xbe3102c3	-0.1728621
28	0x3ed959b6	0.42451257
29	0xbdf2fcef	-0.118646495
30	0x3d86ed1c	0.06588194
31	0x3e04eab3	0.12980156
32	0xbd5a478c	-0.05329089
33	0xbd8ece1f	-0.06972908
34	0x3e01fedc	0.12694877
35	0xbd9295f8	-0.071575105
36	0xbd8667c0	-0.065627575
37	0xbd9bffc3	-0.07617142
38	0xbdbdb172	-0.09262361
39	0xbe02052c	-0.12697285
40	0xbdbcdba0	-0.09221578
41	0xbc9e8190	-0.01934889
42	0xbda3ba63	-0.07994535
43	0xbe082140	-0.13293934
44	0xbcb890e3	-0.022530025
45	0x3e9baffe	0.3040771
46	0x3e9b1e24	0.30296433
47	0xbd5bbb2b	-0.053645294
48	0xbde35060	-0.11099315
49	0x3ebafaee	0.3651957
50	0xbc8f0204	-0.017457016
51	0x3e3447a3	0.17605452
52	0xbdf48576	-0.11939518
53	0x3ec995bf	0.3937206
54	0x3bab6e93	0.0052316873
55	0xbeab1071	-0.3341098
56	0xbd913242	-0.07089664
57	0x3ffe7efd	1.9882504
58	0x3e635550	0.22200513
59	0x3e62fb65	0.22166212
60	0x3ec3f70c	0.3827442
61	0xbe1e6c9c	-0.15471119
62	0x3fb0d994	1.38164
63	0xbd83e1a9	-0.06439526
