SAC/sac/critic2_checkpoint_9.pth (torch, 23178 bytes, 5 tensors)

fc1.weight f4 [64, 13]
000000 f6 23 66 3e a1 0c cd be 88 49 33 be cc b9 56 bd
       0.22474656 -0.40048698 -0.17508519 -0.052423283
000010 1e 97 9a bc 98 f2 be 3e 95 03 46 bd 6a 8d 61 be
       -0.018870886 0.3729446 -0.04834326 -0.22026601
000020 0c da b4 3e fd db ea 3e 26 14 e1 3e 45 44 d1 3e
       0.35322607 0.45870963 0.43960685 0.40872398
000030 c5 21 8f 3e a4 55 0c bb 09 37 87 3e 61 ff a3 3d
       0.27955452 -0.002141335 0.26409176 0.08007694
000040 49 62 29 bf fd 78 0a bf bd a6 17 be 77 e4 7f 3e
       -0.66165596 -0.54090863 -0.148097 0.24989496
000050 13 d1 0b 3e 3e 6b 5b 3c 18 7d d8 bd 89 b2 74 be
       0.13653974 0.013392268 -0.10570735 -0.23896231
000060 af 97 c0 3d a4 f9 de bd 03 c5 f1 3b 53 a6 55 be
       0.09403931 -0.10887459 0.007378222 -0.20864229
000070 ff fa fb bc 0a 79 b7 bc 4b d5 00 be d4 b3 8f 3e
       -0.030759333 -0.022396583 -0.12581365 0.28066885
000080 a7 06 89 3e 22 92 63 bd 78 eb ed 3d 3d 72 20 3d
       0.26762888 -0.055559285 0.11617178 0.039171446
000090 b2 18 8e 3c 4f 9b 56 3d 00 e1 9c 3d a1 9a 57 3e
       0.01734576 0.052394208 0.07660103 0.2105508
0000a0 84 b8 69 3e c6 f6 1a 3d 81 f4 6e bd 01 f7 93 3d
       0.22824293 0.037832998 -0.058338646 0.07224847
0000b0 ff 2a 3b 3f 88 4b 02 bd 25 ad 12 3e 3d a3 57 3d
       0.7311248 -0.031810313 0.14323862 0.05264591
0000c0 2e 97 0f 3e 1b 22 97 3e ac a7 47 bc 43 8a bf 3e
       0.14022514 0.29518208 -0.012185972 0.37410173
0000d0 57 c1 0b bd a1 3a bc be d6 ce 40 bd db 94 47 3c
       -0.03411993 -0.3676348 -0.047072254 0.012181486
0000e0 0d fd 68 3d 2e fe 35 be c7 1e ea bc 74 f3 b5 3c
       0.056881953 -0.17772743 -0.028579129 0.022210814
0000f0 b8 87 c9 bd cb 64 64 3d 32 c1 8a 3d 0b 00 fe bd
       -0.098403394 0.055760186 0.0677513 -0.12402352
000100 ca 6b 24 bc 8d 0a a5 3d 41 6f 6c be 8a 7b 2b 3e
       -0.010035465 0.08058653 -0.23089315 0.16746345
000110 7d f0 1e be e7 2d 0a 3e 8d ae 65 be 06 e0 58 3e
       -0.15521426 0.13494073 -0.22429867 0.21179208
000120 52 bb 81 3d 4c 49 cd be 8a 16 9c bc 27 80 5b be
       0.06334557 -0.40094984 -0.019053716 -0.21435605
000130 ac f7 35 bd 1f 2a 3a be ed 79 cb bd f1 24 78 3e
       -0.04442565 -0.1818013 -0.09935365 0.24232842
000140 34 0d be bd d2 49 88 3d 3b 3c 5b 3d 29 58 d8 3d
       -0.09279862 0.06654705 0.053524237 0.1056369
000150 30 be 0c 3e 61 b6 b5 bd c5 7c 9e 3e cb cb 9c 3c
       0.13744426 -0.08872677 0.30954567 0.019140145
000160 b4 55 7b 3d ad 9a f2 3d b2 1f d0 3d 78 77 eb bd
       0.06136103 0.11845908 0.101622954 -0.11497396
000170 22 b9 46 bf 04 f0 48 be d1 52 4f bf 28 c7 32 bd
       -0.7762624 -0.19622809 -0.8098574 -0.04364696
000180 5a 75 ad 3d a7 7a 51 3f 54 06 8d 3c db 59 21 bd
       0.08469649 0.8182778 0.017214932 -0.039392333
000190 11 3f 36 be cb 3f 30 3e bc bb a3 3e 75 66 82 3e
       -0.17797495 0.17211835 0.31979167 0.25468794
0001a0 2a 0d 36 bd 2a 68 2c 3d f0 5b 64 ba bc 04 43 3c
       -0.044446148 0.042091526 -0.00087112095 0.011902984
0001b0 69 19 91 bd 5e e5 17 3e 1c 19 89 be 20 44 b2 3d
       -0.07084925 0.1483359 -0.2677697 0.087044
0001c0 68 53 30 3d 7a 85 14 bd ab 06 24 3e 60 cd c1 3e
       0.043048292 -0.036260106 0.16018169 0.37852
0001d0 a4 aa 76 3e 4e 5e 18 be f6 ad 39 be b3 14 31 bc
       0.24088532 -0.14879724 -0.18132767 -0.010808158
0001e0 6e 28 45 3e 48 80 8e be e3 ed ca bd 66 fd cb 3c
       0.19253704 -0.27832246 -0.099086545 0.024901103
0001f0 48 6b fb bb 40 84 a9 be a1 c1 f5 bd 6c 8d 0c bd
       -0.007672701 -0.3310871 -0.119998224 -0.034314558
000200 32 d7 56 bd a4 0c 43 bd f3 1b 87 3d 36 a6 4b 3e
       -0.05245132 -0.047619477 0.06597128 0.19887623
000210 c9 32 c5 3d 9b 04 c1 3d 7b 05 65 be 01 74 a2 3d
       0.09628827 0.094247065 -0.22365372 0.07932282
000220 41 d9 11 3e e2 76 1b 3e 96 15 c0 3e 37 39 3a 3c
       0.14243032 0.15182069 0.3751647 0.01136618
000230 16 ae 9c 3e c0 a4 e0 3e 89 05 a3 3e d3 d4 7e bd
       0.30601567 0.43875694 0.3184016 -0.062214684
000240 1b e3 c7 3e 60 bf 2d 3c f1 a7 39 bf f6 c6 9a bd
       0.39040455 0.010604709 -0.72521883 -0.0755748
000250 a0 2b 7f be 17 23 73 3d 34 d3 d0 bd 18 89 c8 3d
       -0.24918985 0.059359636 -0.10196534 0.097917736
000260 41 32 71 3d 11 b0 81 3e 78 a6 85 3e 15 35 83 3e
       0.058885816 0.2532964 0.26103568 0.25626436
000270 59 8f 87 3d 96 56 64 be c4 16 d6 bd 02 97 ba be
       0.06619138 -0.22298655 -0.10453561 -0.36443335
000280 be 56 14 3d 62 e3 0d 3e 13 10 44 bd 04 f0 c8 3d
       0.036215536 0.13856271 -0.047866892 0.09811404
000290 4f 86 6f be 84 16 2e 3d d8 e1 bb bc f4 86 64 3e
       -0.23391078 0.04250194 -0.02293484 0.22317106
0002a0 34 d2 bb 3d 35 b6 84 3e c2 f5 5a bd df 2e b8 3d
       0.091709524 0.25920263 -0.05345703 0.08993315
0002b0 00 08 9e be 17 bf b8 3d a2 ad 0a 3f b9 e8 09 3e
       -0.3086548 0.090208225 0.5417119 0.13467683
0002c0 fa 90 af bd 18 5c d4 3e 88 28 30 3e 33 d5 81 3c
       -0.08572574 0.41476512 0.17202961 0.015848732
0002d0 b3 a6 27 3e 1d 9d 8c bc c2 af 94 3d b5 23 ec 3d
       0.16372184 -0.017164761 0.07260086 0.11530248
0002e0 1a 7c 30 3d b9 16 2b bd 70 61 52 3d e8 c5 eb 3d
       0.043087102 -0.041769717 0.051362455 0.11512357
0002f0 84 f2 8e bd d6 5e a6 bd 64 00 c3 3e 05 6a 0f 3e
       -0.0697985 -0.08123557 0.38086236 0.14005287
000300 07 61 9e 3e ca 0c 63 3e fb 2c e0 3e 7c d0 ff bd
       0.309334 0.22172847 0.43784317 -0.12490937
000310 ac 32 46 3f 51 1f 23 be 45 1d 0d 3e b9 16 8c 3d
       0.7742107 -0.15929915 0.13780697 0.068402715
000320 f5 67 15 3e b5 62 b3 be 8d 11 c7 bd bc 63 c0 3e
       0.14590438 -0.35036245 -0.097201444 0.3757609
000330 0f 9a 1a be 3e 8f ad 3a 6d fe 50 bd 9d 4f 85 bd
       -0.15097831 0.0013241542 -0.05102389 -0.06509326
000340 3d 6f 07 bd 89 9b e4 3e 91 fc 29 3d 8a 9d cd bd
       -0.03306507 0.44649914 0.04150063 -0.10039814
000350 67 e7 96 3d 5f 1c c7 3e 2a d0 d1 3c c3 92 d7 3d
       0.07368355 0.38888833 0.025611956 0.105260395
000360 64 d4 c0 3d 73 f0 3e 3d d0 b6 2d 3e a4 e5 5e 3d
       0.0941551 0.04661603 0.16964269 0.05441822
000370 be 0e af 3e 86 a0 8f bd c6 99 7b 3e 20 9f a6 bd
       0.34190935 -0.07013039 0.24570379 -0.081358194
000380 16 04 15 bd c8 e7 03 3e 6e 46 76 3e 85 b0 9a 3d
       -0.03638085 0.12881386 0.24050304 0.075532
000390 0b 10 46 bd ae 93 22 be 01 5b a3 bd ba ad b5 3d
       -0.048355144 -0.15876648 -0.07976342 0.08871026
0003a0 da 8a 97 3e d5 e5 95 3e c0 dc 05 bd f5 ef ba 3e
       0.29598123 0.2927691 -0.032681227 0.36511198
0003b0 7d 12 e0 bd c8 45 fb 3d f9 90 85 3d 0e 2c df 3e
       -0.10941026 0.12269169 0.06521792 0.435883
0003c0 e4 95 bd 3d f1 8e 8b 3e b4 9b 15 3e 4e 72 91 bc
       0.09257105 0.27257493 0.14610177 -0.0177547
0003d0 05 26 91 3e 11 e0 54 3d 62 2b be 3e 78 f6 3b bb
       0.2834932 0.0519715 0.37142473 -0.0028680842
0003e0 73 c2 2c 3e d5 b0 05 3e 9d ef a9 bd 84 bc 5c 3d
       0.16871051 0.13055737 -0.08297656 0.05389072
0003f0 bf d0 16 3f 31 8d d7 3c 67 3a 9c bd ba 19 ee 3e
       0.5891227 0.026312442 -0.07628327 0.46504003

fc1.bias f4 [64]
000000 92 79 d1 be c4 81 42 3f 3b af 68 be d5 3c db be
       -0.40913063 0.75979257 -0.22723095 -0.4281985
000010 5f d0 20 be 59 84 9a 3e 52 af b9 be e5 c1 bf 3e
       -0.15704487 0.30179098 -0.3626657 0.37452617
000020 b5 f9 63 be 26 4c 40 3e 4e 53 43 3e d1 ef 8a 3e
       -0.22263224 0.18779048 0.19074747 0.2713609
000030 6c e2 8e 3e c0 a6 ee be bb ed bc ba 35 43 d7 be
       0.2790712 -0.46611595 -0.0014414111 -0.42043462
000040 63 68 c8 be d3 5d b3 3e f1 52 62 bf c9 31 a4 3e
       -0.3914214 0.3503252 -0.8840781 0.32069233
000050 66 c0 41 3f 40 64 5e 3e 5d 00 a6 3e 42 01 42 3e
       0.756842 0.2171793 0.32422152 0.18945792
000060 6f 20 e3 3c e9 1f 2d 3e 98 23 ba be 93 2a 3f be
       0.027725426 0.16906704 -0.3635528 -0.18668585
000070 c2 d8 a9 be 4d da 51 3d be 72 d2 be 9d da 11 be
       -0.33173186 0.05123358 -0.41103166 -0.1424355
000080 1a e5 ca 3e d0 18 1a bd 7e e0 33 bd 72 b3 08 3e
       0.39627916 -0.03762132 -0.043915264 0.13349703
000090 67 1b 1e 3e 7d 33 ab 3e b7 e8 0a 3e e1 95 0d 3f
       0.1544014 0.3343772 0.13565336 0.5530682
0000a0 28 34 1d 3f 92 79 0d be 72 3d e3 bc 6c d8 9b 3d
       0.6140771 -0.13815907 -0.02773926 0.076096386
0000b0 e5 bc b7 3e 39 c3 15 3f 9c 49 0a bf da d5 17 bf
       0.35886303 0.5850101 -0.5401857 -0.59310687
0000c0 3d 06 83 3f 83 de ae 3e 33 6b 52 3f 23 0c 02 3f
       1.0236279 0.34154138 0.82194823 0.5079977
0000d0 58 5b 30 3f 3b ac 40 be 9e 66 a8 3e 72 2d 20 bf
       0.6888938 -0.188157 0.3289079 -0.62569344
0000e0 ec 67 88 3e 19 45 a3 be 97 1e 95 bd 35 c2 6f be
       0.26641786 -0.31888655 -0.07281225 -0.23413928
0000f0 ec 53 27 bd 39 78 3f bf e2 60 19 3f 5d ff 3e 3d
       -0.04085152 -0.7479282 0.59913456 0.046630252

fc2.weight f4 [64, 64]
000000 44 80 9b 3b a5 c1 10 3e ad a3 f1 3d a1 08 df 3d
       0.004745515 0.1413637 0.11798797 0.10890318
000010 95 d4 58 3d 8f 47 d5 bc 95 35 0f 3e 7e 87 f5 3d
       0.05293711 -0.026035098 0.13985284 0.11988734
000020 f3 93 1e 3e f7 ce 90 3c fc 68 3c 3c b0 b4 6c bc
       0.15486126 0.017676814 0.01149964 -0.014447376
000030 8b 95 00 3d 0a 39 0f 3e ac 38 dc 3d cd 8b e0 3d
       0.031392615 0.13986602 0.10752997 0.10964165
000040 af cc 05 be b5 19 1d 3e 2b 25 19 be b3 39 bc 3d
       -0.13066362 0.15341838 -0.14955585 0.09190693
000050 fd 9b 8a 3e 0d e1 2a be 91 ca 46 3e 6b 14 f0 3d
       0.27072135 -0.16687413 0.1941321 0.117226444
000060 41 d2 47 3e d9 65 9a 3d a5 4a f0 3d 2c 51 a4 3d
       0.19513799 0.07538957 0.11732987 0.08023295
000070 2d e7 83 bc 6a 19 78 3d e9 72 0b 3e 72 d0 2c bc
       -0.016101444 0.06057111 0.13618053 -0.010547744
000080 49 91 e6 3c 29 75 13 3e 9f d6 c2 3d bc d1 bc 3d
       0.02814545 0.14400162 0.09513592 0.09219691
000090 61 30 ee bd 13 33 5c 3e cc d9 46 3e 42 bd a1 3d
       -0.11630321 0.21503858 0.1941902 0.07897426
0000a0 a0 72 bf 3d 7e e0 26 bd f5 9e bb bd ed 86 4c 3e
       0.09348035 -0.040741436 -0.09161178 0.19973345
0000b0 54 af a5 3e d2 74 b8 3c 4b 56 3a bd f8 91 02 3e
       0.32360327 0.022516642 -0.04549245 0.12750995
0000c0 21 3e ba 3d c7 80 f8 3c f9 71 2f 3d a0 db 4b 3e
       0.090938814 0.030334843 0.042833302 0.19907999
0000d0 55 92 ca 3d 65 38 82 3d a6 a0 75 3d a5 6e 17 bd
       0.09891192 0.06358413 0.05996766 -0.036970753
0000e0 9b f8 34 bd 7f 79 13 3e f6 49 d2 3c 9e a0 cc 3d
       -0.0441824 0.14401816 0.025670033 0.09991573
0000f0 8b 42 7a 3e 3a 27 f6 3d 9a dd 8c 3e 47 ed 95 3d
       0.24439447 0.120192006 0.2751282 0.07320648
000100 7f 33 5a 3d 1f 68 c5 3d 73 89 66 3d b9 8f fe 3d
       0.053271767 0.09639 0.056283426 0.12429757
000110 d9 48 92 3d 0a 22 cf bd 4e fe de 3d b6 18 b0 3b
       0.07142801 -0.10113914 0.108883485 0.0053740395
000120 02 3c 83 bc 26 fa 45 3e 86 5a 40 3c 82 46 cf 3d
       -0.016019825 0.19333705 0.0117403325 0.1012087
000130 68 81 50 3d a3 28 98 3c de 54 27 3e be a3 30 3d
       0.05090466 0.018574065 0.16340968 0.043124907
000140 33 05 82 3c 1e 9a 75 3e 9b 5b 6a 3d af dc 4d bd
       0.01587162 0.23984572 0.057216268 -0.05025929
000150 63 47 2f 3e a5 85 36 3c 19 69 57 3e 1d c1 95 3d
       0.17117076 0.011140262 0.21036185 0.07312224
000160 04 bb 65 3e 75 3b 25 3e f5 ea 8f bc ad 2d 4e 3d
       0.22434622 0.16135962 -0.01756809 0.05033653
000170 29 42 aa bd 45 a7 ba 3d 0f d8 02 3e df 3b 31 3d
       -0.083134 0.091139354 0.12777732 0.04326999
000180 60 2c 3d 3e ec d3 d8 3d c8 a3 74 3d 95 c8 1b 3d
       0.18473959 0.10587296 0.059726506 0.038033087
000190 b9 e2 26 3c 57 a9 b4 3d b6 b0 8b 3d 3b 06 a7 3d
       0.010185891 0.088213615 0.06820814 0.08155485
0001a0 49 6a e7 3c e6 eb a8 bc 73 8d 4c bd 2a a1 39 3e
       0.028248923 -0.020620298 -0.049939584 0.18127885
0001b0 7d c6 0d 3e ab 6f f1 3d 0d bd be bd af 47 96 3d
       0.13845249 0.11788877 -0.09313402 0.07337891
0001c0 87 31 db 3d 39 ba 61 3e 5d be 03 3e d0 e3 28 3e
       0.10702806 0.22043695 0.12865587 0.16493154
0001d0 55 f7 a3 3d 86 7e 60 bd 06 27 65 3d cf 40 12 3e
       0.08006159 -0.054808162 0.05594542 0.14282535
0001e0 6d e1 90 3d 53 3e a5 3d 5d 07 11 bd b4 4e 10 3e
       0.070742466 0.08068528 -0.035407413 0.14092523
0001f0 43 99 86 3e 54 b1 3d bd ca 16 97 3d 8c 9b 71 bd
       0.26288804 -0.04631169 0.073773935 -0.05898623
000200 9a d7 99 bd 2b c1 1e be 88 39 81 be 88 ac 7a bd
       -0.07511826 -0.15503375 -0.25239205 -0.061199695
000210 f1 28 4c be 5c 2c 81 bc cf 15 f0 bd 6c a9 a4 3c
       -0.19937493 -0.015768223 -0.1172291 0.020100318
000220 3d 03 de bc c7 95 90 3d 8e 40 79 be 4e f9 d4 3d
       -0.027101154 0.07059818 -0.24341032 0.103991136
000230 a0 80 6e 3e 2c db 0f 3e 59 10 14 be a2 1a fd bc
       0.23291254 0.14048451 -0.14459361 -0.030896489
000240 7c 96 19 3d 08 43 42 3d 24 6b be be 5c 8b 25 3d
       0.03749703 0.047427207 -0.37191117 0.040416107
000250 26 a4 0b be 2e 96 9d 3d 1b ad 9d bd c8 bc 0c be
       -0.13636836 0.0769466 -0.07699033 -0.1374389
000260 a2 60 01 bc b8 bc a3 bb 36 6e 28 bc 87 89 4b bd
       -0.007896574 -0.0049968623 -0.010280183 -0.049691703
000270 b9 03 a5 bd 36 72 43 bd a4 5f a8 bd d9 f2 ca 3d
       -0.08057351 -0.047716342 -0.08221367 0.09909601
000280 0f bc 8d 3c cf 0d 03 3e 14 46 1a 3e 1c 33 ed 3d
       0.017301587 0.12798236 0.15065795 0.11582014
000290 98 53 99 3e 94 d9 68 be 58 be f2 3d 22 37 0f 3d
       0.2994659 -0.2273925 0.118527114 0.034964688
0002a0 c5 ef 0d be a8 23 01 3e ca 81 72 3d 6d 5d 07 be
       -0.13860996 0.12611258 0.059205808 -0.13219233
0002b0 75 cf 29 be cc b6 27 3e a9 63 fe 3d 4c c4 61 bd
       -0.16583045 0.16378325 0.124213524 -0.055118844
0002c0 ba 98 28 3e 13 ad d8 3d ff 65 43 3e a4 fe 4a 3d
       0.1646451 0.10579886 0.19081877 0.04955925
0002d0 e0 a3 ce bd eb 37 98 3d 40 49 cc 3d d1 96 e1 3d
       -0.100898504 0.074325405 0.09974909 0.11015094
0002e0 4f ad 0b be c3 c9 10 3c 43 7b 36 bd c5 8b a2 3d
       -0.1364033 0.008837166 -0.044551145 0.07936815
0002f0 60 96 9a bd ad 40 32 3e a2 e7 b7 3d 6f 91 d1 3d
       -0.07548213 0.17407484 0.08979727 0.102328174
000300 c4 b9 08 bf c9 b8 ab 3d 4c 18 a9 be 1e b6 6a be
       -0.53408456 0.08384854 -0.3302635 -0.22921035
000310 4b 1b 66 be 67 b0 ad bd 07 15 c9 b9 de f4 03 3d
       -0.22471349 -0.08480912 -0.00038353374 0.032215945
000320 8d 48 0b 3e 5b c5 3d 3d 8b 7c cf bc 3a e9 88 3d
       0.13601895 0.04633079 -0.025327941 0.066851094
000330 e1 c8 0c 3e e0 94 4f 3e 6b 04 ad 3e c2 5d 63 3e
       0.13748504 0.20271635 0.33792433 0.22203735
000340 2e db 8e bd 17 c9 f8 3d ba 4d f6 be 0b c5 5e 3e
       -0.06975399 0.1214773 -0.48106176 0.21754853
000350 69 96 5d 3d 36 0d 73 be 81 a3 84 3e 1d 56 51 3e
       0.05409852 -0.23735508 0.25905994 0.20443006
000360 eb 6f 9e bd 50 ee 86 bd 0c d4 d4 bd d4 e1 2b 3d
       -0.077361904 -0.06588423 -0.10392007 0.041963413
000370 d2 a1 0c bf 51 aa 4a 3e eb 22 7a be 46 62 55 3e
       -0.5493442 0.19791533 -0.24427383 0.2083827
000380 70 c3 de bc 38 4b 92 be dd 4c 0c be 3a da 8c bd
       -0.027192801 -0.28573012 -0.13701196 -0.06877561
000390 a5 73 4f be 82 ec 00 3e 3f e7 32 3d 19 ea 86 bd
       -0.20258959 0.1259022 0.043677565 -0.06587619
0003a0 32 c3 85 3d 24 79 ef bd d0 f1 0b be 88 de 96 3e
       0.06531371 -0.116930276 -0.13666463 0.29466653
0003b0 97 f8 41 3e e2 79 2e be 9b be 17 be 82 3a c5 be
       0.18942486 -0.17038682 -0.14818804 -0.385212
0003c0 8f e7 67 bd 11 6c 70 3d 1e e8 23 bd 7a ca 7f 3e
       -0.056617316 0.05869681 -0.040016286 0.24979582
0003d0 6f 0a c5 bd 1f b2 68 bd 21 de d6 bc f9 f9 9c 3d
       -0.09621131 -0.056810495 -0.026228966 0.07664866
0003e0 03 6b a2 bc 44 70 5b 3e f6 2a 6c bd e3 25 aa 3d
       -0.019826418 0.21429545 -0.05765816 0.083080076
0003f0 53 b7 be 3e 62 2d ad bc 59 7b 73 3d b8 79 f5 3d
       0.3724924 -0.021139804 0.059443805 0.11986107

fc2.bias f4 [64]
000000 35 d5 cc 3e 79 58 0f 3f cc ad ac 3d 44 00 4e 3e
       0.40006414 0.55994374 0.084315866 0.20117289
000010 c4 3f 1f bd 2a 16 a8 3e fe 2f 06 bd 7b 93 cf be
       -0.03887917 0.3282941 -0.032760613 -0.40542206
000020 4f 27 01 3f ba 88 09 3d 77 37 7d bd 01 24 05 3f
       0.50450605 0.03357766 -0.061820474 0.5200806
000030 27 9e 99 3d f7 37 e2 3e bb 50 a4 3e 53 34 f4 3e
       0.07500868 0.44183323 0.32092842 0.4769617
000040 2b 15 52 3e a8 35 81 3d eb b1 86 3e 63 c7 80 3d
       0.20515887 0.06309062 0.26307616 0.0628803
000050 17 33 e9 3e ca 6a e4 3e 7f a3 0a 3f 55 d4 dc 3e
       0.4554679 0.44612724 0.54155725 0.43130746
000060 58 31 de 3e d7 47 02 3f fd 7c df 3e c3 05 0b 3f
       0.4339702 0.5089087 0.43650046 0.54305667
000070 68 f9 d1 be 15 43 c7 3e 34 cf e8 3e 03 27 f8 3e
       -0.41010594 0.38918367 0.45470583 0.48467264
000080 b3 3c 4b 3e 1a c6 8e 3e 35 33 e2 3e 22 b5 13 be
       0.19847374 0.27885514 0.44179693 -0.14424565
000090 64 a1 e9 3b 91 a1 b3 be d0 4b ca 3e d9 0d 5e be
       0.007129835 -0.35084203 0.39510965 -0.2168497
0000a0 19 1f a1 3e db 2f fe bc f7 af 42 3e 59 e8 f8 bd
       0.31469038 -0.031028679 0.19012438 -0.12153692
0000b0 ab 12 e6 be cb f3 e1 3d 60 ea d8 3e 29 23 de 3e
       -0.44936118 0.11032828 0.42366314 0.433862
0000c0 0a 57 31 3e 0d 79 43 bd d9 e7 cb be 26 96 de bc
       0.17318359 -0.047722865 -0.39825323 -0.027171206
0000d0 0d 92 e5 3e db 19 13 be 13 73 fc bc dc 40 ee 3e
       0.4483799 -0.14365332 -0.03081659 0.4653386
0000e0 0a 9c be 3e c7 2a c5 3e 21 44 b3 bc e1 14 bb 3e
       0.37228423 0.385092 -0.021883072 0.36539367
0000f0 04 6b 24 be b1 3e bc 3e fa 1d f1 ba 56 1d a1 bd
       -0.16056448 0.3676658 -0.0018395775 -0.078669235

fc3.weight f4 [1, 64]
000000 8f 58 24 be f2 75 08 be 45 08 7f be 87 0b 27 3e
       -0.16049407 -0.13326243 -0.24905498 0.16312991
000010 48 5e ac 3e 95 33 4e bd 26 da c3 3e 8b d3 f4 3e
       0.3366568 -0.05034216 0.38252372 0.47817644
000020 34 de b7 bd 64 7e 04 3e f9 29 94 3e 6a 37 1e be
       -0.08977929 0.12938839 0.28938273 -0.15450826
000030 0c 22 64 3e d2 4c 85 bd 7f dc 68 bd 34 f7 21 be
       0.22278613 -0.06508793 -0.056850906 -0.15816957
000040 9e 40 86 3e fe 29 9b 3d cb a5 85 3e 76 a2 b0 be
       0.26221174 0.07576369 0.26103052 -0.34498948
000050 70 e8 10 be f6 01 9b bd b9 78 ae bd 8a 2e bd bd
       -0.14151168 -0.075687334 -0.0851912 -0.09237392
000060 01 ad ad bd 7d 92 7c bd 22 f1 92 bd 07 98 9b bd
       -0.084802635 -0.06166314 -0.07174899 -0.07597356
000070 cc da 02 40 e3 81 c1 bd a6 14 52 bd 9c 20 9d bd
       2.0446043 -0.09448602 -0.051289223 -0.07672235
000080 b2 72 3a 3e 27 1f 13 be a2 70 df bd 8f 8d 5d 3e
       0.18207815 -0.14367352 -0.10910155 0.21636032
000090 04 4d b4 3e 20 75 81 3e 49 3d 11 be 08 bd 8c 3e
       0.35215008 0.25284672 -0.14183535 0.2748797
0000a0 fa 61 85 3e da 8e 12 3e d2 a0 6c 3e 91 34 c1 3e
       0.26051313 0.14312306 0.23108223 0.37735417
0000b0 10 bc be 3f 97 32 87 3e d5 d3 1a be 8f 71 21 be
       1.4901142 0.26405784 -0.1511987 -0.15765975
0000c0 11 14 aa 3e 23 80 a0 3e 75 f5 c7 3e f7 eb c0 3d
       0.33218434 0.3134776 0.39054456 0.09420007
0000d0 ed cd 9b bd f8 a1 21 3e cd f3 be 3e b3 05 f6 bd
       -0.076076366 0.15784442 0.3729538 -0.12012806
0000e0 b8 5f 40 be 1b a3 16 be b4 da be 3e 1b b9 ef bd
       -0.18786514 -0.14710657 0.37276232 -0.11705228
0000f0 0a 2a 06 3e f8 70 2c be 5b e7 98 3e e2 26 9e 3d
       0.13101974 -0.16839969 0.2986401 0.0772226
