SAC/sac/critic2_checkpoint_2.pth (torch, 23178 bytes, 5 tensors)

fc1.weight f4 [64, 13]
000000 7d b7 db 3e 96 66 0f bf 18 3f be bd 5f 7c bb 3c
       0.42913428 -0.5601591 -0.09289378 0.022886453
000010 98 1d 85 be a5 81 7d 3b 40 04 13 be c0 36 2e be
       -0.2599914 0.003868201 -0.1435709 -0.17013073
000020 c1 59 1d 3d d2 bc 15 3f 49 78 3e 3e cf 0f 56 3e
       0.038415674 0.5849124 0.18600573 0.20904468
000030 6b 65 2f 3e 30 c5 46 38 f7 b3 c2 3e dc 94 dd 3d
       0.17128532 4.7390524e-05 0.38027927 0.10819408
000040 a7 f5 36 bf 5b 0c 18 bf 93 d9 4b be 41 93 57 3e
       -0.71468586 -0.5939385 -0.19907217 0.21052267
000050 ab 50 17 3e 87 ea d3 bb 60 0c 05 be 17 1a b9 be
       0.14776866 -0.006467167 -0.12993002 -0.36152717
000060 2c 5b 80 3c 52 e7 08 be 6d 72 33 3d e1 0d 1e be
       0.015668474 -0.13369492 0.043810297 -0.15434982
000070 32 c8 32 3d 48 26 57 be 0c f0 0f bf 38 da 02 be
       0.043647952 -0.21010697 -0.5622566 -0.12778556
000080 09 97 29 3f 62 1a 12 bd df 18 8d be 84 97 9f 3c
       0.66246086 -0.03566969 -0.27558038 0.019481428
000090 8f 8f 3b bd ec 36 16 bc f9 05 ea 3d 1a 36 b4 3e
       -0.045791205 -0.009168368 0.114269204 0.35197526
0000a0 5c 37 4c 3e fd 63 e3 3d c8 77 b2 bc b8 84 f4 bd
       0.19942993 0.111030556 -0.021785632 -0.119393766
0000b0 9a 88 30 3f b4 a8 3a be d7 21 a6 3e 66 4f 84 3e
       0.6895844 -0.18228418 0.32447693 0.25841826
0000c0 c7 39 6f 3e 04 4e 94 3b f6 f2 d2 3a 9d cc b5 3d
       0.23361884 0.0045259017 0.0016094137 0.088769175
0000d0 fc 81 7a be d0 43 13 bf 77 0c 81 bc 08 16 a1 3d
       -0.24463648 -0.5752535 -0.015753014 0.0786553
0000e0 7d 7a b2 3d 1f 6c 16 be 65 c2 27 be 1d c7 c3 3d
       0.08714769 -0.14689682 -0.1638275 0.09559462
0000f0 88 2f 0b be d3 51 60 3e 24 58 bf bd e3 aa cb bd
       -0.1359235 0.21906213 -0.09342983 -0.099447034
000100 08 2a e7 bd 75 cf 5e 3e f5 3a 8c be 9d 9b a8 3d
       -0.11287314 0.21758826 -0.2738873 0.08232806
000110 ed b3 ed bd f3 80 23 3e ae 2f 64 be bf 95 86 3e
       -0.11606584 0.15967159 -0.22283813 0.26286122
000120 ab 12 01 3e 1c 7c c7 be 18 e4 8b bd 81 76 6a be
       0.12604778 -0.38961875 -0.06830615 -0.22896768
000130 5a e3 74 bc 43 bd 89 be 87 0e df be 90 59 47 3e
       -0.014946783 -0.26902208 -0.4356577 0.19467759
000140 24 ba 37 bd 07 07 05 bf 6f fe 95 3d 5c c3 a0 be
       -0.044855252 -0.5196385 0.0732392 -0.31399047
000150 8d b6 a3 3e 63 3d fd 3d 53 e9 ac be 4f 09 b8 bd
       0.31975213 0.12365224 -0.33771762 -0.089861505
000160 84 ca 4b 3d 11 92 19 3e 59 8d ab 3d fa 2e 8b be
       0.04975368 0.14997126 0.08376569 -0.27184278
000170 3e 54 35 be a2 7a 90 be 6b 4d 95 bf 0f 11 2b bd
       -0.17707917 -0.2821856 -1.1664251 -0.041764315
000180 7b d7 9a be a0 4e 83 3f 7f 52 0a 3e ef 7d 62 be
       -0.30242524 1.025837 0.13508032 -0.22118352
000190 ad 2c bb be 43 96 64 3d 15 a8 8e bc 53 77 86 3d
       -0.36557522 0.055807363 -0.017414132 0.06565728
0001a0 b9 2a cb bd 9b cb 4b 3e c3 03 a9 bd d2 51 86 be
       -0.09920258 0.19901888 -0.082526706 -0.262343
0001b0 2a 55 ce be c3 60 e8 3c 5f ae d5 be 54 26 4d 3e
       -0.4029935 0.028366452 -0.41734597 0.20034152
0001c0 ee 0d 11 3d 4f 2a 05 be cb 38 aa 3d 7a 11 63 3e
       0.035413675 -0.1300442 0.08311614 0.22174636
0001d0 5b 06 56 3d 17 21 e6 bd cb c3 c7 be 04 ec 30 bd
       0.052252155 -0.1123678 -0.39016566 -0.043193832
0001e0 bd 85 84 3e 1a 5a 6d be 70 5e 2c be 23 e3 3f bd
       0.25883284 -0.23178902 -0.168329 -0.046847474
0001f0 a1 a0 8a 3d b1 c4 d4 be 8c d8 40 be 2a d9 11 bd
       0.06768919 -0.41556314 -0.18832606 -0.035607494
000200 d6 54 10 be 5a 03 3f bd a2 60 9f 3a 81 2e b1 bd
       -0.14094862 -0.046634056 0.0012159536 -0.08651448
000210 41 be bd 3e 34 23 34 3e b2 8f 21 bf 34 d3 24 be
       0.37059215 0.17591554 -0.63109887 -0.16096193
000220 49 ec 84 3e d6 1f 79 3e a2 d5 0f be 4b 36 25 ba
       0.2596152 0.2432855 -0.14046338 -0.0006302341
000230 1e 94 00 3f 97 40 a5 3e e5 06 cf 3d a5 c2 9f be
       0.5022601 0.3227584 0.10108737 -0.3120319
000240 a0 8e b7 3e ae 1a 8f bd ee ae 6f bf ce a9 8a be
       0.35851002 -0.069875106 -0.93626297 -0.27082676
000250 7d 7f 09 bf f6 a0 29 be b7 ba 3a bd 02 c5 f6 bd
       -0.53710157 -0.16565308 -0.04558822 -0.12049295
000260 e9 c4 15 be eb 9e e4 3d f0 d0 5a 3d 0d 9d 98 bd
       -0.14625897 0.11163124 0.053421915 -0.0745183
000270 6c 11 c3 be 51 37 df be 2f de ba be 12 db 04 bf
       -0.3809923 -0.4359689 -0.36497638 -0.51896775
000280 8d a3 30 3d 39 26 c1 3c 3f 56 89 be 68 e8 69 3e
       0.043124724 0.023577796 -0.26823613 0.22842562
000290 c9 a9 ab be a6 05 15 bd 63 25 34 be e1 2a d7 3e
       -0.33527973 -0.03638234 -0.17592387 0.42024902
0002a0 d4 40 93 bb 89 6c 62 3e d2 4a 99 bc aa 12 79 3e
       -0.004493812 0.22111715 -0.018712435 0.24323526
0002b0 c6 eb c5 be 43 bb ac be bd 47 aa 3e 08 50 3a 3e
       -0.38656443 -0.3373662 0.33257857 0.18194592
0002c0 e1 5c d7 bd fa fe ad 3e ad d0 cb 3e e8 a1 8b bd
       -0.10515762 0.33983594 0.39807644 -0.068179905
0002d0 a2 e5 bd ba 16 f0 67 bc cf 2d 6e bd 12 5d 1b 3e
       -0.0014487992 -0.014156362 -0.058149155 0.15172222
0002e0 8d e7 70 3e d3 cd ad bd 56 24 83 be b4 e0 e8 bd
       0.2352583 -0.084865235 -0.2561366 -0.11370984
0002f0 be 38 74 be dc 0d 42 be 33 e1 5a 3e 9d 67 53 3e
       -0.2384977 -0.189506 0.21374969 0.20644994
000300 0d 52 00 3e 4b 13 63 3d a5 a4 71 3e da 3e ee bb
       0.125313 0.05543832 0.23597963 -0.007270676
000310 19 cf 69 3f fa b9 41 be de 56 e7 3d 90 41 3f be
       0.9133163 -0.189186 0.112958655 -0.18677354
000320 77 29 1a be 45 5e f0 be 66 fd 3d bd aa d6 90 3d
       -0.1505488 -0.46946922 -0.046384238 0.07072194
000330 b3 8b 13 3e 4e 99 b9 3d 48 17 0a be 84 0a 24 be
       0.1440876 0.09062444 -0.13485444 -0.16019636
000340 0c 9b 4a be 17 fa 73 3e 7d b4 8f 3e 52 62 d4 be
       -0.19785708 0.2382587 0.2806739 -0.41481262
000350 d9 ad a1 3d 0c d9 97 bc 66 8f 9f be 55 2b 9e 3e
       0.07894487 -0.018536113 -0.31164092 0.30892435
000360 74 af f0 bd 42 3f 96 bd d7 e6 53 bd 0e 31 93 bd
       -0.11752215 -0.07336284 -0.051733818 -0.07187091
000370 a5 4c 27 3e 81 4c a0 be ef 82 5d 3e b4 c4 5e 3c
       0.16337831 -0.31308368 0.21631978 0.013596702
000380 83 7c 65 be ef 41 24 3e 5e a6 bc 3d 49 35 78 3d
       -0.22410779 0.16040777 0.092114195 0.06059769
000390 d7 03 25 3e 64 69 b1 be a9 33 9b bd e1 b9 cf bd
       0.16114746 -0.3465072 -0.07578213 -0.101428755
0003a0 bf 0d 30 3e 47 1a 62 3e 82 1c 68 be 6f 3b 12 3f
       0.17192744 0.22080337 -0.22667125 0.5712194
0003b0 64 a2 ee 3d 80 0c 8e bd 38 ef 16 3d 3c 56 16 3e
       0.11652067 -0.06935978 0.03684923 0.14681333
0003c0 f4 7a 23 be 13 11 f7 3e 5c 5f 97 3e a6 0f b5 3d
       -0.15964872 0.48255214 0.2956494 0.08840875
0003d0 e0 cb 26 3e 6f 37 3a 3e 95 b7 64 bc d1 13 78 bd
       0.1628871 0.18185209 -0.013959785 -0.060565773
0003e0 00 09 cf 3e 70 a1 7d 3e f6 96 c7 be 66 ee 8a be
       0.40436554 0.24768615 -0.38982362 -0.2713501
0003f0 6b 98 21 3e 70 64 f1 bd 6e a2 fd bd 54 de 16 3e
       0.15780799 -0.11786735 -0.12384497 0.14733249

fc1.bias f4 [64]
000000 00 90 21 bd 11 15 50 3f 82 53 56 3e 52 fa 42 bd
       -0.03944397 0.81282145 0.20930293 -0.047602005
000010 4e 24 4c be 0e 08 70 3e 6f 25 9f 3e 95 35 3b 3f
       -0.19935724 0.23440573 0.31083247 0.73128635
000020 31 8f ec 3d c5 9e f7 3d 12 3b 19 3f 65 fe f6 3e
       0.11550749 0.1209083 0.5985576 0.48240963
000030 bb 08 de 3e 8d a2 cf 3d 5e 2b b7 3e 36 72 2f bd
       0.43366036 0.10138426 0.35775274 -0.04283353
000040 6c a9 9d bd 1b 0a 1e 3f b1 fb ac be 5a 0c 2f 3f
       -0.0769833 0.6173417 -0.33785775 0.6837822
000050 d1 2a 5e 3f 2d d1 22 bd b6 24 45 3f b9 0b 4d 3f
       0.8678408 -0.039750267 0.7700914 0.8009601
000060 d3 a7 9f 3d fe cf 31 3f e6 52 34 3e 2d de 19 3e
       0.07795682 0.69457996 0.17609748 0.1502616
000070 8c 41 ed bd 83 fe 21 3f a2 88 85 3c 8e ad 36 3e
       -0.11584768 0.6327898 0.016300503 0.17839643
000080 05 34 46 3f 98 64 64 be d7 c0 4c 3e bb f9 d1 3e
       0.77423126 -0.22303998 0.19995438 0.41010842
000090 99 fd 71 bd 31 ed 0c 3f af 0c 2d 3f dc b0 06 3f
       -0.05907974 0.55049425 0.6759748 0.52613616
0000a0 42 88 38 3f e0 57 49 3e fb 50 82 3c 48 c6 bc 3e
       0.7208291 0.19662428 0.015907755 0.36870027
0000b0 4b 03 3f 3f 25 8f 20 3f 6d e6 82 3d 93 21 80 be
       0.746144 0.6271842 0.063916065 -0.25025615
0000c0 4b 95 75 3f 89 7f 3b 3f f0 7b 61 3f 47 b4 4e 3f
       0.9593093 0.7324148 0.8807974 0.8074383
0000d0 bd 81 27 3f 17 a4 51 be 77 d1 1a 3f d4 bb 49 3d
       0.6543234 -0.20472752 0.6047587 0.049251392
0000e0 9f 6b c0 3e 64 46 d1 3d ee bd ee 3e 1d 78 8c 3e
       0.37582108 0.10218504 0.4662928 0.2743539
0000f0 58 b7 e5 3e cc a2 a0 bd 33 0c 4c 3f 89 34 af 3e
       0.44866443 -0.07843551 0.79706115 0.3421977

fc2.weight f4 [64, 64]
000000 c0 11 e0 38 67 91 31 3e a9 11 2e 3e 08 d8 98 3d
       0.000106844585 0.17340623 0.16998924 0.0746308
000010 25 50 c9 3a 0e 14 48 bd 6a 2d 0a 3e af 03 d8 3d
       0.0015358968 -0.04884725 0.13493887 0.105475776
000020 7c 79 3d 3e 4c 70 ff bc 23 6c 29 3c d9 85 30 bd
       0.18503374 -0.031181477 0.010340723 -0.043096397
000030 ea 8f d5 3c 60 83 56 3e ff 51 07 3e 54 6a c0 3d
       0.0260696 0.20948553 0.13214873 0.093952805
000040 ad dd 04 be 81 e4 5a 3e a3 8a 2f be 24 c6 af 3d
       -0.12975188 0.2137623 -0.1714273 0.08582714
000050 c9 2b a5 3e 0b 47 84 be c8 b2 46 3e 86 59 85 3d
       0.32259968 -0.2583545 0.19404137 0.06511216
000060 32 c7 5a 3e b4 f8 96 3d 55 80 fe 3d 32 c7 96 3d
       0.2136505 0.07371655 0.12426821 0.07362212
000070 72 51 90 bd b9 56 8d 3d 49 17 40 3e 16 49 71 3c
       -0.070467845 0.06901307 0.18758883 0.014726898
000080 da 65 16 3e 6a 7f 55 3e 64 50 c2 3d 19 e0 cb 3c
       0.14687291 0.20849386 0.094879895 0.024887132
000090 c2 1e 31 be cf 62 70 3e 27 0a 78 3e 8a 40 c1 3d
       -0.1729689 0.23475192 0.24222623 0.09436138
0000a0 de 64 f5 3d 5a 83 95 bc f2 eb 05 be a8 e7 2e 3e
       0.119821295 -0.01825111 -0.13078287 0.17080557
0000b0 53 9e aa 3e 4c 83 86 bb 22 4a 6e bd 06 9a 3b 3e
       0.33323917 -0.0041050073 -0.058176167 0.18320474
0000c0 f9 cf 30 3d e7 72 dd 3c 65 2c 05 3d 0f 92 60 3e
       0.04316709 0.027032329 0.03251304 0.21930717
0000d0 ac 9b 9b 3d 8c b6 65 3d 83 d2 80 3d 2b 77 23 bd
       0.075980514 0.056082293 0.06290152 -0.03990857
0000e0 53 a2 03 bd 8a 4f 41 3e 02 4b 85 3d 33 27 b4 3d
       -0.032137226 0.18877998 0.06508447 0.08796539
0000f0 a4 08 a8 3e d6 ec f4 3d d3 78 8f 3e 78 ac 97 3d
       0.32819092 0.11959235 0.2802187 0.07405943
000100 45 8b 46 3d 97 8c 05 3e 9e 83 dd 3d 3b ba b7 3d
       0.04847266 0.13041912 0.108161196 0.089710675
000110 87 6e ac 3c 59 cb f9 bd 40 9c d5 3d 90 bc 0b bc
       0.021048797 -0.121969886 0.10430193 -0.0085288435
000120 33 2c 79 3c 87 fc 15 3e 00 0e 2c 3c fc a9 98 3d
       0.015208292 0.14647113 0.010501385 0.07454297
000130 ee 37 40 3d ab fc b3 3d c6 45 40 3e 1d d7 eb 3c
       0.04692834 0.08788427 0.18776616 0.028789097
000140 df 59 8a 3c 59 4b 9a 3e a1 88 0f 3d ae 21 67 bd
       0.016888557 0.3013561 0.03504241 -0.056428604
000150 25 fd 65 3e 35 66 a0 bd 60 a7 57 3e c5 8f b3 3c
       0.22459848 -0.078319944 0.21059942 0.02191914
000160 79 ce 79 3e a1 37 23 3e 9b 95 2f bc c2 e6 31 3d
       0.2439517 0.1593919 -0.010716821 0.04343296
000170 b3 b2 0c be 17 2a cd 3d d1 67 37 3e ea ef 8b 3d
       -0.13740043 0.100177936 0.17910697 0.06832869
000180 fe a3 9b 3e 49 52 30 3e 3f 8c 77 3d 7b fb ee bc
       0.30398554 0.1721889 0.060436483 -0.02917265
000190 1c 4e 39 bd b3 7b df 3d a1 40 ed 3d 38 6f ca 3d
       -0.045240507 0.10912266 0.115845926 0.098844945
0001a0 8d 40 68 3d b4 b7 cb 3a 1c 47 b4 bd 4a 33 1c 3e
       0.056702185 0.0015542419 -0.088026255 0.1525394
0001b0 35 54 18 3e 87 06 bf 3d 26 ed d8 bd 80 fc 03 3e
       0.14875872 0.09327417 -0.105921075 0.1288929
0001c0 a0 4a 7a 3d a2 a5 5f 3e 66 b3 f6 3d a9 a7 3e 3e
       0.061106324 0.21840528 0.12045936 0.18618645
0001d0 72 d6 71 3d f2 a0 7c bd 28 b3 77 3d bb d8 0f 3e
       0.0590424 -0.061676927 0.06047359 0.1404752
0001e0 39 a0 ad 3d ab da 00 3e e8 9b 7c 3b 0b 03 04 3e
       0.08477826 0.12583415 0.0038545076 0.12891786
0001f0 a3 4d b1 3e fe 13 40 bd 4a ff a3 3d 52 ce 6d bd
       0.34629545 -0.046894066 0.08007677 -0.05805809
000200 8a 89 60 bd cd 7c f7 bd 99 5c 93 be c5 71 46 be
       -0.054818667 -0.12084351 -0.28781584 -0.19379337
000210 7c 26 5a be b5 68 88 bd 38 dc 1c be 11 6d dd bc
       -0.21303743 -0.06660596 -0.15318382 -0.027029546
000220 4f 70 82 3c b6 e9 6c 3d cd fc e1 bd 21 1c 01 3e
       0.015922694 0.05784007 -0.11034546 0.12608387
000230 31 b6 80 3e ff 6f 0a 3e 40 b1 fa bd e6 cf 07 3d
       0.25139 0.13519286 -0.12240839 0.03315725
000240 2c f8 bc 3d 06 c1 0a 3e 44 df e2 be 51 01 40 3d
       0.092270225 0.13550195 -0.44310963 0.046876255
000250 d4 8a b4 bd 56 6c 9b 3c 3e 47 05 bd c9 7e 10 be
       -0.08815542 0.018972557 -0.032538645 -0.14110865
000260 cf 0e 52 bd 39 6b fb bc 46 26 8a bd 75 31 12 be
       -0.051283654 -0.030690776 -0.06745581 -0.14276679
000270 86 13 0a bc 15 99 94 bd 83 0c 4f 3d 68 08 5a 3d
       -0.008427506 -0.072557606 0.05054904 0.053230673
000280 f8 eb be 3d 09 b7 51 3e 6a da 23 3e 0d b0 cd 3c
       0.09322351 0.20479979 0.16001287 0.025108362
000290 d2 77 7a 3e 61 13 50 be ab 80 17 3d 09 ac 94 3d
       0.2445977 -0.20319892 0.03698794 0.072593756
0002a0 6a 9e e9 bd ea c4 e0 3d 07 78 9a bd 27 82 51 bd
       -0.11407168 0.109750584 -0.07542425 -0.051149514
0002b0 ec 94 ab bd da be 21 3e 34 3c a8 3d dd 2e e5 3c
       -0.08378014 0.1579546 0.08214608 0.027976448
0002c0 10 96 05 3e fa ff 07 3e 85 0c 4d 3e 8c 9f 95 3d
       0.13045526 0.13281241 0.20024307 0.07305822
0002d0 72 e9 a9 bd 71 9b 6c bd 66 44 e8 3d 72 6b bb 3d
       -0.08296479 -0.057765428 0.11341171 0.09151353
0002e0 60 00 c4 bd 7e e5 68 3d 21 f6 35 3d 98 26 bc bd
       -0.09570384 0.056859486 0.04442418 -0.09187049
0002f0 1d 9a f8 bd 26 3a 49 3e b0 ff d4 3d 56 46 62 3d
       -0.1213877 0.19651088 0.10400331 0.05524286
000300 eb df 3d bf 13 ee 31 3e 32 63 0a bf 59 e7 11 3d
       -0.74169797 0.17375974 -0.5405761 0.03562102
000310 f9 b4 d8 be 33 1e 75 bd ec 57 dc 3c ed b1 9c 3d
       -0.4232557 -0.059843253 0.026897393 0.07651124
000320 61 33 30 3e 90 ae db 3d dc d4 e9 bc cc ae e6 3d
       0.172071 0.107266545 -0.028543882 0.112638086
000330 34 99 f1 3d 14 ac 71 3e f7 43 a9 3e a8 21 06 3c
       0.11796799 0.23600799 0.33059666 0.008186735
000340 1e 48 d8 bd e1 67 cc bc aa 18 a8 be b7 9b 83 3e
       -0.1056063 -0.024951877 -0.32831317 0.25704738
000350 a1 9b 89 3d af 8c 98 bd 7c 3c 78 3e a7 a8 8a 3e
       0.06719137 -0.07448708 0.24241823 0.27081797
000360 68 f2 50 3d 3e a5 8a bc 59 d7 bd be f9 ee eb 3d
       0.051012427 -0.016924497 -0.3707836 0.1152019
000370 fe de a7 be d2 73 36 3e 39 48 b8 be 8c 78 11 3e
       -0.32787317 0.1781762 -0.35992602 0.14206141
000380 b1 48 93 bd f3 62 b0 be a6 60 4e bd 28 f8 83 be
       -0.07191599 -0.34450492 -0.05038514 -0.25775266
000390 53 ce 56 bd e7 10 08 3e f1 fa 0d 3e b8 8b aa bc
       -0.05244286 0.13287698 0.13865258 -0.020818576
0003a0 10 97 a8 3d f3 74 11 be 63 dd 44 be 60 c8 ad 3e
       0.08231938 -0.14204769 -0.19225077 0.33941936
0003b0 21 81 78 3e b0 66 a8 bd 6f c8 09 be 46 65 58 be
       0.24268009 -0.08222711 -0.13455366 -0.21132383
0003c0 e3 15 36 3c 34 1e 18 3e d9 bf f5 3d ae d4 69 3e
       0.011113617 0.14855272 0.11999483 0.22835037
0003d0 8e af 7c 3d e8 31 0d bd b4 af e0 3c 64 00 61 3d
       0.06169086 -0.034471422 0.027427532 0.054932013
0003e0 75 b8 ae bc 30 be 9c bc d0 39 c6 bd f1 93 b9 3d
       -0.02132819 -0.019133657 -0.096789956 0.09061421
0003f0 b0 4a c8 3e a3 2c 8a 3c b7 8a 85 3d 78 59 ac 3d
       0.39119482 0.016866988 0.065205984 0.08415502

fc2.bias f4 [64]
000000 5d 36 d5 3e 6e 03 14 3f 83 8d 09 3e 44 cc 75 3e
       0.41643038 0.57817733 0.13432889 0.24003702
000010 50 86 3a bd 73 92 b5 3e 66 0f 02 bd 3b ff a8 be
       -0.045538247 0.35463294 -0.031752966 -0.33007225
000020 29 bd 06 3f a6 68 fa bd db f8 8a bd 18 65 09 3f
       0.52632385 -0.12226991 -0.06785747 0.5366988
000030 7b 1a 99 3d 6b 38 ee 3e 09 14 b2 3e 7b de fc 3e
       0.07475754 0.46527418 0.3478091 0.4938849
000040 66 15 47 3e a8 35 81 3d a6 00 7c 3e 9c bc 5f 3e
       0.19441757 0.06309062 0.24609622 0.21849293
000050 71 03 f2 3e 1d 67 f1 3e fa 5b 10 3f 71 f2 e6 3e
       0.4726825 0.47148982 0.56390345 0.45106843
000060 16 5e e9 3e a6 e9 08 3f d7 b6 e9 3e 36 e4 10 3f
       0.45579594 0.5348152 0.45647308 0.5659822
000070 68 f9 d1 be 4b f0 d1 3e f9 83 f6 3e b5 18 02 3f
       -0.41010594 0.4100364 0.48147562 0.5081895
000080 0a 63 36 3e ed d1 97 3e ba e6 ed 3e 5d 8c 34 be
       0.17811218 0.29652348 0.46465093 -0.1763167
000090 1a 52 12 bc 6e c7 86 be 21 2a d3 3e 3f 0e 5c be
       -0.008930707 -0.26324028 0.4124308 -0.2148981
0000a0 5d af 81 3e 56 9a da bd 6b b6 e5 3d 43 98 03 be
       0.25329104 -0.106739685 0.11216434 -0.12851052
0000b0 ab 12 e6 be c8 4d c1 3d b8 f5 e1 3e 4d af e6 3e
       -0.44936118 0.09438664 0.4413278 0.4505562
0000c0 ed 75 23 3e ad 6b 5d bd 48 27 8d be 36 b3 cb bd
       0.15962954 -0.054057766 -0.27569032 -0.09946291
0000d0 69 c4 f1 3e 7e d0 bb bd 47 fa 19 bd 4d d9 f7 3e
       0.47220162 -0.09170626 -0.0375922 0.48407975
0000e0 11 86 c6 3e 92 f3 cd 3e 05 32 ec bc ad e3 c4 3e
       0.3877416 0.40224892 -0.028832445 0.38454953
0000f0 e3 24 82 bd bb e0 c4 3e 11 bb 12 bc c8 1e 93 bd
       -0.06354692 0.38452706 -0.008955733 -0.071836054

fc3.weight f4 [1, 64]
000000 dd 7a 70 be 46 a9 3a be c4 b1 90 be 09 e8 91 3e
       -0.23484369 -0.18228635 -0.28260624 0.2849734
000010 b4 2e c2 3e 62 25 d4 bd 39 c3 dd 3e ba 63 16 3f
       0.37926257 -0.10358693 0.43313006 0.5874592
000020 e5 9b 00 be 10 b3 ae 3e 3e 90 ac 3e 90 c6 54 be
       -0.12559469 0.3412099 0.33703798 -0.2077887
000030 dd 3e 66 3e 19 82 00 be e6 a7 dc bd d2 40 52 be
       0.22484918 -0.12549628 -0.107742116 -0.2053254
000040 d9 93 93 3e fe 29 9b 3d a0 9d 9a 3e 13 f5 17 bf
       0.28823736 0.07576369 0.30198383 -0.5935833
000050 cd 58 49 be 11 35 06 be 1d 24 0e be c8 81 22 be
       -0.19662781 -0.1310618 -0.13880964 -0.1586982
000060 d5 77 06 be 41 48 d9 bd 18 94 1d be 50 9a fd bd
       -0.1313165 -0.106094845 -0.15388525 -0.123829484
000070 cc da 02 40 30 ac 1e be d0 d1 e0 bd 1a a4 00 be
       2.0446043 -0.15495372 -0.109775186 -0.125626
000080 2e f7 60 3e fd 84 49 be fe 05 31 be 0e 9d a9 3e
       0.21969292 -0.19679637 -0.17287442 0.33127636
000090 93 5c d0 3e 14 d9 08 3f ae c1 48 be ff 0f 8e 3e
       0.4069563 0.53456235 -0.19605133 0.2774658
0000a0 1c c4 a4 3e 52 af 7c 3e a4 8b 65 3e 73 cf d9 3e
       0.3218087 0.24676254 0.2241655 0.42541084
0000b0 10 bc be 3f f9 49 9a 3e f3 51 43 be 51 2e 5a be
       1.4901142 0.30134562 -0.1907423 -0.21306731
0000c0 ae e0 c9 3e 18 d3 ab 3e 91 7e 09 3f f6 6f 88 3e
       0.3942923 0.3355949 0.5370875 0.2664792
0000d0 97 a6 ed bd bb 07 a6 3e 63 7a d8 3e ec 96 29 be
       -0.1160404 0.32427773 0.42280874 -0.16561478
0000e0 ed 85 7a be d9 07 5b be ce 7c d3 3e 46 09 25 be
       -0.24465151 -0.21389712 0.41306156 -0.16116819
0000f0 b4 a6 d8 3e bc 78 54 be 51 09 b9 3e b6 83 ab 3d
       0.42314684 -0.20749182 0.3613992 0.08374731
