SAC/sac/critic2_checkpoint_5.pth (torch, 23178 bytes, 5 tensors)

fc1.weight f4 [64, 13]
0.3567844 -0.50257343 -0.16781637 -0.02253417 -0.14885533 0.33537585 -0.09813409 -0.14366847
0.21003404 0.51560634 0.29785883 0.3583842 0.19414516 -0.0012300855 0.32975736 0.11311432
-0.6938773 -0.57312995 -0.17230439 0.22222319 0.13660835 0.01954659 -0.1313515 -0.2908644
0.036938176 -0.14916456 0.016774235 -0.13507971 0.040159978 -0.0682982 -0.41369474 0.13869454
0.4457479 0.003985433 0.03458567 0.030086232 -0.055381037 0.04783929 0.01623216 0.26800472
0.10699564 0.08828719 -0.04736521 -0.0017692047 0.83388287 -0.1169875 0.2440064 0.13436757
0.19897754 0.13219239 -0.0106119225 0.21628545 -0.2823231 -0.421181 -0.05920113 0.050601922
0.063272536 -0.14430527 -0.1472389 0.027906677 -0.12414808 0.11354562 0.07955418 -0.12593822
-0.0051484928 0.09358585 -0.15010858 0.0949369 -0.1350794 0.1556428 -0.24889286 0.24106698
0.0641252 -0.41502273 -0.052667983 -0.20007335 -0.04431667 -0.18703921 -0.5417308 0.10778649
-0.019595668 -0.26578605 0.0892031 -0.112984054 0.2963537 -0.046159733 -0.1344707 -0.04652592
0.14582387 0.11345937 0.076319486 -0.067209885 -0.2858484 -0.23230487 -1.1742465 -0.023764934
-0.28080347 0.93850493 -0.030552393 -0.14810176 -0.31099588 0.05196718 -0.04351712 0.10364003
-0.2538568 0.26594633 -0.023037024 -0.0987215 -0.23008338 0.11416855 -0.31287846 0.121170275
0.0736858 -0.08830741 0.052381147 0.2583212 0.09862886 -0.055484273 -0.24504212 -0.03477778
0.23220879 -0.22751649 -0.14163257 0.00080239837 0.039682783 -0.3855223 -0.16032963 -0.07601212
-0.103741914 -0.08001417 0.033141196 0.08221839 0.24502277 0.12873901 -0.56715393 -0.072331086
0.25282058 0.21272299 0.27696985 0.0452983 0.45260355 0.31836352 0.105032325 -0.3407037
0.3873393 0.011061813 -0.8933271 -0.24367747 -0.4727995 -0.08819045 -0.0981609 -0.07024383
-0.056982942 0.091694236 0.10439369 -0.017390702 -0.11691039 -0.29554215 -0.26148742 -0.52167666
0.054712243 -0.017927192 -0.1572234 0.08247863 -0.37150702 -0.03313396 -0.066953726 0.21351871
0.098502986 0.24497306 -0.09107371 0.14502025 -0.3547051 0.04862098 0.40815946 0.17088713
-0.039729636 0.36732972 0.2905838 0.025631756 0.061619457 0.1041532 0.007095566 0.10815296
0.18290749 -0.058195442 -0.08917138 0.010425978 -0.19841877 -0.119977996 0.4307801 0.20239554
0.24927172 0.13259277 0.31225637 -0.15627979 1.0527616 -0.15314795 0.09914401 -0.067913406
-0.06781594 -0.22746733 -0.114310056 0.2461896 0.07959571 0.07308557 -0.056253377 -0.065953754
-0.12264831 0.4330388 0.15572657 -0.20037012 0.07283443 0.24137177 0.009446897 0.13246508
0.075629726 0.014652665 0.17276062 -0.09311465 0.18911603 -0.23728955 0.2202248 -0.006140804
-0.16753858 0.15984431 0.093949586 0.05854745 0.19171946 -0.32914355 -0.1037786 -0.028617991
0.16912991 0.19844581 -0.2136667 0.3461021 0.03801795 0.029442368 0.07628266 0.41886684
-0.06912615 0.4642986 0.35141197 -0.0047411863 0.19299288 0.13713326 0.14753921 -0.014462504
0.3268101 0.23685904 -0.27461347 -0.15613958 0.37562928 -0.16043945 0.010418357 0.48088247
00000000: 72ac b63e a7a8 00bf 0ed8 2bbe 9499 b8bc
00000010: 886d 18be 62b6 ab3e 87fa c8bd d41d 13be
00000020: 2a13 573e c7fe 033f f480 983e 227e b73e
00000030: fdcd 463e d23a a1ba f5d5 a83e 7ba8 e73d
00000040: f1a1 31bf a5b8 12bf 9070 30be 7a8e 633e
00000050: 0fe3 0b3e 2c20 a03c 0281 06be 2eec 94be
00000060: 7c4c 173d 98be 18be 1f6a 893c 5652 0abe
00000070: ca7e 243d eddf 8bbd cccf d3be f105 0e3e
00000080: 1239 e43e 3c98 823b b4a9 0d3d 6777 f63c
00000090: 3ad7 62bd 22f3 433d 4ff9 843c ea37 893e
000000a0: 8820 db3d eacf b43d 0602 42bd a9e4 e7ba
000000b0: 5979 553f 2497 efbd d0dc 793e a797 093e
000000c0: c5c0 4b3e 715d 073e a1dd 2dbc ef79 5d3e
000000d0: a78c 90be 09a5 d7be e27c 72bd f643 4f3d
000000e0: 0895 813d c3c4 13be cbc5 16be 8b9c e43c
000000f0: 5941 febd 9b8a e83d 4ded a23d f3f5 00be
00000100: b0b4 a8bb f0a9 bf3d 10b6 19be 476e c23d
00000110: 4152 0abe d360 1f3e c5dd 7ebe 43da 763e
00000120: 1354 833d dc7d d4be 62ba 57bd 07e0 4cbe
00000130: 6685 35bd 3587 3fbe dfae 0abf 2abf dc3d
00000140: 1887 a0bc 1c15 88be 1db0 b63d 2f64 e7bd
00000150: acbb 973e fd11 3dbd b0b2 09be f791 3ebd
00000160: da52 153e 635d e83d 644d 9c3d 56a5 89bd
00000170: b95a 92be 54e1 6dbe b64d 96bf aeae c2bc
00000180: 79c5 8fbe dc41 703f 0349 fabc fda7 17be
00000190: da3a 9fbe 8adb 543d 023f 32bd 3941 d43d
000001a0: 85f9 81be 1e2a 883e 24b8 bcbc 7f2e cabd
000001b0: fa9a 6bbe 33d1 e93d 9b31 a0be 1f28 f83d
000001c0: 95e8 963d 84da b4bd 9d8d 563d ad42 843e
000001d0: eefd c93d 7a43 63bd 52ec 7abe 2573 0ebd
000001e0: 24c8 6d3e 15fa 68be 2108 11be 0b58 523a
000001f0: 6a8a 223d 2e63 c5be 732d 24be 3eac 9bbd
00000200: a476 d4bd 78de a3bd 10bf 073d 1e62 a83d
00000210: 40e7 7a3e 29d4 033e 0031 11bf 5222 94bd
00000220: b371 813e 0ed4 593e fece 8d3e b68a 393d
00000230: a7bb e73e 8b00 a33e 301b d73d b770 aebe
00000240: 5651 c63e 9b3c 353c 16b1 64bf 9686 79be
00000250: c712 f2be 329d b4bd 9508 c9bd ffdb 8fbd
00000260: f266 69bd 30ca bb3d 5ccc d53d f276 8ebc
00000270: b76e efbd 4d51 97be aee1 85be 9a8c 05bf
00000280: f219 603d 0cdc 92bc 2cff 20be 8eea a83d
00000290: 2b36 bebe 7ab7 07bd 091f 89bd a6a4 5a3e
000002a0: efbb c93d 38da 7a3e da84 babd 3080 143e
000002b0: e89b b5be cb26 473d 47fa d03e 09fd 2e3e
000002c0: 8bbb 22bd a412 bc3e 66c7 943e b0f9 d13c
000002d0: af64 7c3d 464e d53d ec81 e83b 4d7f dd3d
000002e0: 1a4c 3b3e 585e 6ebd 7c9f b6bd b9d1 2a3c
000002f0: 4a2e 4bbe 06b7 f5bd 368f dc3e c740 4f3e
00000300: 1641 7f3e 66c6 073e 11e0 9f3e cf07 20be
00000310: e4c0 863f d1d2 1cbe 040c cb3d 2f16 8bbd
00000320: 15e3 8abd 32ed 68be 641b eabd 2019 7c3e
00000330: 1303 a33d e3ad 953d f169 66bd c312 87bd
00000340: 0a2f fbbd 43b7 dd3e c976 1f3e d32d 4dbe
00000350: 382a 953d 292a 773e 28c7 1a3c eda4 073e
00000360: c2e3 9a3d bb11 703c 29e8 303e e5b2 bebd
00000370: a2a7 413e 08fc 72be 9c82 613e cc38 c9bb
00000380: 3c8f 2bbe 3aae 233e a468 c03d 73cf 6f3d
00000390: 1b52 443e 8185 a8be e089 d4bd 4770 eabc
000003a0: 6430 2d3e 6135 4b3e 72cb 5abe 4b34 b13e
000003b0: b6b8 1b3d 1f31 f13c 153a 9c3d b775 d63e
000003c0: 0392 8dbd 8cb8 ed3e 45ec b33e f45b 9bbb
000003d0: ed9f 453e a96c 0c3e 8514 173e 23f4 6cbc
000003e0: a753 a73e 2d8b 723e 239a 8cbe 0ee3 1fbe
000003f0: 7b52 c03e 3d4a 24be c2b1 2a3c 3a36 f63e

fc1.bias f4 [64]
-0.22060335 0.7920132 0.06071608 -0.2564593 -0.20943119 0.27559894 0.056952216 0.7390611
-0.048115354 0.1994941 0.53460324 0.43948725 0.43637985 -0.42121437 0.18993503 -0.18058488
-0.2914677 0.560774 -0.55450374 0.5685724 0.8598775 0.21627353 0.60430133 0.581302
0.28477892 0.37947315 -0.18441953 -0.039436933 -0.28131008 0.48585358 -0.29255566 -0.03234041
0.7528482 -0.08115522 0.18328972 0.27172908 0.11805444 0.46453357 0.31073403 0.6163677
0.7032316 0.032921888 -0.011411002 0.23627512 0.5879001 0.67475504 -0.21723075 -0.48477158
1.084429 0.61785436 0.9545536 0.7037401 0.7371378 -0.1670643 0.64880854 -0.36495596
0.29402775 -0.23127662 0.109619334 0.019603956 0.11328398 -0.37073475 0.7293899 0.17641355
00000000: d8e5 61be 61c1 4a3f 6db1 783d a24e 83be
00000010: 2175 56be 4e1b 8d3e ba46 693d 1c33 3d3f
00000020: 9b14 45bd 2e48 4c3e c2db 083f 7904 e13e
00000030: 2e6d df3e 69a9 d7be 547e 423e 3eeb 38be
00000040: 413b 95be e38e 0f3f f5f3 0dbf f68d 113f
00000050: ef20 5c3f cf76 5d3e 7eb3 1a3f 35d0 143f
00000060: 8bce 913e 4e4a c23e 79d8 3cbe 9f88 21bd
00000070: e007 90be cdc1 f83e dbc9 95be 6177 04bd
00000080: a9ba 403f b534 a6bd 4db0 3b3e 1320 8b3e
00000090: 87c6 f13d 58d7 ed3e 8818 9f3e 46ca 1d3f
000000a0: fc06 343f 1ad9 063d 36f5 3abc 1bf2 713e
000000b0: 9f80 163f bfbc 2c3f bd71 5ebe fb33 f8be
000000c0: 92ce 8a3f b42b 1e3f a05d 743f 5028 343f
000000d0: 10b5 3c3f e712 2bbe 5118 263f 82db babe
000000e0: ce8a 963e c7d3 6cbe 1a80 e03d 7a98 a03c
000000f0: 6e01 e83d f2d0 bdbe 4cb9 3a3f c1a5 343e

fc2.weight f4 [64, 64]
-0.001566213 0.1562128 0.11174569 0.089125104 0.040085815 -0.014186542 0.13351241 0.12268451
0.1608036 0.0039892495 0.0026114143 -0.031444848 0.032103762 0.16743007 0.12539673 0.0799428
-0.12206784 0.1812424 -0.1548305 0.095034175 0.28890142 -0.19904381 0.17973231 0.09753925
0.18765798 0.06327197 0.1190135 0.06815545 -0.042156324 0.06589825 0.1480603 -0.0002610417
0.07459614 0.16123651 0.0948088 0.060932115 -0.14334466 0.21483134 0.20563537 0.08502666
0.108887844 -0.03746931 -0.12545188 0.19503625 0.3289289 0.0071605467 -0.052252714 0.15646759
0.06862918 0.034356285 0.040661104 0.21160924 0.08779731 0.04881596 0.059623104 -0.0438876
-0.037406027 0.15600388 0.03794252 0.09455909 0.2746981 0.10682195 0.27342504 0.07451235
0.046892226 0.1124814 0.04986581 0.10433537 0.059442118 -0.088013664 0.1024018 0.008280056
-0.009783285 0.18085444 0.0026894435 0.08534713 0.05228644 0.04595966 0.18113199 0.014039948
0.024338147 0.26814547 0.051752087 -0.047378357 0.19021769 -0.019766223 0.1957864 0.05360814
0.21731308 0.14906926 -0.01595597 0.03811977 -0.10911923 0.096605614 0.13963541 0.053452186
0.23110802 0.12422485 0.0598081 0.006765678 -0.016116913 0.08863586 0.07939981 0.08880635
0.04492809 -0.017510137 -0.083279535 0.17651406 0.14372243 0.10371857 -0.099983305 0.102240086
0.08580325 0.22509044 0.12779802 0.17787996 0.07016335 -0.06918305 0.056369152 0.13575315
0.0787211 0.092742 -0.023246491 0.135403 0.29296535 -0.059840877 0.072673395 -0.057670403
-0.070625976 -0.1343687 -0.29236403 -0.06210704 -0.20494321 -0.013246098 -0.15164028 0.013980645
-0.029481275 0.06379785 -0.21038865 0.110566586 0.23127706 0.15780014 -0.13095194 -0.021604415
0.03577436 0.07821451 -0.4079358 -0.002912196 -0.09555517 0.044960823 -0.08752957 -0.11270598
-0.035286635 0.003690311 -0.015192881 -0.07277538 -0.035680015 -0.061631028 -0.06408129 0.09391609
-0.012814946 0.16054754 0.13192654 0.091205955 0.25947934 -0.20800617 0.11503346 0.031835314
-0.11621939 0.092148006 -0.004388658 -0.09781964 -0.115207784 0.16630569 0.083553374 0.0032757823
0.14788903 0.112268016 0.19605379 0.05581157 -0.107055634 0.05114349 0.106822774 0.06445231
-0.120645955 0.023631332 -0.0116727995 0.055396132 -0.055039868 0.17136626 0.09513137 0.086660646
-0.5639183 0.20099412 -0.3699341 -0.21065265 -0.40066573 -0.061624173 0.03499645 0.052532714
0.14845613 0.07084034 0.017118085 0.10926868 0.09122192 0.257404 0.38112667 0.026670361
-0.078556366 0.020443046 -0.523092 0.25391436 0.07108984 -0.14739314 0.2886103 0.22461703
-0.022355279 -0.04072718 -0.17146029 0.056839094 -0.6223645 0.17749444 -0.29545105 0.22386928
-0.008888072 -0.33249688 -0.06438524 -0.18325453 -0.11073137 0.16323356 0.06817625 -0.0033923592
0.096777596 -0.13294597 -0.12722974 0.29476863 0.26528296 -0.12790857 -0.17772405 -0.40961462
-0.025120351 0.14157587 0.09196351 0.24793188 0.04536852 -0.04028037 0.012258428 0.05764401
0.025246317 -0.08782 -0.08755494 0.1016957 0.34904137 0.012328371 0.028903356 0.10865968
00000000: 6349 cdba 40f6 1f3e edda e43d 3987 b63d
00000010: 0631 243d ab6e 68bc 7ab7 083e 0442 fb3d
00000020: b3a9 243e 40b8 823b 4324 2b3b 50cc 00bd
00000030: 3c7f 033d ca72 2b3e 0068 003e 0db9 a33d
00000040: b4fe f9bd 9c97 393e e38b 1ebe 47a1 c23d
00000050: e3ea 933e 24d2 4bbe bf0b 383e a9c2 c73d
00000060: 6a29 403e bc94 813d 5abd f33d 1695 8b3d
00000070: 1cac 2cbd a9f5 863d 1f9d 173e 6ddc 88b9
00000080: dcc5 983d 2f1b 253e 1e2b c23d f493 793d
00000090: f1c8 12be bffc 5b3e 1492 523e 7522 ae3d
000000a0: 9700 df3d 6b79 19bd 7576 00be 95b7 473e
000000b0: 5e69 a83e 05a3 ea3b f106 56bd 0a39 203e
000000c0: 758d 8c3d 2db9 0c3d 428c 263d 18b0 583e
000000d0: 13cf b33d 3ef3 473d 5b37 743d 7cc3 33bd
000000e0: 1037 19bd 7bbf 1f3e 9e69 1b3d 32a8 c13d
000000f0: 3ba5 8c3e 77c5 da3d 5efe 8b3e ee99 983d
00000100: 1012 403d a65c e63d 1740 4c3d c8ad d53d
00000110: 9479 733d 8240 b4bd 09b8 d13d 12a9 073c
00000120: 124a 20bc e831 393e 6041 303b 7aca ae3d
00000130: 4e2a 563d 3240 3c3d aa7a 393e cf07 663c
00000140: cb60 c73c 5d4a 893e fff9 533d cf0f 42bd
00000150: 6dc8 423e c6ec a1bc 3b7c 483e 3694 5b3d
00000160: 5287 5e3e 9da5 183e 18b6 82bc 7a23 1c3d
00000170: e779 dfbd 2ad9 c53d 96fc 0e3e aef0 5a3d
00000180: 95a7 6c3e 9969 fe3d 57f9 743d 9fb2 dd3b
00000190: 9e07 84bc b886 b53d 5e9c a23d 1be0 b53d
000001a0: 8406 383d 6b71 8fbc 768e aabd 1ac0 343e
000001b0: f92b 133e 676a d43d 0cc4 ccbd 4063 d13d
000001c0: 9db9 af3d 1c7e 663e 7cdd 023e 2a26 363e
000001d0: cdb1 8f3d d8af 8dbd 57e3 663d e002 0b3e
000001e0: 8738 a13d 85ef bd3d 6d6f bebc 16a7 0a3e
000001f0: 8eff 953e b51b 75bd cad5 943d cd37 6cbd
00000200: 5aa4 90bd f397 09be bdb0 95be f463 7ebd
00000210: a2dc 51be 2906 59bc 9747 1bbe 130f 653c
00000220: b782 f1bc 72a8 823d 1f70 57be bc70 e23d
00000230: e5d3 6c3e 5c96 213e 4418 06be befb b0bc
00000240: 2388 123d ee2e a03d f6dc d0be 8bda 3ebb
00000250: 6eb2 c3bd d728 383d b442 b3bd 65d2 e6bd
00000260: b888 10bd 25d9 713b 90eb 78bc 420b 95bd
00000270: 3525 12bd d170 7cbd 0d3d 83bd 1457 c03d
00000280: c7f5 51bc 9366 243e c017 073e 30ca ba3d
00000290: 7ada 843e 92ff 54be aa96 eb3d bf65 023d
000002a0: 6e04 eebd 18b8 bc3d bbce 8fbb aa55 c8bd
000002b0: 0ff2 ebbd 0a4c 2a3e 081e ab3d 82ae 563b
000002c0: 3970 173e c6ec e53d 53c2 483e ac9a 643d
000002d0: fc3f dbbd d67b 513d e6c5 da3d 93ff 833d
000002e0: 3a15 f7bd 7f96 c13c 453f 3fbc 0ee7 623d
000002f0: 7c71 61bd a37a 2f3e 3cd4 c23d 237b b13d
00000300: f35c 10bf 67d1 4d3e 0168 bdbe 54b5 57be
00000310: 0f24 cdbe a169 7cbd 7058 0f3d 8b2c 573d
00000320: e204 183e bd14 913d 3a3b 8c3c 42c8 df3d
00000330: 8fd2 ba3d 75ca 833e 0923 c33e cd7b da3c
00000340: 29e2 a0bd 2d78 a73c 5be9 05bf 1001 823e
00000350: 8d97 913d 3aee 16be bbc4 933e 0202 663e
00000360: 6b22 b7bc 8bd1 26bd 4993 2fbe 1cd0 683d
00000370: 4853 1fbf 1ac1 353e 5c45 97be fd3d 653e
00000380: 479f 11bc 083d aabe 69dc 83bd 13a7 3bbe
00000390: 21c7 e2bd b326 273e fd9f 8b3d 5852 5ebb
000003a0: 5533 c63d fd22 08be 8348 02be eaeb 963e
000003b0: 2bd3 873e 77fa 02be 4bfd 35be 02b9 d1be
000003c0: 32c9 cdbc 44f9 103e 5d57 bc3d dbe1 7d3e
000003d0: 57d4 393d 07fd 24bd 93d7 483c 201c 6c3d
000003e0: 5dd1 ce3c f9da b3bd 0150 b3bd d645 d03d
000003f0: 8db5 b23e f0fc 493c bbc6 ec3c f788 de3d

fc2.bias f4 [64]
0.4094137 0.5704717 0.09580753 0.25820854 -0.04253998 0.34418812 -0.035745285 -0.38402808
0.51717365 0.0065832012 -0.06515316 0.52955323 0.07500868 0.4557686 0.33713755 0.48667714
0.20417091 0.06309062 0.2586179 0.08097136 0.4653401 0.46235952 0.55481595 0.4446989
0.44673768 0.5242588 0.45089912 0.5565323 -0.41010594 0.40137058 0.47098994 0.49866
0.19284414 0.28902754 0.45634088 -0.1681697 -0.0033587313 -0.34788266 0.4049466 -0.2168497
0.27469587 -0.06566486 0.15245226 -0.12544988 -0.44936118 0.095860854 0.43378317 0.44338202
0.173408 -0.05124888 -0.39825323 -0.031646684 0.46249524 -0.11439686 -0.034487408 0.4761672
0.3810241 0.3949911 -0.025745409 0.37646982 -0.13379611 0.37722883 -0.0092945 -0.071836054
00000000: ac9e d13e 6f0a 123f bd36 c43d e933 843e
00000010: 673e 2ebd 6d39 b03e a669 12bd 549f c4be
00000020: 7e65 043f e5b7 d73b 056f 85bd cd90 073f
00000030: 279e 993d 805a e93e 4b9d ac3e bf2d f93e
00000040: 2e12 513e a835 813d 9169 843e 50d4 a53d
00000050: 0f41 ee3e 63ba ec3e 6b08 0e3f 93af e33e
00000060: cdba e43e d335 063f 40dc e63e e778 0e3f
00000070: 68f9 d1be 7280 cd3e 9825 f13e 5d50 ff3e
00000080: ef78 453e 6bfb 933e 83a5 e93e ae34 2cbe
00000090: 291e 5cbb ad1d b2be 2955 cf3e d90d 5ebe
000000a0: f0a4 8c3e 4c7b 86bd 721c 1c3e ef75 00be
000000b0: ab12 e6be b252 c43d d418 de3e f802 e33e
000000c0: de91 313e 58ea 51bd d9e7 cbbe f49f 01bd
000000d0: 2dcc ec3e e748 eabd ab42 0dbd 30cc f33e
000000e0: 9715 c33e 463c ca3e 09e8 d2bc a7c0 c03e
000000f0: d901 09be 2324 c13e f547 18bc c81e 93bd

fc3.weight f4 [1, 64]
-0.19295421 -0.15308692 -0.25530306 0.24513459 0.3603372 -0.07476988 0.41217312 0.50017715
-0.10453586 0.19826406 0.31712452 -0.17895183 0.22278613 -0.093438245 -0.07788353 -0.17791595
0.27502298 0.07576369 0.28606635 -0.41373885 -0.16794333 -0.10258393 -0.10787478 -0.12553464
-0.105816536 -0.08090973 -0.11654309 -0.09783241 2.0446043 -0.121726185 -0.07876918 -0.09835493
0.20224665 -0.168527 -0.1382065 0.27048534 0.38242427 0.26636034 -0.16777673 0.2748797
0.2840169 0.10003613 0.23395655 0.40746385 1.4901142 0.28241748 -0.16545807 -0.18435083
0.3664555 0.33118114 0.39054456 0.18464868 -0.09144478 0.23818995 0.39874136 -0.14037924
-0.21294057 -0.17706272 0.39946476 -0.13691068 0.24092439 -0.18227103 0.3328072 0.08374731
00000000: ca95 45be d1c2 1cbe 15b7 82be 9004 7b3e
00000010: 1e7e b83e f320 99bd 5b08 d33e 9c0b 003f
00000020: e616 d6bd bc05 4b3e 255e a23e 263f 37be
00000030: 0c22 643e 8d5c bfbd 6681 9fbd 992f 36be
00000040: d0cf 8c3e fe29 9b3d 4a77 923e 94d5 d3be
00000050: 56f9 2bbe 8617 d2bd 74ed dcbd 278c 00be
00000060: 57b6 d8bd 00b4 a5bd 25ae eebd 5c5c c8bd
00000070: ccda 0240 944b f9bd bc51 a1bd 4f6e c9bd
00000080: bf19 4f3e 5892 2cbe 0186 0dbe 0e7d 8a3e
00000090: 1dcd c33e 6260 883e aacd 2bbe 08bd 8c3e
000000a0: aa6a 913e bedf cc3d 4e92 6f3e 1a9f d03e
000000b0: 10bc be3f 0699 903e d76d 29be 77c6 3cbe
000000c0: 0ea0 bb3e 9390 a93e 75f5 c73e 8b14 3d3e
000000d0: 6747 bbbd 11e8 733e d427 cc3e 93bf 0fbe
000000e0: 180d 5abe ee4f 35be a586 cc3e 5032 0cbe
000000f0: e2b4 763e 42a5 3abe b565 aa3e b683 ab3d
