SAC/sac/critic1_checkpoint_5.pth (torch, 23178 bytes, 5 tensors)

fc1.weight f4 [64, 13]
00000000: 6a51 17bc 40a4 563f f068 923d dbdc 6e3e
00000010: c3f9 0bbf 49d7 e4be 5435 873d 9e64 9ebd
00000020: d35e 3d3d b3f7 c7bd ee07 37be 65ff 963d
00000030: 2c7c f03c 4599 4e3e 10d8 a33e 2329 bc3d
00000040: bafc a7bd ce40 2c3d 70fc 0c3f 7d81 38bd
00000050: 5404 0b3e 1240 063f 6d6c dc3d 7ff5 8d3d
00000060: 747c 743c d5d9 273e 145c 003f eabe cb3e
00000070: 6952 f6bd 4d6e 423e 5a06 f93d 3106 2b3e
00000080: ce84 0dbe bcb8 f1bd f368 313e f180 d63d
00000090: b980 d63d acc1 aa3e 0ee3 273e fe1d 263e
000000a0: 8bc0 343e 5c4a 983d 3293 8cbe d6dc 82be
000000b0: 87ba 003e e510 ce3b fdf8 a5be 6213 f93e
000000c0: 0668 c6bc f21a 063d 92d1 dc3d ddb1 c3bd
000000d0: 6d39 a5be a72e ae3d 646d 87bd 23d8 22be
000000e0: 7694 06bf 5c3e 63be 2610 273c e8ea 713e
000000f0: ed87 21be 34c8 10bd 547a 2a3e f984 30bd
00000100: f162 103d 644a 3dbe ec86 7ebe 5694 0fbe
00000110: 40b9 89bf 0868 73bf 7a33 08bf 2d41 263e
00000120: d02e c73e e868 62be f273 45be e925 e1bc
00000130: b294 f2bd b875 c6bd 0ea4 6fbe 64da 103e
00000140: 352d 5abe e2c0 35be 50f2 3dbe bfa3 8e3e
00000150: 074a 7cbd 9c41 ac3d 92c9 f33d d363 3abd
00000160: d708 6a3e 03b1 2e3e 50ad db3c fe5b 103e
00000170: d38c 84be b449 8a3a 4f1b 52bf 5ca9 243e
00000180: 3fcb 65be 2b2c 533e 6594 dcbd 04b7 3ebd
00000190: bd67 c0bd 3bfe a43d 5ba4 a4bd 6cc8 9abd
000001a0: 192f cdbd 201a 3f3e 9898 843d 9f19 053e
000001b0: 0d65 06bf 0736 ffbd 21e1 a13e b7da 57be
000001c0: 23ae 4abe da21 f9bd a13e be3e 3cd4 893a
000001d0: 9cf9 0e3e 9be3 45bd 22a1 cf3d 8afa 65bc
000001e0: 89ec 48be 157d b7bd 040a cb3e bb14 70bd
000001f0: 57ae 583d f3d1 cf3e 5b31 303e b08a 753d
00000200: f130 d13d abb4 b23d 26c2 ecbd a8aa 253f
00000210: a9ff cc3c ec19 7ebd 2561 b53c f2bd 4b3e
00000220: dd29 4bbe 12d4 4e3d 5fff fc3e b30a 403b
00000230: 8fee ac3d 71dc 463e 2bb0 133e 106b 933e
00000240: 889e 513d 6bba 1c3e 0cef b4be 4d14 2dbe
00000250: 3fb3 5dbd ec0f 123e e9a2 773c 737d 963e
00000260: 70c5 823e 1e7e d13e 56f2 873e ec82 603e
00000270: 06cf 8bbb 4ff5 61be 7591 29be d729 09bf
00000280: a322 5c3c d622 ac3c e707 cebd 4ed7 b3bd
00000290: 455e 3abe 5b92 cbbd ab15 c5bc c80b 38bd
000002a0: 3b6f ebbd a391 623e c071 143f 05e0 8a3d
000002b0: 2163 ebbe 6929 843d 13c7 333e ba5d c4be
000002c0: 2e81 853e 7259 173e 8a0c ba3e f2d6 e4ba
000002d0: 329a 203e adda f83d c0ef fbbd 4c0b 563e
000002e0: 5218 2dbe 969c 89be 97bb aa3d ee0c 1b3f
000002f0: 2e4b bdbc d1c4 25be 852a ce3e 6fcc a63e
00000300: b6dd 483d dc13 ba3d f7bc 603c ffb9 00bd
00000310: 4bd1 023e 4e50 a33d 46bf fb3d 161f 47bd
00000320: 3d87 9f3e 3632 c7bd 05f4 1d3d 6ff6 033e
00000330: c6e2 543e a7f2 f23d 8700 873d e389 863e
00000340: 1b82 fe3e c486 263d f2e1 ccbd a0ee ddbc
00000350: e71b 09bf 4be7 723d c630 bebd 5139 cf3e
00000360: 3099 0f3e 255e 06be ba64 7ebc 4276 ffbc
00000370: 9a7b cebc 1663 323e 0336 a4bd 24d1 083e
00000380: 8f3a cdbd dfb1 9cbd c4dd db3d 222d 08be
00000390: ad7f 38be f7c5 d73e 6aca 593e 4799 f73c
000003a0: c7b1 90bc 0f66 133a d779 1cbd 7861 1f3f
000003b0: 356e a1bc 12db 95be 0aec a0bd a1fb 163d
000003c0: 1c06 1ebd 9400 683c dede 483e 696d 6c3e
000003d0: fb1d c5bd 9f0d b4bd 6038 fa3d 329c 1a3e
000003e0: 5445 633c 0940 943e 045e cabe a758 f83d
000003f0: f22c b83e 562a 25be bfcf afbd bd52 c13e
-0.009235719 0.83844376 0.071489215 0.23326437 -0.5467798 -0.446955 0.066019684 -0.07734035
0.04623301 -0.09764042 -0.17874119 0.073729314 0.029356085 0.20175655 0.3200078 0.09187534
-0.08202501 0.04205399 0.5507269 -0.045045365 0.1357587 0.52441514 0.10762868 0.0693159
0.01492225 0.1639169 0.501405 0.39794093 -0.12027437 0.18987389 0.121594146 0.1670158
-0.13820192 -0.118028134 0.17325191 0.10473812 0.10473771 0.33350885 0.16395208 0.16222379
0.17651574 0.07436058 -0.2745605 -0.2555911 0.12571155 0.006288635 -0.32416525 0.486476
-0.024219524 0.03274054 0.1078216 -0.09555409 -0.32270375 0.08504992 -0.066126615 -0.15902762
-0.52570283 -0.22191757 0.010196721 0.23624766 -0.15774508 -0.03534718 0.16648227 -0.043095563
0.035250608 -0.18485409 -0.24856156 -0.1402143 -1.0759659 -0.95080614 -0.53203547 0.162358
0.38902903 -0.22110331 -0.19282511 -0.027483897 -0.11844768 -0.09690422 -0.23402426 0.1414581
-0.21306308 -0.1774936 -0.18549466 0.27859303 -0.061594035 0.084109515 0.11903681 -0.045505356
0.22854935 0.17059712 0.02681604 0.14097592 -0.2588869 0.001055053 -0.8207292 0.1608023
-0.22440813 0.20622317 -0.107704915 -0.046561256 -0.093947865 0.08056303 -0.08039161 -0.07557759
-0.10018749 0.1866231 0.064744174 0.12998055 -0.5249794 -0.12461477 0.31617072 -0.21079527
-0.1979299 -0.1216466 0.37157157 0.0010515521 0.13962406 -0.048312765 0.101381555 -0.014036784
-0.19621481 -0.089594044 0.3965608 -0.05861352 0.05290064 0.40589866 0.17206328 0.059946716
0.10214413 0.08725866 -0.115604684 0.64713526 0.025024252 -0.06203644 0.022141049 0.19896677
-0.19840188 0.050495215 0.49413583 0.0029303252 0.08443939 0.19420029 0.14422671 0.2879262
0.051176578 0.15305488 -0.35338628 -0.16902275 -0.05412602 0.14263886 0.015114524 0.29392585
0.25541258 0.40916532 0.26552075 0.21924943 -0.0042666225 -0.22066234 -0.16559394 -0.5357947
0.013435992 0.021012705 -0.10060101 -0.087813005 -0.18200023 -0.099400245 -0.024058184 -0.04493311
-0.11495825 0.22125868 0.5798607 0.067810096 -0.45974067 0.06453211 0.1755641 -0.38352758
0.2607512 0.14780214 0.36337692 -0.0017459078 0.15683821 0.12151084 -0.12301588 0.20902747
-0.16903809 -0.26877278 0.08336561 0.60566604 -0.023107138 -0.16188361 0.40266815 0.32577845
0.049039565 0.09085819 0.013716928 -0.03142738 0.12775151 0.07974301 0.12292342 -0.04861363
0.31157866 -0.09726374 0.038562793 0.12886976 0.20789632 0.118626885 0.065918975 0.26277074
0.49708638 0.040655866 -0.10004033 -0.027091324 -0.535582 0.05930261 -0.092866465 0.40473416
0.1402328 -0.13121851 -0.015526945 -0.03118432 -0.025205422 0.17420611 -0.080181144 0.13361031
-0.10020935 -0.07651114 0.10735658 -0.13298467 -0.18017454 0.42143223 0.21268621 0.030224456
-0.017662896 0.0005622813 -0.038202133 0.622581 -0.019705871 -0.292687 -0.07857521 0.036861066
-0.038580045 0.014160294 0.19616267 0.23088612 -0.09624859 -0.087916605 0.12217784 0.15098646
0.01387151 0.28955105 -0.39524853 0.12126284 0.3597179 -0.16129431 -0.08584546 0.37758437

fc1.bias f4 [64]
00000000: d010 ae3e b503 01bf 163f 2d3e 048e fd3d
00000010: e8fd 143f ba0a 263f c9ad 0f3f d9a2 0a3f
00000020: b3e8 903e e5b2 293e ee38 613d 73b3 2d3e
00000030: 9061 4a3f 44d6 8c3e 3996 45bd a2b6 a1bd
00000040: 1c55 963e e47f 87be b277 d0be ad5d a53e
00000050: 130b 063f bdf5 e8bd 9ec5 8c3e 500b 1e3d
00000060: 22e1 193d d393 a9bd 372a 773f 62ca 143f
00000070: 41fa 22bf 5734 993d bdc2 0b3e a378 a43e
00000080: 7f87 d2be 3be9 aabe 71de 2f3b 3dc2 2c3f
00000090: e73f d63e 2db3 30be 6577 a5bd 96ee d83e
000000a0: 8310 0a3e 9926 92be 04c4 183e 27b7 223f
000000b0: af25 3cbe baf2 1d3d 2a82 23be 91eb 1b3e
000000c0: 8e90 243f 3383 4d3e 872d 9d3e accb 673c
000000d0: df27 743f 89bf 073f 67fa 7e3d c87c 833e
000000e0: 0347 493f 5450 493f 1dac 373f 5dcc fd3e
000000f0: 2a6e 003e 07e5 213f ccfa 0bbe 203d a03e
0.33997202 -0.5039628 0.16918597 0.12380603 0.5819993 0.6486012 0.5612455 0.54154736
0.28302535 0.16572149 0.054985933 0.16962986 0.7905512 0.27507222 -0.048238967 -0.078961626
0.29361808 -0.2646476 -0.4071632 0.3229803 0.5236065 -0.11374996 0.2749452 0.038585007
0.03756822 -0.08280148 0.9654879 0.5812131 -0.6366311 0.07480686 0.13648506 0.3212329
-0.41119 -0.33381066 0.0026835466 0.67483884 0.4184563 -0.1725585 -0.08079413 0.42369527
0.13482861 -0.28545073 0.14918524 0.6356072 -0.1837375 0.03856156 -0.15967622 0.1522658
0.6428307 0.2006958 0.30698797 0.01414768 0.9537334 0.53026634 0.06225052 0.25681138
0.7862398 0.78638196 0.71747 0.4956998 0.12542024 0.63240093 -0.1366989 0.31296635

fc2.weight f4 [64, 64]
00000000: 0238 ab3d 7b0d 30bd b9d8 25be e8d3 3ebb
00000010: c7ce a53d cbb9 d7bc 61cd 483e 0815 433e
00000020: 4934 00be 92fc 893e 5f2f 5abe a8a2 8e3d
00000030: f024 6b3d 71a5 423d f071 16bd 7b36 84bd
00000040: d4cf b43d 2915 12be 96e1 053e 470d d73d
00000050: b098 82bd 3a3f f1bc f881 913c 1107 34bd
00000060: 57ca e83d fa71 e4bd 0812 aebd f309 193e
00000070: 1bba 59bc 53ce 313d 0530 98bd 3869 253e
00000080: c1d7 f13d c71f b33e 6d51 3f3e e741 a4bd
00000090: d383 853e 5995 b73d aa13 4dba 19ae 7d3d
000000a0: 23e5 5a3d 1a2b 57bd c4fe 58be cd9e 93be
000000b0: c21a 733e f056 613e 5bf1 723e 0660 8e3e
000000c0: 3de2 89bd 25cf 0dbe aa6e 0a3c ec39 353d
000000d0: 5f5b 533d 107c 00be dac6 8e3b 2507 7d3d
000000e0: cc92 873e 2abe ddbd bb2d b83d 1f45 82bd
000000f0: 5e0a 8d3c 9fde 613e af45 5bbd c240 843e
00000100: 3ad2 1dbb ed28 17bb 2631 933c c25a 4fbd
00000110: 3ae5 f2bd 4d68 cabd 5972 e0bb b29f 88be
00000120: 682a 613e 5b51 77be 1972 b6be 7260 a6bd
00000130: 208a 0fbf f595 3b3d d594 adbc f19a 5f3d
00000140: 1919 c83d b66c 4d3c 84c9 52bc 8e0a f7be
00000150: ea74 11be c12e 883d 4611 e4bd 3522 e43d
00000160: 041f 76be 5117 1ebd b603 bebe 8597 d83d
00000170: 5fee 833d 59da 9f3e 34ae 1ebf 8565 80bd
00000180: d5b2 1b3e 3b12 3b3e c243 dabe 5aa6 d0be
00000190: 1530 80be b90c 033e d175 163d 59d7 9cbe
000001a0: 54f2 97be b3d4 72bd d9d0 d9be 56a2 82be
000001b0: 9bbc 16bc 4a43 c1bb f61e 593e 99f0 78be
000001c0: 349d 9a3d 5645 b2bd 6038 2ebe 2cab 05bf
000001d0: 8603 a23d 83e3 22be 2133 743d 3309 7abd
000001e0: 32f7 95be 4248 ecbd a9a1 2dbf fdf6 19be
000001f0: 5f59 af3c f5e1 61bd 48a7 9dbd 0c56 03bd
00000200: 1158 b73d 47b5 3b3e 7907 3b3e 4945 053e
00000210: 01da a63e 1206 be3b 43fe 563d c4ce 8d3d
00000220: bd99 563e 51be ab3e 42b3 983d 01d0 493d
00000230: 13ae 013e c883 973d 7819 bd3d 9019 1b3e
00000240: ffab e63d 87fb bc3d 0624 75bd a99a 413d
00000250: 8984 f93d 2a64 673c 6fc0 503e a436 f43d
00000260: 2c63 0c3c b90b 19bd b1f9 883c dcd1 3f3e
00000270: e86e dcbd 04d8 3a3e 9b5a 053e 9c5e 6c3d
00000280: 2154 c1bc 7585 17bb 6ea9 17bd b5bf 463e
00000290: 5e94 8f3e d96d 763d 5303 f93d ca98 e93d
000002a0: 5237 903e d7dd d63d cfa2 2c3d 1183 353e
000002b0: 8d6e db3d d082 173e 065f ccbb 9ca0 5e3e
000002c0: c325 a33d 9871 003e 512d 093e ef52 0d3e
000002d0: d488 223e bdff 393e 921d 473e 073e 1c3d
000002e0: ad86 733e f055 453e 23ae 1b3e 695e d5bc
000002f0: 6d16 6f3e 0385 103e b49c 863c 8b90 e63d
00000300: a8b8 a5bd 4e74 76bc 9ce7 8c3d b2c3 d7bd
00000310: d6c7 0fbe 04ce 5bbd 7fc9 0dbe 3b10 c3bd
00000320: 8825 8a3c 214b dc3c 5c8d fcbc be59 b9bc
00000330: 475d 0abd 5661 f9bd 6d64 373d 1442 9ebd
00000340: be7f 15be 706c 8bbc 047f de3d b02d 26bd
00000350: 4370 8e3d 906e 7bbc f877 90bd a01f 0fbc
00000360: 4802 07bd 9c71 19bd 3850 a2bc ab7b ccbd
00000370: 6239 0bbc 4655 293d 50d5 273d 388d 183d
00000380: f299 13bd 1033 153d 6275 a4bd 1182 86bd
00000390: 6c52 5e3d 2022 c7bd 034d c03d dab6 dd3c
000003a0: 2eec 6bbd 4a1d 733d 725c 5b3d a2fb 35bd
000003b0: ae33 953b 72c0 78bd dca6 03bd 7871 f1bc
000003c0: a4dc ad3d c0b5 f1bb e8a7 443d 969d bb3d
000003d0: eabd afbd 1a90 98bd 4f33 0e3d fa2a 4d3d
000003e0: 1649 493c c2c7 f5bd a894 90bd 9602 68bd
000003f0: 4fe8 cbbc 27ed fabd 1498 123b 619e d0bd
0.08360292 -0.042981606 -0.16195954 -0.0029118005 0.0809608 -0.02633371 0.19609596 0.19050992
-0.12519945 0.26950508 -0.21307133 0.06964618 0.057408273 0.04752106 -0.036729753 -0.06455704
0.088287026 -0.14265884 0.13074335 0.10500579 -0.06376779 -0.029449094 0.01776217 -0.04395205
0.11366718 -0.11154552 -0.08499533 0.14945202 -0.013289 0.043409657 -0.07431034 0.16153419
0.1180873 0.34985182 0.18683405 -0.080203824 0.26077136 0.08964033 -0.00078230596 0.06193361
0.053441178 -0.05253134 -0.21190935 -0.28832093 0.23740676 0.2200582 0.23724882 0.27807635
-0.06732605 -0.1384855 0.008449236 0.04424469 0.05160081 -0.12547326 0.004357201 0.06177439
0.26479185 -0.108272865 0.089930974 -0.0636084 0.017216858 0.2205758 -0.053533252 0.25830656
-0.0024081604 -0.0023065165 0.017967772 -0.050623663 -0.11860128 -0.09883175 -0.006849569 -0.26684338
0.21988833 -0.24152128 -0.35633925 -0.08123864 -0.5607014 0.045797307 -0.021189133 0.054591123
0.09770412 0.012538126 -0.012865428 -0.4825024 -0.14204755 0.066495426 -0.11136107 0.11139337
-0.24035269 -0.038596455 -0.37112206 0.10575775 0.0644195 0.31221274 -0.6198456 -0.06269363
0.15204938 0.18268673 -0.4262982 -0.40751916 -0.25036684 0.12797822 0.036733452 -0.30633047
-0.2967707 -0.059284877 -0.4254215 -0.25514477 -0.0092002405 -0.005897914 0.21203217 -0.2431053
0.07549515 -0.08704631 -0.17013693 -0.5221431 0.07910828 -0.15907101 0.059619073 -0.06104393
-0.29290158 -0.115372196 -0.678248 -0.15035625 0.02140492 -0.05514713 -0.07697922 -0.032064483
0.08952344 0.1833087 0.1826457 0.13014711 0.325882 0.0057990635 0.052488577 0.06924203
0.20957084 0.33543637 0.07456066 0.049270634 0.1266406 0.07398182 0.092333734 0.1514647
0.112632744 0.092276625 -0.059848808 0.047266636 0.12183482 0.014123002 0.20385908 0.11924484
0.008568566 -0.037364695 0.016720625 0.18732399 -0.10763341 0.18246466 0.13022844 0.057707414
-0.023599686 -0.0023120318 -0.037026815 0.19409068 0.28042883 0.060163353 0.12158837 0.11406095
0.28167206 0.10491531 0.042147454 0.17725779 0.10714445 0.14795995 -0.0062369136 0.21740955
0.07966187 0.12543333 0.13396193 0.13801168 0.15872508 0.18163963 0.19444874 0.03814509
0.23781843 0.19271064 0.15203147 -0.026045995 0.23348399 0.1411324 0.016432144 0.11258038
-0.08091861 -0.015042378 0.068801135 -0.10535373 -0.14041075 -0.05366327 -0.13846396 -0.0952458
0.0168636 0.026891293 -0.030829124 -0.0226258 -0.033780362 -0.121767685 0.044773508 -0.07727447
-0.14599511 -0.01701948 0.1086407 -0.040570915 0.06955006 -0.015346184 -0.07054132 -0.008735567
-0.03296116 -0.037461862 -0.019813642 -0.09984525 -0.008497568 0.04134109 0.040974915 0.03724405
-0.036035486 0.03642565 -0.080302015 -0.06567777 0.054277822 -0.09723306 0.09389689 0.02706473
-0.057598285 0.059354104 0.05355496 -0.04442943 0.00455328 -0.060730405 -0.03214155 -0.029473051
0.084893495 -0.0073764026 0.04801169 0.091609165 -0.08581145 -0.0744936 0.0347169 0.050089814
0.012285491 -0.120009914 -0.07059604 -0.05664309 -0.024891047 -0.122522645 0.0022368478 -0.101864584

fc2.bias f4 [64]
00000000: 4dde 8c3d 404c 72be 82fc 0b3f dfda 18be
00000010: 5e5b c13e a163 cabe d22f dbbd 9c62 d1bd
00000020: e707 e63e 61a4 fc3e 1d5f 4f3e b76c 9bbd
00000030: b6da df3e 3acf a43e 2968 bf3e 1c8e f1bd
00000040: 416e 723e 1dc0 543d 5b4a aa3e 4ac4 d1bc
00000050: 7d9c cb3e 7617 abbe edd7 5d3e bfea 8ebe
00000060: 6bed bebd 6611 f33e 59b8 b63e ce51 a53e
00000070: aea7 bb3c edc4 ab3e 46bd edbd e686 9abd
00000080: 1a03 fd3e ff18 a73e b9b3 13be 2b90 d53e
00000090: 1a54 c63e 8095 b43e 642b f53e f4f4 e43e
000000a0: 5307 a83e 1d17 d53e e7ea bf3e cf0b f13e
000000b0: bc6a f23e c792 87be cb72 933e 1c10 de3e
000000c0: 7cbf fa3e 5862 a1bc 596d a33e 703f 9bbe
000000d0: b132 d43e 51ea 4c3d 0653 b83d 6708 823e
000000e0: 49a0 c93e 610d a5be c22e 0bbe 104c b0be
000000f0: 16a2 a6bd 4370 c03e 5c8c 83be f50e c73e
0.06878338 -0.236619 0.5468217 -0.14927243 0.3776502 -0.39529136 -0.107024804 -0.10223886
0.44927904 0.4934416 0.20251127 -0.07589095 0.4372155 0.3218935 0.37384155 -0.11794683
0.23674871 0.051941026 0.33259854 -0.025606293 0.3976783 -0.33416337 0.216644 -0.27913472
-0.09322628 0.4747421 0.3568752 0.32288975 0.022907104 0.3354868 -0.11608367 -0.07545261
0.4941643 0.32636258 -0.14424028 0.41711554 0.3873604 0.3527031 0.47884667 0.44718134
0.32818088 0.41619197 0.37483904 0.47079322 0.47347057 -0.2647917 0.28798518 0.43371665
0.48974216 -0.019700214 0.31919363 -0.30321836 0.41444924 0.05002815 0.090002105 0.25397035
0.393801 -0.3223677 -0.13592055 -0.3443303 -0.08136384 0.3758565 -0.25693023 0.388786

fc3.weight f4 [1, 64]
00000000: c94a d73e 09e4 8d3e d36a 7dbd a7cc 63bd
00000010: 7c0f eebd 4b70 f53e d044 473f ecda c83e
00000020: b2cd b4bd a57a 8fbd beae ee3e d3d2 bf3e
00000030: a8d3 9bbd bd72 54be 0387 3ebd 7ef4 dc3d
00000040: 9864 87bd e744 d43e 0ef4 2cbe 7e59 fbbe
00000050: 8a87 f4bd 556d a63e 8ffb a93e c1c2 bb3e
00000060: 0595 c73e c8b5 1bbe c493 34be b49f 40be
00000070: 58a2 e43e d67e 0ebe 5817 963d d5b4 3d3e
00000080: 4db0 8bbd 3763 c6bd 81a1 ca3d 4d5e c5bd
00000090: 7c32 acbd 38f8 ccbd f1d2 e7bd 0ce6 14be
000000a0: 4b0e e3bd 7fd0 8fbd c5d2 d4bd 8728 1fbe
000000b0: f819 45bd a8b3 b23e f70f a53e 3967 9cbd
000000c0: 9290 04be ee2d c23e 9b54 4bbd 5e6b 633e
000000d0: 63f3 0dbe 28b1 d63e 0fc6 553c acc7 e5be
000000e0: a207 bfbd fd7e fe3f f9ba 993e 7c42 893e
000000f0: c3d2 cb3e 872f 30be 94d9 b03f b12c a8bd
0.42049244 0.2771304 -0.061869454 -0.055615094 -0.11624047 0.47937235 0.77839375 0.39229524
-0.08828296 -0.070058145 0.46617693 0.37465534 -0.076087296 -0.20746894 -0.046515476 0.10788821
-0.066109836 0.41458818 -0.16889974 -0.49091715 -0.119399145 0.3250529 0.33199736 0.36672023
0.3898088 -0.15206063 -0.17634493 -0.18810922 0.44655108 -0.13915572 0.07328671 0.18526013
-0.06820736 -0.096868925 0.09894086 -0.09637127 -0.08408067 -0.100082815 -0.11319531 -0.14540881
-0.110867105 -0.07022189 -0.103917636 -0.15542804 -0.04812047 0.34902692 0.32238743 -0.07636876
-0.12945774 0.37925667 -0.049641233 0.22208926 -0.13862376 0.41932034 0.013047709 -0.448789
-0.09327628 1.9882504 0.3002546 0.26808536 0.39809236 -0.1720563 1.38164 -0.08211649
