SAC/sac/critic2_checkpoint_3.pth (torch, 23178 bytes, 5 tensors)

fc1.weight f4 [64, 13]
000000 20 a9 dd 3e 76 32 12 bf 07 82 15 be 75 dd 23 bc
       0.43293095 -0.5710825 -0.14600383 -0.01000153
000010 a8 c8 61 be e5 f8 4d 3e 2c 59 0f be 0d 23 1b be
       -0.220492 0.20114477 -0.1399886 -0.1515009
000020 81 58 cb 3d 5a 53 12 3f 05 ef 53 3e 50 dc 8b 3e
       0.0992899 0.57158434 0.20696647 0.27316523
000030 c8 c6 19 3e e1 a0 d6 bb fd b8 c1 3e 03 93 de 3d
       0.15017235 -0.00654994 0.37836447 0.10867884
000040 7c 38 34 bf 30 4f 15 bf e6 a6 45 be a2 94 55 3e
       -0.7039869 -0.58323956 -0.19301948 0.2085748
000050 5a 03 16 3e 06 59 59 3b 8f 08 0b be 72 52 a5 be
       0.14649716 0.0033164634 -0.13577484 -0.32289463
000060 b1 e3 d6 3c 66 42 0f be 3f 56 87 3d aa b6 04 be
       0.026231619 -0.13990173 0.06608247 -0.12960306
000070 a5 a5 28 3d b8 23 2c be 3a 30 05 bf fd 04 a0 bd
       0.041173596 -0.168105 -0.5202671 -0.078134514
000080 e8 bb 1e 3f bd c4 42 bd f8 28 54 be 7f f7 eb 3b
       0.6200547 -0.047550905 -0.20718753 0.0072011347
000090 b4 0f 6c 39 33 2c bb 3c 73 9a 78 bb 6d 1c a9 3e
       0.00022512564 0.022848224 -0.0037933856 0.330295
0000a0 ea 9a 1f 3e 16 db e8 3d 4d a5 b8 bc 2d 3e 83 bd
       0.15586439 0.11369912 -0.022539759 -0.064083435
0000b0 f5 63 49 3f 19 22 1e be 16 a7 91 3e 5e 7b 55 3e
       0.7866815 -0.15442695 0.2844779 0.20847842
0000c0 1a 07 67 3e 50 f6 ea 3c bf c8 2e 39 77 ad f8 3d
       0.22561303 0.028681904 0.00016668717 0.12142461
0000d0 3a 4b 60 be ea 84 1b bf dc 6f 5c 3b bf d6 5b 3d
       -0.21903697 -0.60749686 0.003363601 0.053671595
0000e0 8e 66 86 3d 6e a6 ca bd e8 8b 35 be fb a7 ab 3d
       0.065625295 -0.09895025 -0.17729151 0.08381649
0000f0 ee 26 52 be 95 e3 25 3e 0a c3 c9 bd 57 cc de bd
       -0.20522663 0.16200097 -0.09851654 -0.108788185
000100 9c a9 37 bd f7 20 3f 3e d8 f7 6a be 0a 61 ac 3d
       -0.044839486 0.18664919 -0.22946107 0.08416946
000110 45 2d 04 be db 67 15 3e f4 cc 7a be 01 fa 7e 3e
       -0.12907894 0.14590399 -0.24492246 0.24900056
000120 d3 27 c5 3d 43 98 d1 be 33 eb 76 bd 2b a5 52 be
       0.096267365 -0.4093648 -0.060282897 -0.20570819
000130 6b 33 67 bd 43 35 72 be 8f 2a f1 be c0 e5 00 3e
       -0.05644552 -0.2365313 -0.47102782 0.12587643
000140 a5 d2 c4 bd 51 65 df be 9f c2 9d 3d 63 de 8a be
       -0.0961049 -0.43631986 0.07703137 -0.27122793
000150 62 dc 8c 3e 97 3f 16 3d ea d0 a5 be a5 0d 0f be
       0.2751189 0.036681738 -0.3238595 -0.13970049
000160 18 e8 91 3d 07 23 ee 3d a8 74 c3 3d 68 20 67 be
       0.071243465 0.11627775 0.09543735 -0.22570956
000170 e7 67 8a be b5 0e a0 be df e2 9a bf c0 b8 bd bc
       -0.27032396 -0.3126122 -1.2100486 -0.023159385
000180 ef 95 67 be 1e a5 73 3f 06 07 22 3e ca 50 41 be
       -0.22615789 0.95173824 0.15822992 -0.18878475
000190 0b 0e b8 be c9 0c 32 3b 75 f7 55 3c c1 c2 8a 3d
       -0.35948214 0.0027168265 0.013059487 0.067754276
0001a0 5e 78 44 be 50 5d 40 3e 46 30 44 bd 5a 13 22 be
       -0.19186541 0.18785596 -0.0478976 -0.15827695
0001b0 73 0d 99 be e7 fd 8e 3d 03 4f ca be 4d 14 4c 3e
       -0.29893073 0.06982022 -0.39513406 0.19929619
0001c0 e8 66 8a 3d 13 d4 ee bd 75 ea 9f 3d 39 ea 72 3e
       0.06757909 -0.11661544 0.07808391 0.23722161
0001d0 92 50 8d 3d b9 2d 03 be ba 67 c7 be 72 d5 6d bd
       0.06900133 -0.1281041 -0.38946325 -0.058064885
0001e0 8d 2c 76 3e 42 20 63 be 4b 94 05 be 67 5f a0 bc
       0.24040432 -0.22180274 -0.1304485 -0.019576741
0001f0 01 e8 27 3d 2a 27 c4 be a8 e7 33 be 18 48 87 bd
       0.04099274 -0.3831113 -0.17568839 -0.06605548
000200 a8 b5 dd bd 02 46 58 bd 89 bb e7 bc 7a e5 78 bd
       -0.10825664 -0.05280114 -0.028287666 -0.06076572
000210 70 bc ad 3e 33 50 3a 3e 41 da 21 bf 77 c2 f0 bd
       0.3393283 0.18194656 -0.63223654 -0.11755841
000220 3c cf 83 3e d0 24 4e 3e 87 ad 09 3b 1b f9 0c 3d
       0.25744045 0.2013123 0.0021007971 0.034417253
000230 3a 8a f9 3e 33 ab c6 3e eb ba f7 3d 93 70 b4 be
       0.4873827 0.3880249 0.12096199 -0.35242137
000240 98 3c b7 3e 91 af 02 bc 8f 5d 76 bf 1f 1b a0 be
       0.35788417 -0.007976429 -0.9623651 -0.31270692
000250 ae f8 01 bf 98 ae ee bd 60 6e 09 be b4 e2 c0 bd
       -0.5077008 -0.11654395 -0.13421011 -0.0941824
000260 b3 ee b4 bd 03 11 b1 3d fc ec 50 3d 73 c2 ab bd
       -0.08834591 0.08645823 0.051007256 -0.083866976
000270 16 8b 5f be 5f 6e a9 be 0c e9 a3 be 1c ba 07 bf
       -0.21830401 -0.3309202 -0.32013738 -0.53018355
000280 9a 04 07 3d f1 b6 39 3d b2 b1 47 be 20 17 c0 3d
       0.032963373 0.045340482 -0.19501379 0.09379411
000290 a7 ff b7 be cb b2 bb bd b0 84 14 be e7 8c ac 3e
       -0.35937235 -0.091649614 -0.14503741 0.3370125
0002a0 6b bf 0d 3d 78 0c 7d 3e 50 b7 26 be 97 6d 27 3e
       0.03460638 0.24711788 -0.16280866 0.16350399
0002b0 42 e6 c7 be 91 b6 9b be 99 7c bf 3e 0c 7a d5 3d
       -0.3904286 -0.30412725 0.37399748 0.10423669
0002c0 fc 28 21 bd 31 f6 c5 3e 0d 84 d0 3e 65 2f cf bb
       -0.039345726 0.38664392 0.40725747 -0.0063227885
0002d0 02 49 5b 3c 94 05 8b bc a4 b8 1c bd 8e 96 38 3e
       0.013384106 -0.016970433 -0.038262025 0.18026182
0002e0 3f 94 52 3e b4 96 89 bd 45 3a 30 be 17 fd 98 bd
       0.20564364 -0.067181975 -0.17209728 -0.07470148
0002f0 b1 61 7b be e1 30 29 be 8a 4e ae 3e bb e3 4d 3e
       -0.24548985 -0.16522552 0.34044296 0.20106404
000300 0c ee 46 3e 17 c9 c2 3d 10 34 69 3e 07 6f 64 bd
       0.19426745 0.09511011 0.22773767 -0.055769946
000310 08 18 6c 3f 46 2f 30 be 42 a6 c6 3d a5 02 0f be
       0.9222417 -0.17205533 0.0969968 -0.13965853
000320 42 4b c8 bd 68 ef ed be 21 d2 0a bd ac 75 11 3d
       -0.09779979 -0.46471715 -0.0338918 0.03551261
000330 2a 89 f3 3d d8 9a fc 3b 3c d0 e4 bd 1d 35 58 be
       0.11891396 0.0077088885 -0.1117253 -0.21114011
000340 b5 89 15 be f0 3f a9 3e 21 99 9d 3e f5 cc 85 be
       -0.14603312 0.33056593 0.3078089 -0.26132932
000350 70 2e ad 3d 9b 4c 08 3d f4 5d 53 be b3 59 83 3e
       0.08456123 0.03327618 -0.20641309 0.25654373
000360 44 04 85 bc 83 21 f8 bc b6 27 aa 3d 8b c6 09 be
       -0.016237386 -0.030289417 0.083083555 -0.13454644
000370 05 1b 6e 3e c9 3e 80 be 55 12 64 3e 04 52 d9 3c
       0.23252495 -0.250479 0.22272618 0.026528366
000380 57 02 42 be f5 be 25 3e 5b e7 5c 3d 18 15 42 3d
       -0.18946205 0.16186126 0.053931575 0.047383398
000390 46 9b 57 3e 30 75 b9 be 28 cd bc bd f3 a7 9f bd
       0.21055326 -0.3622222 -0.09218818 -0.07795706
0003a0 61 ce 0d 3e 79 6e 5d 3e 4d 0a 81 be 19 85 ca 3e
       0.13848259 0.21624173 -0.2520317 0.3955467
0003b0 42 01 cb 3d ed a5 4b bc b9 44 51 3d 6c f3 b6 3e
       0.09912349 -0.0124296965 0.05109093 0.3573259
0003c0 5d 9b ee bd b8 44 f1 3e 60 1c bf 3e 67 61 88 3d
       -0.11650727 0.4712274 0.37326336 0.06659203
0003d0 a7 b7 55 3e b7 f8 61 3e 3c 8f 67 3c 13 9e ae bd
       0.20870839 0.22067533 0.014133271 -0.08526244
0003e0 5f ca d3 3e f3 22 78 3e b9 d7 c2 be 29 2f 86 be
       0.41365334 0.24232082 -0.38055208 -0.26207855
0003f0 ce 4f 71 3e e2 76 06 be 26 8e f1 bd 3d f9 86 3e
       0.235656 -0.13131288 -0.11794691 0.2636203

fc1.bias f4 [64]
000000 8c 72 e7 bd d0 57 4d 3f ea 50 2b 3e f7 5c 13 be
       -0.11301145 0.80212116 0.16730085 -0.14390932
000010 eb 32 4c be bf d0 7d 3e f2 f8 68 3e d9 5e 46 3f
       -0.19941299 0.24786662 0.22751215 0.77488476
000020 1b 71 3b 3c c7 88 36 3e ad 85 19 3f 07 2e 02 3f
       0.011440541 0.17825614 0.599696 0.5085148
000030 cc c6 e3 3e 66 92 8b 3d 27 23 8c 3e ca e0 de bd
       0.44487607 0.06815033 0.2737057 -0.10882719
000040 9c 01 6c be ce 2b 15 3f 94 9d e7 be 4c ad 2c 3f
       -0.23047489 0.58269966 -0.4523741 0.6745193
000050 5d 2b 5b 3f 0f 77 f6 3d 49 0e 42 3f 3c dd 42 3f
       0.8561304 0.120344274 0.7580305 0.76118827
000060 d8 64 38 3e af 9c 12 3f bc 87 6d 3d 9b 8f 03 3d
       0.18007219 0.5727033 0.057990775 0.032119375
000070 b4 06 8e be 49 7b 0a 3f 97 91 2f bd ae c3 de 3d
       -0.2773949 0.5409437 -0.042863455 0.10877167
000080 cf 5b 41 3f df 7a 17 be 94 bc 13 3e 03 18 c2 3e
       0.75530714 -0.14792965 0.14427406 0.37908944
000090 5d 7f bc 3d f9 44 f8 3e 0a 64 fa 3e 85 de 0f 3f
       0.0920398 0.48490122 0.4890445 0.5619891
0000a0 83 19 3a 3f 8a d7 17 3e 86 fd 7e bc 0d 62 a2 3e
       0.7269518 0.14828315 -0.015563374 0.31715432
0000b0 86 35 3c 3f 5c 5f 2e 3f 94 17 dd bd e5 fa a1 be
       0.7351917 0.68114257 -0.10795513 -0.3163673
0000c0 b7 6c 86 3f 4e 41 23 3f 96 3b 63 3f e1 a7 3f 3f
       1.0501927 0.6377152 0.88762796 0.7486554
0000d0 dd 24 3e 3f 9b 04 67 be 66 d3 25 3f 82 d4 1a 3d
       0.74275 -0.2256035 0.64775693 0.03780032
0000e0 17 37 ae 3e 6f 7f b9 3d 03 de a3 3e f8 e5 61 3e
       0.34026405 0.09057509 0.3200532 0.22060382
0000f0 4f f4 9a 3e 86 a2 95 be e0 52 5a 3f 68 d4 5e 3e
       0.30264518 -0.29225558 0.8528271 0.21760714

fc2.weight f4 [64, 64]
000000 6b 41 8a bb a2 89 28 3e ea 21 13 3e f2 e4 9c 3d
       -0.004219224 0.16458753 0.14368406 0.07660855
000010 a0 2a 12 3d df 29 f0 bc 30 ff 0f 3e 33 d2 eb 3d
       0.03568518 -0.02931684 0.1406219 0.11514702
000020 85 a7 2f 3e 25 e9 0c bc 9c 2d 34 3b 4d 67 25 bd
       0.17153747 -0.008600508 0.0027493006 -0.04038172
000030 40 af 01 3d 40 3d 50 3e 7d 96 f4 3d 74 c6 d0 3d
       0.031661272 0.20335865 0.11942766 0.10194102
000040 78 da 00 be ef fa 4d 3e e0 01 37 be eb d6 a9 3d
       -0.12583339 0.20115255 -0.17871809 0.082929455
000050 3e 26 9a 3e d4 4d 61 be f6 1a 30 3e 5f db 8a 3d
       0.301073 -0.22002345 0.17197785 0.06780123
000060 c0 24 50 3e 00 55 80 3d 4a 64 e6 3d 65 9b 96 3d
       0.20326519 0.062662125 0.11249597 0.07353858
000070 f3 3a 95 bd 09 10 90 3d 7b a5 3e 3e 57 91 a4 ba
       -0.07286634 0.070343085 0.18617813 -0.0012555522
000080 06 95 d4 3d 8d dd 3a 3e d7 1d d1 3d e9 51 34 3d
       0.103799865 0.18248577 0.102107696 0.044023428
000090 89 e5 2b be 7d 65 6a 3e a5 a8 5e 3e 6b 36 b1 3d
       -0.1678678 0.22890277 0.2174402 0.086529575
0000a0 7f 9b ee 3d bc e1 d9 bc 06 69 00 be 9b 10 35 3e
       0.11650752 -0.026596896 -0.12540063 0.17682116
0000b0 54 c0 aa 3e d0 49 68 3b a0 6e 63 bd cf 30 36 3e
       0.3334986 0.0035444386 -0.055525422 0.17792057
0000c0 d9 0c 6f 3d 90 9d 1e 3d 94 ed 1d 3d a7 8c 57 3e
       0.05836186 0.038724482 0.03855665 0.21049748
0000d0 32 6c a7 3d bb 61 42 3d c8 68 7d 3d f7 b7 88 bd
       0.081749335 0.047456484 0.061867505 -0.066757135
0000e0 c6 1c 42 bd 20 38 28 3e 0b a7 44 3d 23 a1 be 3d
       -0.04739072 0.1642766 0.048010867 0.09308078
0000f0 03 f6 98 3e 01 30 ee 3d 98 3a 89 3e 30 a2 98 3d
       0.29875192 0.1163025 0.26802516 0.0745281
000100 a2 e5 34 3d 7d 7a f8 3d 13 85 a7 3d 39 d4 bb 3d
       0.044164307 0.12132738 0.08179679 0.09171338
000110 07 dd 61 3d e2 45 d2 bd a5 cc e0 3d bd c4 80 3a
       0.05514243 -0.10267235 0.10976533 0.0009824258
000120 dc 55 b7 3a c6 ce 2c 3e 8d c3 3a 3b bf 90 9d 3d
       0.001398738 0.16875753 0.0028497905 0.07693624
000130 d9 00 56 3d bd 81 a7 3d b5 45 33 3e 2f 8a 15 3d
       0.052246902 0.081790425 0.1750706 0.036508735
000140 5c 61 a9 3c be b4 93 3e 7d 90 e3 3c 82 6b 73 bd
       0.020676307 0.28848833 0.027778858 -0.0594287
000150 cf ad 4f 3e 29 dc 24 bd 46 ca 40 3e ed 22 c7 3c
       0.20281146 -0.040249024 0.18827161 0.024308646
000160 f2 ee 6e 3e 3b ea 17 3e 15 65 b8 bc f6 be 31 3d
       0.23333338 0.14835446 -0.022509137 0.043395005
000170 87 29 0f be 9f 78 cf 3d 5a fb 35 3e 64 84 56 3d
       -0.13980685 0.101304285 0.17771664 0.05237235
000180 77 76 85 3e 7f 6d 15 3e 2b 31 8a 3d 2c 81 25 bc
       0.26066944 0.1459255 0.06747659 -0.010101598
000190 75 13 25 bd d1 0e d3 3d 74 89 ba 3d 37 ea b9 3d
       -0.04030176 0.103055604 0.09108248 0.09077876
0001a0 d1 62 59 3d be 24 dd bb 6d a0 a9 bd fe 31 22 3e
       0.053072754 -0.006748765 -0.08282552 0.15839383
0001b0 6e 49 18 3e 60 0b ce 3d 39 86 d3 bd f3 2f fd 3d
       0.14871761 0.10060763 -0.10328335 0.12362661
0001c0 ad ac 9b 3d 31 62 6b 3e 8a 3a 01 3e fb 61 35 3e
       0.07601295 0.22986676 0.12619987 0.17713158
0001d0 27 41 84 3d 92 35 90 bd 73 31 72 3d d4 15 e8 3d
       0.06457739 -0.07041468 0.05912919 0.113322884
0001e0 a6 c7 8d 3d 56 18 cf 3d 68 b6 58 bc 75 1a 09 3e
       0.069228455 0.101120636 -0.013227083 0.13388999
0001f0 1a 41 a2 3e 0f ec 4d bd 7c 88 8a 3d c4 12 6c bd
       0.31690294 -0.05027395 0.067643136 -0.057635084
000200 b3 4b b1 bd 1a 3b dc bd df 8a 9a be 70 97 21 be
       -0.086570166 -0.1075346 -0.30184075 -0.15780425
000210 e1 05 67 be 68 45 fe bc d0 0c 28 be e1 c6 ef bb
       -0.22560836 -0.031038955 -0.16411138 -0.0073174094
000220 62 c0 ec bc 54 04 52 3d 40 07 29 be 4c a4 ec 3d
       -0.028900329 0.05127366 -0.16506672 0.11554775
000230 50 1c 67 3e 1e d4 22 3e 83 ad 06 be 8b 82 c1 3b
       0.22569394 0.15901229 -0.13152127 0.0059054545
000240 4b 2d a1 3d 4c 7a a6 3d af 66 06 bf e7 a1 bd 3c
       0.07869967 0.08128795 -0.5250043 0.02314849
000250 9e 3c d9 bd 7b 46 01 3d a5 1f ac bd 1a 4e ff bd
       -0.10607265 0.031561356 -0.08404473 -0.124660686
000260 a8 60 18 bd da 22 8d bc 58 86 62 bd 25 54 0a be
       -0.037201554 -0.017228533 -0.0553039 -0.13508661
000270 5e 36 43 bd 76 a6 9c bd 6c 5c b4 3c 9e 54 69 3d
       -0.04765927 -0.076489374 0.022016726 0.056965463
000280 dd 3b 3c 3d cc 10 32 3e 81 e5 1f 3e 87 f7 39 3d
       0.045955528 0.1738922 0.15614893 0.045402076
000290 09 91 7f 3e 12 96 52 be df b2 7b 3d 9b 36 34 3d
       0.2495767 -0.2056506 0.06144988 0.04399739
0002a0 4b 70 dc bd 6d 70 a3 3d 1a 11 08 bd 5f b1 61 bd
       -0.10763606 0.07980428 -0.033219434 -0.055100795
0002b0 3c 37 f0 bd 2a 37 1b 3e f3 d8 af 3d 79 25 9c 3b
       -0.11729285 0.15157762 0.08586302 0.0047652093
0002c0 3b fc 05 3e 86 61 f2 3d 77 a0 45 3e b6 14 89 3d
       0.130845 0.11835007 0.19299494 0.066934034
0002d0 5a 7b b5 bd 71 96 e2 3c d6 cb dc 3d 15 42 45 3d
       -0.08861418 0.027659627 0.10781066 0.048158724
0002e0 5f 63 f5 bd 08 da 53 3b f0 27 8a 3c be 20 1e bd
       -0.11981844 0.0032326002 0.016864747 -0.038605444
0002f0 7a b6 04 be a6 ea 50 3e 61 3b cf 3d 6b 75 d9 3d
       -0.12960234 0.20402011 0.101187475 0.10618099
000300 e3 51 28 bf 8d 63 41 3e 87 df f0 be aa e0 ee bd
       -0.6574995 0.18885632 -0.47045538 -0.11663945
000310 5d 0a e8 be 3e 7e 9f bd 07 8d 0e 3d 77 84 86 3d
       -0.45320407 -0.07787751 0.034802463 0.065682344
000320 47 3e 29 3e c8 2a 9c 3d d2 f9 be bc 56 a0 e9 3d
       0.16527663 0.076253474 -0.023312483 0.11407535
000330 a2 0d ca 3d 05 88 51 3e 3e ec c3 3e 61 ea 93 bb
       0.098658815 0.20462044 0.38266176 -0.004514024
000340 2b 02 cc bd cd 52 78 ba 86 b4 bb be e7 41 8b 3e
       -0.09961351 -0.00094727875 -0.36661166 0.27198717
000350 15 b4 bd 3d 99 44 0d be 0e e1 8d 3e 10 33 86 3e
       0.092628635 -0.13795699 0.27710766 0.26210833
000360 16 d1 5e 3b 24 84 1b 3c e8 30 49 be 09 97 73 3d
       0.0033999137 0.009491954 -0.19647563 0.05947021
000370 57 09 ee be 02 5c 35 3e 2b f1 d7 be dc ff 3a 3e
       -0.464915 0.1771088 -0.42176184 0.18261665
000380 1d 19 30 bd 91 39 ab be fa 5e 7b bd 8c ef 80 be
       -0.0429927 -0.33442357 -0.061369874 -0.2518276
000390 5a af aa bd fb df 10 3e e1 1b 22 3e 7c a6 c0 bc
       -0.08334227 0.14147942 0.15830947 -0.023516886
0003a0 e0 4c bb 3d f3 41 28 be 28 8c 23 be 51 2f b1 3e
       0.09145522 -0.16431408 -0.15971434 0.34606412
0003b0 f8 f2 86 3e 82 b8 d6 bd c9 0a 20 be e0 e2 ba be
       0.26357245 -0.10484411 -0.15629114 -0.36501217
0003c0 1b 91 31 bc 1b fb 03 3e 6c d3 c7 3d 38 8c 73 3e
       -0.0108378185 0.12888758 0.097571224 0.23783958
0003d0 61 fa 34 3d 01 36 73 bd 62 e9 54 3c b4 30 a2 3d
       0.044184092 -0.059377674 0.012995096 0.07919446
0003e0 66 e2 40 3c a1 be 19 bd 41 90 63 bd 4d 7f b1 3d
       0.011772728 -0.037535314 -0.055557493 0.08666859
0003f0 dc 92 cf 3e 5c dc 71 3b cf 54 82 3d 4a 2a bf 3d
       0.40541732 0.0036905026 0.06363832 0.09334238

fc2.bias f4 [64]
000000 1f c1 cc 3e ed b8 0f 3f eb 9f bf 3d f4 bf 88 3e
       0.3999109 0.5614155 0.09356674 0.2670895
000010 08 d4 f9 bc fa 88 ac 3e 57 b0 6e bc d8 ab b2 be
       -0.030496612 0.33698255 -0.01456841 -0.3489673
000020 a0 4f 02 3f a3 ec bc bd 83 cd 58 bd 10 27 05 3f
       0.5090275 -0.09224822 -0.052930366 0.5201273
000030 71 ae df 3d 62 55 e5 3e e5 01 a9 3e 0a 5f f4 3e
       0.10921944 0.44791704 0.33009258 0.4772876
000040 f1 37 5e 3e a8 35 81 3d 3e ff 8d 3e d4 a3 1f 3e
       0.21701027 0.06309062 0.27733797 0.15589839
000050 25 7c e9 3e c3 90 e8 3e 15 f4 0b 3f 31 15 de 3e
       0.45602527 0.45422944 0.54669315 0.43375543
000060 b1 8a e0 3e 1e 60 04 3f be 0d e1 3e 36 72 0c 3f
       0.43855813 0.51709163 0.43955797 0.5486177
000070 68 f9 d1 be 11 30 c9 3e 5d 78 ed 3e 55 49 fb 3e
       -0.41010594 0.39294484 0.46380892 0.49079385
000080 3e 23 57 3e 17 44 8f 3e b8 a3 e4 3e df b0 33 be
       0.21009538 0.27981636 0.44656157 -0.1754794
000090 b8 98 46 3b d5 af 9e be f5 9c ca 3e d9 0d 5e be
       0.003030343 -0.30993524 0.39572874 -0.2168497
0000a0 25 ee 8f 3e 0d d8 90 bd 3f 38 17 3e 7d 58 e8 bd
       0.28111377 -0.070724584 0.1476755 -0.11345003
0000b0 ab 12 e6 be 65 72 d8 3d 1b 66 d9 3e ea 2e de 3e
       -0.44936118 0.10568694 0.42460713 0.43395168
0000c0 fd 45 37 3e 52 15 20 bd 81 6f b7 be b1 e3 58 bd
       0.17897792 -0.039082833 -0.35827258 -0.05295152
0000d0 65 d7 e8 3e d3 04 ca bd 3b 68 b8 bc 1d 3a ef 3e
       0.45476833 -0.098642014 -0.022510638 0.46724024
0000e0 06 1d be 3e 4d 73 c5 3e 9f 7e 61 bc af 3a bc 3e
       0.37131518 0.3856453 -0.013763099 0.36763522
0000f0 c3 61 01 be 28 5b bc 3e 69 48 99 bb c8 1e 93 bd
       -0.1263495 0.36788297 -0.0046778214 -0.071836054

fc3.weight f4 [1, 64]
000000 19 70 5a be 1c 12 2a be f8 c6 87 be 20 d9 8f 3e
       -0.21331824 -0.1660847 -0.2651899 0.2809534
000010 f4 06 bd 3e 5a cb b4 bd 45 92 d8 3e f8 e3 1e 3f
       0.36919367 -0.08827849 0.42299095 0.620666
000020 20 56 ea bd 14 9d b2 3e 05 e6 a7 3e 13 71 45 be
       -0.11442208 0.34885466 0.32792678 -0.19281416
000030 4d 9f 89 3e ee f7 e0 bd b1 a7 bb bd 76 37 44 be
       0.2687935 -0.10984789 -0.09162844 -0.19161782
000040 07 87 90 3e fe 29 9b 3d de 18 9b 3e 86 02 dd be
       0.28228018 0.07576369 0.3029241 -0.43165988
000050 1a 98 3a be 65 3a ed bd 20 e5 f9 bd 18 ae 12 be
       -0.18222085 -0.115834035 -0.12201905 -0.14324224
000060 4a 05 f2 bd d8 9d bc bd 32 c2 0a be c0 fb e1 bd
       -0.11817415 -0.09209794 -0.13550642 -0.110343456
000070 cc da 02 40 e3 a8 0c be 4b b0 be bd d7 28 e2 bd
       2.0446043 -0.137363 -0.09310969 -0.11042946
000080 52 7e 60 3e 9b f5 38 be fd a2 1e be b2 fc 9d 3e
       0.21923187 -0.18062441 -0.15491863 0.30856854
000090 5c 81 cd 3e 2d 72 a6 3e 8e 37 39 be 08 bd 8c 3e
       0.40137756 0.32508984 -0.18087599 0.2748797
0000a0 f6 34 9f 3e df 97 27 3e c9 5f 79 3e 06 39 d6 3e
       0.31095093 0.16366528 0.24352945 0.4184038
0000b0 10 bc be 3f 57 5c 97 3e ad f5 35 be fe a3 4a be
       1.4901142 0.29562637 -0.17769499 -0.1978912
0000c0 e6 17 c5 3e f8 db ab 3e 57 9b f6 3e 2c d0 74 3e
       0.38494796 0.3356626 0.4816539 0.23907536
0000d0 af 68 d3 bd 78 12 a3 3e de 9c d2 3e 0f f1 1b be
       -0.10322701 0.31850028 0.41135305 -0.15228675
0000e0 a3 f1 69 be 36 be 47 be 4a 01 d0 3e ed b0 17 be
       -0.22846083 -0.19506153 0.40625983 -0.14813586
0000f0 0e cc a1 3e 3a cc 45 be 78 cc b1 3e b6 83 ab 3d
       0.31600994 -0.19316188 0.3472631 0.08374731
