SAC/sac/critic1_checkpoint_7.pth (torch, 23178 bytes, 5 tensors)

fc1.weight f4 [64, 13]
000000 fc fe 5e bd ec 65 50 3f 81 56 77 3d 61 0f 63 3e
       -0.05444239 0.8140552 0.06038523 0.22173835
000010 f9 be a1 be 41 6e 58 be 71 ca 27 3e 58 d8 7c bd
       -0.31591013 -0.21135809 0.16385819 -0.06172976
000020 34 f8 2a 3e 87 43 a2 3d 70 30 6e 3c 35 4f 6f 3e
       0.16696244 0.07923036 0.014537916 0.23370059
000030 da ce ca 3e 98 39 5f 3e 93 de a4 3e ef a5 c1 3d
       0.3961094 0.21799314 0.3220106 0.094554774
000040 b8 5d 81 bd cf 5b c5 3d 3c f8 09 3f 71 cb 23 bb
       -0.063167036 0.09636652 0.538944 -0.0024993087
000050 1f 8e 07 3e 71 a1 f6 3e 6e 24 bb 3d 51 41 ea 3d
       0.13237809 0.48170045 0.09137808 0.11438239
000060 ab 47 df bc 8f 9f 27 3e 16 14 7e 3e b2 2c c9 3e
       -0.027255854 0.1636946 0.2481235 0.39291912
000070 ec 75 04 be d2 01 3d 3e 4b 29 fc 3d 81 d5 1b 3e
       -0.12935609 0.18457726 0.123125635 0.15218164
000080 d8 9f 3d be 73 b5 12 be fe 53 4d 3e e0 f2 99 3d
       -0.18518007 -0.1432703 0.20051572 0.07517028
000090 fc 32 9c 3d 33 63 6d 3e 0d 75 50 3e 12 01 32 3e
       0.07626912 0.23182373 0.20357151 0.17383221
0000a0 90 50 0f 3e 8a 79 de 3c a9 0a 36 be bb 9e 22 be
       0.13995576 0.027157564 -0.17777504 -0.15880863
0000b0 85 16 3a 3e e9 bf 44 bb 26 50 b9 be 99 d8 18 3f
       0.18172653 -0.0030021614 -0.3619396 0.597055
0000c0 9a 2a 44 3d 4b 41 88 3d 9f db f6 3c 97 d4 56 bb
       0.04789219 0.06653079 0.03013402 -0.0032780522
0000d0 47 5d 96 be 63 39 94 3d 0e a6 5c bd aa a6 ca bd
       -0.2936804 0.07237508 -0.0538693 -0.0989507
0000e0 f8 65 ee be 8f ba 6d be c4 ef de 3c fc 48 7d 3e
       -0.4656217 -0.23215698 0.027213939 0.24734873
0000f0 d5 78 a9 bd 75 49 24 bd 9f 8c 48 3e a5 b1 0b bd
       -0.08275 -0.040109117 0.19584893 -0.034104962
000100 49 be 7d 3d f3 2d 3f be f6 17 5a be c3 d0 cf bd
       0.06194905 -0.18669872 -0.21298203 -0.1014724
000110 ce 8d 8a bf 0b 10 75 bf 57 55 f4 be f5 2a 42 3e
       -1.0824525 -0.95727605 -0.4772136 0.189617
000120 d7 d2 aa 3e 54 73 61 be 25 94 29 be 5f b6 94 bc
       0.33363983 -0.2201665 -0.16560419 -0.018153368
000130 de 8e a2 bd d2 75 ac bd 60 cd 3f be 85 33 65 3e
       -0.07937406 -0.0842091 -0.18730688 0.22382934
000140 23 1f b6 bd 0d 33 d2 bd fd 95 e2 bd 23 eb c0 3e
       -0.088926576 -0.102636434 -0.11063764 0.37679395
000150 b5 3a 05 3c 43 0a 2b 3d da 0e 3b 3e f0 cc c6 bc
       0.008131673 0.041757833 0.18267384 -0.024267644
000160 06 f9 70 3e 52 85 1c 3e 4f 85 18 3e a7 d4 2c 3e
       0.23532495 0.15285233 0.14894603 0.16877995
000170 34 e6 67 be 91 64 01 3c 99 c3 52 bf 7f 46 10 3e
       -0.2264641 0.007897512 -0.8232971 0.14089392
000180 eb 77 8d be 80 80 47 3e 6e a1 93 bd 59 65 52 bd
       -0.27630553 0.19482613 -0.07208525 -0.051366184
000190 ad 68 ba bd 33 59 9e 3d 5f 62 97 bd 90 d5 a5 bd
       -0.091019966 0.07731857 -0.0739181 -0.080973744
0001a0 43 2e c4 bd 9b 2e 14 3e 92 eb 55 3c ee e8 a3 3d
       -0.09579136 0.14470904 0.013056653 0.08003412
0001b0 a9 9a b3 be 87 4d 36 be c4 a6 a5 3e ea 95 74 be
       -0.35078934 -0.17803012 0.32353795 -0.23885313
0001c0 b8 ee 18 be a7 f5 25 bd 7f 64 bf 3e e2 91 4b bd
       -0.14934814 -0.040517475 0.3738136 -0.04969967
0001d0 89 4d e8 3d b5 2c 37 bd 56 7f ac 3d 7e d0 5a bc
       0.11342914 -0.04472037 0.08422725 -0.0133553725
0001e0 46 e1 2f be 0f 9c 25 bd 2b 30 bd 3e 39 37 24 bd
       -0.17175779 -0.040432032 0.36950812 -0.040091727
0001f0 de 19 08 3d ca f8 e3 3e 10 d3 2b 3e 8d e9 bf 3d
       0.033227794 0.44525748 0.16779733 0.09370718
000200 8d 70 9e 3d 83 66 ee 3d 9f 69 ae bc 14 f2 18 3f
       0.07736311 0.11640646 -0.021290598 0.5974438
000210 63 2e c2 3c f8 9c 9b bb 6f 46 45 3d 82 a6 81 3e
       0.02370376 -0.0047489367 0.048162874 0.25322348
000220 3c 7b 19 be 76 0c c1 3b 18 6b d8 3e 5d 99 cd bc
       -0.14988416 0.005891378 0.42269206 -0.025097543
000230 55 e7 9d 3e 73 99 15 3e c7 3e 97 3e 70 18 88 3e
       0.30840555 0.14609317 0.29540083 0.26581144
000240 80 cd 3c ba 6a 7e 12 3e de fa 9e be 18 67 78 bd
       -0.0007202253 0.14306036 -0.3105077 -0.060645193
000250 89 18 a4 3d 9d 11 15 3e a2 91 d1 3c 37 65 c0 3e
       0.08012492 0.145575 0.025582138 0.3757722
000260 37 69 63 3e 72 d3 e9 3e 09 ab 6c 3e 19 b0 7b 3e
       0.22208105 0.45669132 0.2311212 0.24578895
000270 c8 14 6c 3d c4 0f 8f be 4b ad b7 bd ed 76 07 bf
       0.057637006 -0.27941716 -0.089686 -0.5291584
000280 db 90 5c 3c 81 c8 ae 3c e0 47 ec bd 06 0b 76 bd
       0.013462271 0.021335842 -0.115371466 -0.060069107
000290 e9 45 0f be 93 31 a2 bd 48 28 56 bd 92 77 4a bd
       -0.13991512 -0.07919612 -0.05228451 -0.049430437
0002a0 58 e5 02 be bc d9 1b 3e 4c af 30 3f f4 bf f8 3c
       -0.127828 0.15219778 0.6901748 0.030364968
0002b0 3a 2b e3 be 31 74 68 3d 3c c7 23 3e aa a7 83 be
       -0.44368917 0.056751434 0.1599397 -0.25713855
0002c0 ce a8 36 3e 42 a6 5b 3d ea ae 96 3e e9 cb e2 3d
       0.17837831 0.053625353 0.29430324 0.11074049
0002d0 f2 00 a2 3e e9 92 6e 3e 13 01 12 be 23 f0 2d 3e
       0.31641346 0.2329823 -0.14258222 0.16986136
0002e0 18 f7 3c be cd 5b 81 be bb 20 f0 3d 8e 4c 1c 3f
       -0.18453634 -0.2526535 0.11724993 0.61054313
0002f0 6b 70 b7 3c e9 42 0c be df 0b d6 3e 35 21 9a 3e
       0.022392472 -0.13697399 0.41805932 0.3010346
000300 ab 98 90 3d 67 22 7e 3d d6 61 b2 3d 5a 73 e5 ba
       0.07060369 0.062044527 0.08710067 -0.0017505691
000310 ae 56 26 3e bd 0d 2f 3d 68 a4 cf 3d 33 9c 19 bc
       0.16244003 0.04273771 0.1013878 -0.00937562
000320 cb ef 88 3e fd 01 8c bd b8 37 0a bc 0c e1 80 3e
       0.26745448 -0.06836317 -0.008436136 0.25171697
000330 b3 98 08 3e 4e a5 2c 3e 43 b9 07 3e 57 a6 65 3e
       0.133395 0.16859934 0.13254265 0.22426735
000340 0e 09 fa 3e 3b 1b 0e 3d 72 73 9b bc c1 dc c9 bc
       0.48835033 0.034693938 -0.018975947 -0.024641396
000350 5b d2 d5 be 11 9e 2d 3e ce ff 66 bd 23 2c bc 3e
       -0.4176205 0.16954829 -0.056396298 0.36752424
000360 22 30 98 3e 41 4d a6 bd 68 21 a9 3d ed 6d 85 3d
       0.29724222 -0.08120204 0.08258325 0.06515107
000370 94 15 82 3d d6 14 60 3e 41 97 a9 bd 6f ba cf 3d
       0.06351772 0.21882948 -0.082808025 0.10142981
000380 53 8b cc bd e5 cf 2b bd f7 10 8e 3d eb b2 fc bd
       -0.099875115 -0.04194631 0.069368295 -0.123388134
000390 e4 4c 1a be a6 30 be 3e 35 a7 13 3e 4b f1 4e 3d
       -0.15068394 0.3714649 0.14419253 0.050523084
0003a0 38 88 cc 3c a8 67 b5 bc 7d ec ae bd 8c 54 21 3f
       0.024967298 -0.022144154 -0.085412 0.63019633
0003b0 3b 5c bc bc 81 88 7a be ac 19 99 bc ad a8 01 3e
       -0.022993198 -0.24466135 -0.018689 0.12662001
0003c0 3b 24 c1 bb 18 a3 23 ba 7d 2c 52 3e b4 92 46 3e
       -0.0058942116 -0.00062422594 0.20524783 0.193919
0003d0 92 4e 4a 3d 0f 04 07 3e 8f f2 04 3e 5b 53 d5 3d
       0.049391337 0.13185142 0.12983154 0.104162894
0003e0 b7 f0 40 3e 20 66 58 3e f9 70 f2 be de 10 d8 3d
       0.18841825 0.21132708 -0.47351816 0.10550092
0003f0 6e 6f ad 3e a6 d7 36 be 0d 2c c6 bc ec 61 77 3e
       0.33874077 -0.17855701 -0.024190927 0.24158448

fc1.bias f4 [64]
000000 22 5b df 3d e8 fa 15 bf b1 59 ec 3d 99 fd dc 3c
       0.10906054 -0.5858598 0.11540545 0.026976394
000010 87 9c 05 3f ba b2 27 3f 08 03 f9 3e 35 4b 0b 3f
       0.52191967 0.6550709 0.48635125 0.5441163
000020 04 b3 de 3d 4c dd ce 3d 44 d7 18 bb d1 a5 7a 3d
       0.10873988 0.10100803 -0.0023321668 0.06119329
000030 d3 ae 48 3f 75 f8 66 3e 70 4c 1e be 2d 17 e1 bd
       0.7839176 0.22555716 -0.15458846 -0.109907486
000040 df db 33 3e 53 07 94 be 60 83 f0 be b7 73 cd 3e
       0.17564343 -0.28911838 -0.4697523 0.40127346
000050 25 ee 8f 3e 67 6c 43 3e 5c a3 d0 3e 56 f4 02 3a
       0.28111377 0.19084321 0.40749633 0.00049955153
000060 9f a4 0d bd f5 3f 38 3c 9d 82 65 3f a8 48 06 3f
       -0.034580823 0.011245717 0.89652425 0.52454615
000070 5a 14 3a bf 05 c0 8d bd 7e da aa bd a4 ab 2d 3e
       -0.72687304 -0.069213904 -0.08342455 0.16960007
000080 f5 0b e5 be bb 09 c5 be f4 fc b4 3c 69 54 2b 3f
       -0.44735685 -0.38483986 0.022093274 0.66925675
000090 d7 28 a2 3e 27 ff cc be 50 7d db bd a1 16 cf 3e
       0.31671783 -0.40038416 -0.10717261 0.40446952
0000a0 06 13 9e bd b0 95 da be 2b 1b 25 3e 2a 92 13 3f
       -0.07718472 -0.42692327 0.16123645 0.57644904
0000b0 ae 59 92 be d2 46 0a be b7 61 ec be 86 97 8e 3d
       -0.28584045 -0.13503578 -0.461683 0.069624946
0000c0 64 64 19 3f 34 30 11 3c a0 24 94 3e 0e cf 31 be
       0.5991881 0.00886159 0.28934193 -0.17364141
0000d0 16 46 6f 3f 56 47 10 3f f8 34 7d bc 30 57 8b bc
       0.9346632 0.5635885 -0.015454523 -0.017009348
0000e0 76 1d 48 3f de 1a 39 3f 01 fd 31 3f fa 02 ef 3e
       0.78169954 0.7230662 0.6952668 0.46681958
0000f0 0f eb 1e 3d b2 da c8 3e 8c 57 6a be 62 3d 42 3e
       0.038798388 0.3922935 -0.22884959 0.18968728

fc2.weight f4 [64, 64]
000000 31 b7 71 3d cc 0a 88 bc e5 3c 29 be a1 34 e9 b7
       0.059012596 -0.01660671 -0.16527136 -2.7800272e-05
000010 05 6f a6 3d 6f 9f 28 bd 6d 34 4e 3e 9f 89 44 3e
       0.08126644 -0.041167673 0.20137186 0.19193123
000020 b7 57 08 be d2 16 97 3e 0e 23 52 be 7c 5d 88 3d
       -0.1331471 0.29509598 -0.20521185 0.06658456
000030 50 c8 76 3d 2c 16 2c 3d 9f 28 1e bd 0d 2c 98 bd
       0.060249627 0.042013332 -0.038612958 -0.07430277
000040 38 98 ad 3d cb f7 10 be e7 d7 12 3e bf e0 01 3e
       0.08476299 -0.14157026 0.14340173 0.1268339
000050 b4 a2 8e bd 3c 10 18 bd de b4 9e bb 74 49 de bc
       -0.06964627 -0.037124857 -0.0048433384 -0.027134635
000060 81 ba d9 3d 84 f2 fd bd 65 b0 85 bd 8c a6 1d 3e
       0.10631276 -0.12399772 -0.06527785 0.15395564
000070 98 4f 0b bc 5d af 31 3d 5a c4 a1 bd a4 27 24 3e
       -0.008502863 0.04338013 -0.07898779 0.16030747
000080 b8 d6 01 3e 61 56 ae 3e db 65 31 3e 8a 59 86 bd
       0.12679565 0.34050277 0.17324011 -0.06560047
000090 6e 52 84 3e 84 e5 8e 3d 09 14 b9 3c 6e f1 4c 3d
       0.2584414 0.069773704 0.022592561 0.050034933
0000a0 11 4d 4a 3d 36 1d 29 bd eb 76 57 be 80 0d 89 be
       0.049389903 -0.041287623 -0.21041457 -0.26768112
0000b0 aa 06 67 3e cd f2 5b 3e fc 7f 5d 3e 46 39 8d 3e
       0.22561136 0.2147934 0.21630853 0.2758276
0000c0 e8 13 ad bd c3 17 0f be 01 94 ec 3c e5 6d 18 3d
       -0.084510624 -0.13973908 0.028879168 0.03721418
0000d0 84 e0 61 3d a6 df fa bd 4d 1a ce 39 66 d7 8c 3d
       0.055145755 -0.12249689 0.00039310977 0.068770215
0000e0 8f 39 85 3e a8 27 ca bd cb 9a c5 3d 73 6c 93 bd
       0.26020476 -0.09870845 0.09648665 -0.071984194
0000f0 57 2a be 3c 9c 71 63 3e 8a 32 46 bd 8a 96 81 3e
       0.023213549 0.22211307 -0.04838804 0.25310165
000100 3a d2 1d bb ed 28 17 bb 26 31 93 3c c2 5a 4f bd
       -0.0024081604 -0.0023065165 0.017967772 -0.050623663
000110 3a e5 f2 bd 4d 68 ca bd 59 72 e0 bb b2 9f 88 be
       -0.11860128 -0.09883175 -0.006849569 -0.26684338
000120 68 2a 61 3e 5b 51 77 be 19 72 b6 be 72 60 a6 bd
       0.21988833 -0.24152128 -0.35633925 -0.08123864
000130 20 8a 0f bf f5 95 3b 3d d5 94 ad bc f1 9a 5f 3d
       -0.5607014 0.045797307 -0.021189133 0.054591123
000140 19 19 c8 3d b6 6c 4d 3c 84 c9 52 bc 8e 0a f7 be
       0.09770412 0.012538126 -0.012865428 -0.4825024
000150 ea 74 11 be c1 2e 88 3d 46 11 e4 bd 35 22 e4 3d
       -0.14204755 0.066495426 -0.11136107 0.11139337
000160 04 1f 76 be 51 17 1e bd b6 03 be be 85 97 d8 3d
       -0.24035269 -0.038596455 -0.37112206 0.10575775
000170 5f ee 83 3d 59 da 9f 3e 34 ae 1e bf 85 65 80 bd
       0.0644195 0.31221274 -0.6198456 -0.06269363
000180 d5 b2 1b 3e 3b 12 3b 3e c2 43 da be 5a a6 d0 be
       0.15204938 0.18268673 -0.4262982 -0.40751916
000190 15 30 80 be b9 0c 03 3e d1 75 16 3d 59 d7 9c be
       -0.25036684 0.12797822 0.036733452 -0.30633047
0001a0 54 f2 97 be b3 d4 72 bd d9 d0 d9 be 56 a2 82 be
       -0.2967707 -0.059284877 -0.4254215 -0.25514477
0001b0 9b bc 16 bc 4a 43 c1 bb f6 1e 59 3e 99 f0 78 be
       -0.0092002405 -0.005897914 0.21203217 -0.2431053
0001c0 34 9d 9a 3d 56 45 b2 bd 60 38 2e be 2c ab 05 bf
       0.07549515 -0.08704631 -0.17013693 -0.5221431
0001d0 86 03 a2 3d 83 e3 22 be 21 33 74 3d 33 09 7a bd
       0.07910828 -0.15907101 0.059619073 -0.06104393
0001e0 32 f7 95 be 42 48 ec bd a9 a1 2d bf fd f6 19 be
       -0.29290158 -0.115372196 -0.678248 -0.15035625
0001f0 5f 59 af 3c f5 e1 61 bd 48 a7 9d bd 0c 56 03 bd
       0.02140492 -0.05514713 -0.07697922 -0.032064483
000200 fc 0a ee 3d 27 b2 23 3e 19 95 3d 3e 9e 0f 05 3e
       0.11623189 0.15985928 0.18513907 0.12994239
000210 f4 85 a4 3e ac 61 8e 3c a8 7d 38 3d 11 25 83 3d
       0.32133448 0.017380558 0.04504171 0.06403554
000220 b6 40 52 3e de f1 a0 3e d2 c2 a4 3d cc 11 45 3d
       0.20532498 0.3143453 0.080449715 0.048112676
000230 8b 52 f5 3d ef 2c 9d 3d 3d 79 c7 3d 50 54 1b 3e
       0.119786344 0.07674586 0.09739921 0.15168881
000240 2e e5 db 3d 7d 80 9e 3d ee e8 99 bd 1c 47 53 3d
       0.10737072 0.07739351 -0.07515131 0.051581487
000250 61 89 f5 3d c9 d3 3f 3c c8 2e 55 3e c3 5c dd 3d
       0.119890936 0.011708208 0.20818627 0.108087085
000260 5d 7e 43 3c 8d 6e 04 bd 22 3f 04 3c 7d 47 35 3e
       0.011931983 -0.032331992 0.008071693 0.17703052
000270 6f 96 cf bd 5b d0 36 3e 32 04 fc 3d 27 d2 83 3d
       -0.10136115 0.17852919 0.12305488 0.06436568
000280 d0 77 b4 bc c6 f4 ef b9 21 02 91 bc 97 35 3d 3e
       -0.022029787 -0.00045768003 -0.01770121 0.18477474
000290 20 63 8b 3e 52 45 79 3d 01 14 db 3d f4 51 00 3e
       0.27224064 0.060857125 0.10697175 0.12531263
0002a0 26 ff 90 3e 70 5c da 3d ed 4f 51 3d 37 6a 21 3e
       0.28319663 0.10662162 0.051101614 0.15763174
0002b0 93 90 f2 3d 1e 39 1b 3e 68 d4 23 3c 1b 93 67 3e
       0.118439816 0.15158507 0.009999372 0.2261471
0002c0 8f 3f b8 3d a0 bc 03 3e 4e c2 de 3d 1a ea 18 3e
       0.08996498 0.12864923 0.108769044 0.14933053
0002d0 9b 51 20 3e 91 46 35 3e 6e 4b 3e 3e 21 dd 6a 3c
       0.1565613 0.177027 0.18583462 0.014334948
0002e0 99 c8 78 3e d8 54 40 3e 16 6b 14 3e e7 77 c1 bc
       0.24295272 0.18782365 0.14493975 -0.023616744
0002f0 8a ec 63 3e 18 96 09 3e f5 8f 6f 3c 19 1e ef 3d
       0.22258201 0.13436162 0.014621724 0.116756625
000300 a8 b8 a5 bd 4e 74 76 bc 9c e7 8c 3d b2 c3 d7 bd
       -0.08091861 -0.015042378 0.068801135 -0.10535373
000310 d6 c7 0f be 04 ce 5b bd 7f c9 0d be 3b 10 c3 bd
       -0.14041075 -0.05366327 -0.13846396 -0.0952458
000320 88 25 8a 3c 21 4b dc 3c 5c 8d fc bc be 59 b9 bc
       0.0168636 0.026891293 -0.030829124 -0.0226258
000330 47 5d 0a bd 56 61 f9 bd 6d 64 37 3d 14 42 9e bd
       -0.033780362 -0.121767685 0.044773508 -0.07727447
000340 be 7f 15 be 70 6c 8b bc 04 7f de 3d b0 2d 26 bd
       -0.14599511 -0.01701948 0.1086407 -0.040570915
000350 43 70 8e 3d 90 6e 7b bc f8 77 90 bd a0 1f 0f bc
       0.06955006 -0.015346184 -0.07054132 -0.008735567
000360 48 02 07 bd 9c 71 19 bd 38 50 a2 bc ab 7b cc bd
       -0.03296116 -0.037461862 -0.019813642 -0.09984525
000370 62 39 0b bc 46 55 29 3d 50 d5 27 3d 38 8d 18 3d
       -0.008497568 0.04134109 0.040974915 0.03724405
000380 f2 99 13 bd 10 33 15 3d 62 75 a4 bd 11 82 86 bd
       -0.036035486 0.03642565 -0.080302015 -0.06567777
000390 6c 52 5e 3d 20 22 c7 bd 03 4d c0 3d da b6 dd 3c
       0.054277822 -0.09723306 0.09389689 0.02706473
0003a0 2e ec 6b bd 4a 1d 73 3d 72 5c 5b 3d a2 fb 35 bd
       -0.057598285 0.059354104 0.05355496 -0.04442943
0003b0 ae 33 95 3b 72 c0 78 bd dc a6 03 bd 78 71 f1 bc
       0.00455328 -0.060730405 -0.03214155 -0.029473051
0003c0 a4 dc ad 3d c0 b5 f1 bb e8 a7 44 3d 96 9d bb 3d
       0.084893495 -0.0073764026 0.04801169 0.091609165
0003d0 ea bd af bd 1a 90 98 bd 4f 33 0e 3d fa 2a 4d 3d
       -0.08581145 -0.0744936 0.0347169 0.050089814
0003e0 16 49 49 3c c2 c7 f5 bd a8 94 90 bd 96 02 68 bd
       0.012285491 -0.120009914 -0.07059604 -0.05664309
0003f0 4f e8 cb bc 27 ed fa bd 14 98 12 3b 61 9e d0 bd
       -0.024891047 -0.122522645 0.0022368478 -0.101864584

fc2.bias f4 [64]
000000 57 68 9a 3d 40 4c 72 be 69 c5 09 3f df da 18 be
       0.075394325 -0.236619 0.5381685 -0.14927243
000010 f5 50 be 3e a1 63 ca be 41 c0 f9 bd cd d5 cc bd
       0.3717114 -0.39529136 -0.12194873 -0.10001717
000020 13 9e e1 3e 3a 8d f7 3e 32 e2 53 3e 4e 2d 94 bd
       0.44065914 0.48349935 0.20691755 -0.07235204
000030 63 e3 db 3e 3f 21 a1 3e 37 81 b9 3e 1c 8e f1 bd
       0.4294692 0.31470677 0.36231396 -0.11794683
000040 6a 28 40 3e 84 2f 72 3d 97 38 a7 3e 33 79 b6 bc
       0.18765417 0.059127346 0.32660362 -0.02227459
000050 b6 9c c8 3e 3f 5e 9f be 89 a2 64 3e 43 68 9b be
       0.3918206 -0.31126592 0.22327627 -0.30352983
000060 ef a4 bf bd a8 76 f0 3e 34 36 b4 3e 0f ec a2 3e
       -0.093576305 0.46965528 0.35197604 0.31820723
000070 74 94 ce 3c 40 0f a9 3e 75 a8 ef bd d4 35 8b bd
       0.025217272 0.33019447 -0.117020525 -0.06797376
000080 7a f0 f8 3e f0 c2 a3 3e b9 b3 13 be 4d 29 d2 3e
       0.4862097 0.31984663 -0.14424028 0.41047135
000090 6e bc c1 3e 54 46 b1 3e e3 1d f2 3e 75 50 e1 3e
       0.37839073 0.3462397 0.47288427 0.44006696
0000a0 3c 96 a2 3e 2c 52 ce 3e ca c4 bc 3e d8 75 ed 3e
       0.31755245 0.40297067 0.36868888 0.4637897
0000b0 19 04 ed 3e 38 98 95 be de 76 96 3e ba 49 da 3e
       0.4629219 -0.29217696 0.29387563 0.42634374
0000c0 43 e7 f7 3e b5 04 80 bc 01 bb 9e 3e c0 70 98 be
       0.48418626 -0.015627244 0.31002048 -0.2977352
0000d0 4c 70 d1 3e 6a 6f 52 3d 9d af a7 3d 48 9a 7c 3e
       0.40905988 0.051375784 0.081877925 0.24668229
0000e0 d8 38 c5 3e 61 0d a5 be 40 88 22 be ff 17 a8 be
       0.3851993 -0.3223677 -0.15872288 -0.32830808
0000f0 a3 88 8e bd 00 f5 bc 3e 5c 8c 83 be 5f 68 c3 3e
       -0.06959655 0.3690567 -0.25693023 0.38165566

fc3.weight f4 [1, 64]
000000 34 3e c9 3e 09 e4 8d 3e 29 54 4f bd a7 cc 63 bd
       0.3930527 0.2771304 -0.05061737 -0.055615094
000010 30 2f cc bd 4b 70 f5 3e a2 a9 2f 3f df 64 c2 3e
       -0.09969938 0.47937235 0.68618214 0.37967584
000020 0a df 9e bd 32 3f 5d bd b5 ad ec 3e ff 66 bd 3e
       -0.07757385 -0.054015346 0.46226278 0.36992642
000030 7a 27 77 bd 47 26 48 be 5b 19 f8 bc 7e f4 dc 3d
       -0.060340382 -0.19545852 -0.030285528 0.10788821
000040 95 16 b3 bd b5 a4 bb 3e d6 eb 1d be 38 ac fc be
       -0.087445416 0.366491 -0.15421996 -0.49350142
000050 3a bd d3 bd 12 33 93 3e c9 e8 a1 3e 85 6b 95 3e
       -0.103388265 0.287499 0.31622913 0.29183593
000060 d7 c3 c2 3e c8 a3 0e be 54 35 28 be 04 e1 36 be
       0.3804004 -0.13929665 -0.16426593 -0.17859274
000070 b5 cf df 3e 33 2a 02 be 6e 63 90 3d aa e8 21 3e
       0.43713155 -0.1271141 0.07050215 0.1581141
000080 95 a7 70 bd 1d da a8 bd 81 a1 ca 3d e1 e7 a7 bd
       -0.05875357 -0.08244727 0.09894086 -0.08198524
000090 b3 28 96 bd 0a a5 b1 bd 67 77 cd bd 62 a7 09 be
       -0.073319815 -0.08674057 -0.1003254 -0.13442758
0000a0 f5 de c9 bd 51 a8 26 bd 56 65 bb bd f3 1a 11 be
       -0.09856979 -0.040687863 -0.09150188 -0.14170437
0000b0 8a ec 0c bd 7f 5c 9d 3e ef b8 9e 3e 14 09 82 bd
       -0.03440527 0.3073463 0.31000468 -0.06349388
0000c0 b0 bf f2 bd 9b 22 be 3e 5a 15 04 bd c9 f3 4b 3e
       -0.11852968 0.37135777 -0.032246925 0.19917215
0000d0 26 c6 01 be 0e 11 d0 3e 93 6e ab 3b ca 6b c7 be
       -0.12673244 0.40638012 0.0052316873 -0.38949424
0000e0 35 8a a2 bd fd 7e fe 3f a2 5f 8a 3e 66 fa 71 3e
       -0.07936517 1.9882504 0.27026087 0.23630676
0000f0 b8 9a c5 3e bf c7 24 be 94 d9 b0 3f 44 71 93 bd
       0.38594604 -0.16091822 1.38164 -0.07199338
