SAC/sac/critic1_checkpoint_6.pth (torch, 23178 bytes, 5 tensors)

fc1.weight f4 [64, 13]
000000 53 56 1c 3b 36 a9 5e 3f 8f 98 0f 3e 6d 5f 6a 3e
       0.0023855164 0.86976945 0.1402304 0.22887965
000010 2c cf e9 be 2f c5 b0 be e2 d6 fa 3d 73 e3 95 bc
       -0.45665872 -0.3452544 0.12248017 -0.018296933
000020 c9 03 ff 3d 51 64 dd 3c 51 91 88 bd 93 38 0e 3e
       0.12451894 0.027025374 -0.06668342 0.13888769
000030 2d 7b e6 3d 6f 0f 55 3e 82 84 9d 3e bd ea b3 3d
       0.11253963 0.20806669 0.30765158 0.08785007
000040 75 43 a1 bd 30 6c 4e 3d 12 19 18 3f 67 47 fa bc
       -0.078741945 0.050396144 0.59413254 -0.030551625
000050 69 b5 08 3e c0 bf fe 3e bf 73 de 3d 8d eb aa 3d
       0.13350452 0.4975567 0.108619206 0.08345709
000060 bb 53 03 bb 13 2c 14 3e 98 6e c3 3e 4e 7c c0 3e
       -0.002003892 0.14469938 0.38170314 0.37594837
000070 9c 27 20 be d2 08 3f 3e 42 03 f1 3d e2 b6 49 3e
       -0.1564011 0.18655708 0.117681995 0.1969867
000080 43 de 1d be 64 ec 08 be 3b 39 50 3e 54 37 89 3d
       -0.15416817 -0.13371426 0.20334332 0.06700006
000090 6e 1f c5 3d 59 dd a1 3e 9a 14 4c 3e 8a df 42 3e
       0.09625135 0.31614187 0.19929734 0.19030586
0000a0 84 03 0e 3e c4 6b 86 3d fd 15 76 be 0f aa 62 be
       0.13868529 0.065635234 -0.24031825 -0.22135185
0000b0 00 da 1a 3e c4 b6 80 bc 01 06 b2 be 4e fa 0c 3f
       0.15122223 -0.01571215 -0.34770206 0.55069435
0000c0 84 ad 6c 3c 88 b3 6c 3d 3a 0e 58 3c dc fa b9 bd
       0.014445666 0.0577884 0.013186986 -0.09081051
0000d0 73 5b a5 be b5 92 a2 3d 01 90 85 bd 49 a3 f3 bd
       -0.32296333 0.079381384 -0.06521607 -0.118963785
0000e0 24 a5 f8 be 1c 8a 6b be aa 74 50 3c 95 9d 66 3e
       -0.48563492 -0.23001903 0.012723127 0.2252105
0000f0 8a ed 0a be 6d 73 12 bd 3f 80 3c 3e 5a bf 26 bd
       -0.13567176 -0.03575461 0.18408297 -0.04070983
000100 a3 f0 1a 3d b1 63 4b be c4 7f 74 be 45 11 f1 bd
       0.037827145 -0.19862248 -0.23876864 -0.11770872
000110 58 83 8a bf 83 fb 74 bf 6b d0 ff be c9 1e 3a 3e
       -1.0821333 -0.95696276 -0.49963698 0.18175806
000120 c6 39 c2 3e ff 80 54 be fb 12 35 be 93 5e 9e bc
       0.37934703 -0.20752333 -0.17683022 -0.019332206
000130 04 2a bb bd 44 b4 99 bd 04 6f 84 be e9 54 37 3e
       -0.09138873 -0.07505086 -0.25865948 0.17903484
000140 36 8b ea bd a6 2c 05 be 14 5e 0d be 57 a9 ab 3e
       -0.11452334 -0.13005313 -0.13805419 0.33527634
000150 a0 e3 3a 3b 7d b2 2c 3d bc 52 57 3e 34 ad a0 bc
       0.0028517023 0.042162407 0.21027654 -0.01961384
000160 05 2e 75 3e 21 be 33 3e 6f 67 e6 3d 39 a6 2e 3e
       0.23943336 0.17552997 0.11250197 0.17055596
000170 e4 39 79 be 42 a6 90 3b 76 e8 51 bf 2d 72 1b 3e
       -0.2433849 0.0044143507 -0.8199533 0.15180273
000180 ea b2 80 be 8e 33 45 3e 5e 3a 9f bd c1 ca 60 bd
       -0.251365 0.19257948 -0.077748045 -0.05488086
000190 b8 1f c1 bd 77 99 9c 3d 9a 9c ac bd 37 04 b3 bd
       -0.09429878 0.076464586 -0.08428307 -0.08741038
0001a0 d6 47 8e bd 64 d2 20 3e c3 5d 7e 3d 3a 77 07 3e
       -0.06947295 0.15705258 0.062101137 0.13229075
0001b0 65 2c ed be 12 e7 01 be fe 68 b3 3e 74 59 71 be
       -0.46322933 -0.12685803 0.3504104 -0.2356928
0001c0 32 aa 46 be 48 01 b4 bd 74 22 ce 3e 7d 7c 49 3c
       -0.19400862 -0.08789307 0.4026066 0.012297747
0001d0 43 09 04 3e bc 9c bf bc 1e 1d a8 3d c5 37 57 bc
       0.12894158 -0.023390166 0.08208679 -0.013135855
0001e0 9a 33 41 be a4 3e 91 bd ba d0 bd 3e b8 19 74 bd
       -0.1886734 -0.07092026 0.37073308 -0.05959484
0001f0 60 48 3c 3d 8c 1a d2 3e c1 7c 2f 3e ca 5d b1 3d
       0.04596746 0.4103588 0.17137434 0.08660467
000200 ab 8e ba 3d 2f b1 c9 3d 19 6d 20 bd af e8 12 3f
       0.09109243 0.09848248 -0.039166544 0.57386297
000210 27 95 1d 3d 14 06 65 bc ec 5a 5b 3d 65 19 61 3e
       0.03847232 -0.0139785 0.053553507 0.21982343
000220 aa 7a 39 be 94 5a 89 3c 96 9c f1 3e 0c ca de bb
       -0.18113199 0.016766824 0.47189778 -0.006798988
000230 03 7d b2 3e 7c ce f7 3d 50 bf 81 3e 9c e8 96 3e
       0.34861 0.12099931 0.25341272 0.29474342
000240 54 ab 6c bb a5 3f 41 3e 67 cb aa be 8e 4f 0d be
       -0.0036112862 0.18871935 -0.3335831 -0.13799879
000250 be 21 03 3d 85 5a 10 3e 0c 8c b2 3c e7 e3 a4 3e
       0.0320146 0.1409703 0.021795295 0.32205126
000260 a6 33 81 3e 2a ae dc 3e 05 c0 79 3e 0b 89 68 3e
       0.25234717 0.43101627 0.24389656 0.22708528
000270 ac 85 1b 3d 1d a7 88 be e9 e3 ff bd 30 3f 0b bf
       0.037969276 -0.26689997 -0.12494642 -0.5439329
000280 ec 5e 67 3c 97 99 d2 3c f2 e7 f9 bd 79 ad 8b bd
       0.014121752 0.025708003 -0.12202443 -0.06820197
000290 2b c7 29 be 35 96 ae bd 19 40 25 bd 7e d4 06 bd
       -0.16579883 -0.085247435 -0.04034433 -0.032917492
0002a0 52 4b f9 bd 1d 8e 3c 3e 8e 81 25 3f 1b 52 69 3d
       -0.12172569 0.18413587 0.6465081 0.056963068
0002b0 f7 4e f0 be 3e 54 70 3d e6 29 2d 3e b2 cb 96 be
       -0.46935245 0.05867409 0.16910514 -0.29452282
0002c0 19 75 72 3e 88 81 0f 3e f1 51 a9 3e 28 06 a8 3d
       0.23677482 0.14014256 0.3307033 0.08204299
0002d0 e0 0d 87 3e f1 0f 4d 3e e9 a5 dd bd a4 c4 25 3e
       0.26377773 0.20025612 -0.108226605 0.16188294
0002e0 1c ab 44 be d5 99 87 be 5b c6 df 3d 61 8c 11 3f
       -0.19205898 -0.26484552 0.10926505 0.56854826
0002f0 e2 7a 0b 3c 9a 5e 0c be dc 0b cc 3e 2a 7d a3 3e
       0.008513184 -0.13707963 0.39852798 0.3193143
000300 fe b6 80 3d 80 09 9c 3d 90 8d 94 3d 84 1e c3 bb
       0.06284903 0.076189995 0.072535634 -0.0059545655
000310 7e 57 1b 3e e4 1d 80 3d 1e 1c 01 3e b1 f7 35 bc
       0.15170094 0.06255701 0.12608382 -0.0111064175
000320 dd f5 86 3e 80 60 ea bd 16 23 cf 3c 1f 6d 51 3e
       0.26359454 -0.11444187 0.025285285 0.20451783
000330 90 c9 40 3e eb f6 17 3e 76 16 04 3e e8 af 42 3e
       0.1882689 0.14840285 0.12899193 0.19012415
000340 fa d7 00 3f b4 10 40 bd 0f bd 89 bd 22 8a 44 bd
       0.50329554 -0.04689093 -0.06725513 -0.047983296
000350 21 97 f9 be 7c ab de 3d 1d 95 c9 bd ea f2 c3 3e
       -0.48748115 0.10872552 -0.09842894 0.38271266
000360 05 05 39 3e 74 d0 db bd c9 e1 1f 3d 49 c3 ca 3b
       0.18068321 -0.10733119 0.039033685 0.0061878306
000370 46 e1 86 bc bd 3e 6c 3e 5c 84 27 be d3 35 02 3e
       -0.01646484 0.23070808 -0.16359085 0.12715845
000380 90 a6 e1 bd 4c 60 d4 bd 89 b7 09 3d 26 c6 2d be
       -0.110180974 -0.1036993 0.0336223 -0.16970119
000390 6a e7 11 be f6 9e cf 3e 68 22 3d 3e fb 9e ab 3c
       -0.14248434 0.40550965 0.18470156 0.020949831
0003a0 de c8 e7 3b da 38 d9 bc 65 68 ad bd c1 13 1f 3f
       0.007073506 -0.026516367 -0.08467177 0.6213952
0003b0 16 20 df bb 61 17 81 be 41 59 c7 bc da 97 8f 3d
       -0.006809245 -0.2521315 -0.024334552 0.07011385
0003c0 c5 4e 7e bb 7d db 8d bc 55 44 85 3e 61 97 53 3e
       -0.0038804275 -0.017316574 0.26028696 0.20663215
0003d0 b0 17 e5 bb c8 ce 8d 3d 2c 81 c8 3d c5 85 fb 3d
       -0.006991349 0.06924206 0.097902626 0.12281374
0003e0 46 ed 1a 3e 4f c6 81 3e 05 be ed be 8c 1a ee 3d
       0.15129575 0.2534661 -0.46434036 0.11626157
0003f0 82 b7 b9 3e 42 23 32 be a9 17 18 bd db b1 8c 3e
       0.36272818 -0.17396262 -0.03713194 0.27479443

fc1.bias f4 [64]
000000 ba d9 7f 3e d7 1a 04 bf 63 a8 0b 3e d1 66 b7 3d
       0.249854 -0.51603454 0.13638453 0.089551575
000010 db bb 0a 3f 2e 9e 27 3f 20 87 03 3f e7 6f 0a 3f
       0.54192895 0.6547574 0.5137806 0.54077
000020 67 92 62 3e 10 cb 11 3e 0f 81 e2 3b 5a ec 0d 3e
       0.2212616 0.14237618 0.0069123576 0.13859692
000030 1a 77 4c 3f f1 e8 81 3e 41 b8 da bd ec c1 b7 bd
       0.79869235 0.25373033 -0.10679675 -0.089725345
000040 c9 6a 7b 3e 6a 8a 66 be 0e b0 ec be da bf c8 3e
       0.24552454 -0.22513738 -0.4622807 0.3920887
000050 60 f4 e4 3e 2b ee 98 3d ba b9 b8 3e ce a2 4c 3b
       0.44717693 0.07467302 0.36079198 0.003122497
000060 18 06 0a 3b fb 56 a3 bc f4 4d 6e 3f 53 6e 0c 3f
       0.002106076 -0.019938936 0.930877 0.5485584
000070 0f c2 2b bf 6f 17 25 bc d9 d3 43 bd c5 7c 89 3e
       -0.67092985 -0.010076388 -0.047809456 0.26853004
000080 84 a3 d4 be c5 af c1 be 2e 9c 7a 3c 46 ce 2a 3f
       -0.41531003 -0.37829414 0.015296025 0.66721
000090 18 08 c0 3e cc 88 5c be 81 b9 53 bd 53 f9 da 3e
       0.37506175 -0.21536559 -0.051690582 0.42768344
0000a0 3b 10 05 3d 9c 3f b2 be 7e dc 2a 3e 31 bd 1c 3f
       0.03248618 -0.34814155 0.16685674 0.61226183
0000b0 8c 76 67 be 9b db 36 bd 5b 03 e0 be 71 42 c3 3d
       -0.22603816 -0.044643026 -0.4375256 0.09534157
0000c0 ca 5c 1c 3f 11 34 f3 3d fe 63 b4 3e a6 b5 05 be
       0.61079085 0.11875165 0.35232538 -0.13057575
0000d0 08 cd 72 3f 35 02 0b 3f 1a 8c 7f 3d 6c 9a b1 3d
       0.948441 0.5430024 0.06238947 0.08672032
0000e0 2c ba 4a 3f 19 12 45 3f f6 e7 33 3f 94 83 ff 3e
       0.79190326 0.7698074 0.7027582 0.49905074
0000f0 4a d5 de 3d 55 aa 01 3f e9 31 3d be 91 07 85 3e
       0.108805254 0.5065053 -0.1847607 0.25982335

fc2.weight f4 [64, 64]
000000 a9 9e 99 3d b8 20 af bc ba e7 2c be b9 43 a2 39
       0.07500965 -0.021377906 -0.16885272 0.00030949505
000010 cf 5a ae 3d ae c7 07 bd e5 64 4d 3e c1 ae 44 3e
       0.08513414 -0.033149414 0.2005802 0.19207288
000020 de 3c 0f be 8d e0 93 3e 70 36 50 be e2 c9 8e 3d
       -0.13988063 0.28882256 -0.20333266 0.069721
000030 8f 09 6b 3d 36 8c 3d 3d e7 ce 12 bd 4f a4 9c bd
       0.057382163 0.046276294 -0.03584185 -0.07648527
000040 ed f0 af 3d 3f b3 14 be 75 1f 11 3e 9d 2d fe 3d
       0.08590875 -0.14521502 0.14172156 0.12411044
000050 e0 60 88 bd b3 fe 15 bd cf 72 ee 3a 7b b4 22 bd
       -0.066591024 -0.036619853 0.0018192175 -0.0397229
000060 a5 7b d6 3d 67 ee f0 bd 3e c5 8b bd 61 24 18 3e
       0.10472802 -0.11764222 -0.0682473 0.14857627
000070 9a 2e 44 bc 80 39 23 3d 28 e1 a3 bd a2 c4 21 3e
       -0.011974001 0.03984976 -0.080019295 0.15797666
000080 f1 34 00 3e 27 b4 b0 3e 1a af 36 3e cc fd 8c bd
       0.12520196 0.34512445 0.17840233 -0.068843454
000090 d4 9a 82 3e 5e d5 76 3d b4 5e ba 3c cd c3 5e 3d
       0.2550875 0.060262077 0.022750236 0.05438595
0000a0 5b b8 66 3d 32 5b 83 bd 59 cc 56 be ea ff 8b be
       0.05632816 -0.064138785 -0.2097639 -0.27343684
0000b0 51 f3 70 3e 73 3f 71 3e ef 7f 65 3e 9b df 8e 3e
       0.23530318 0.2355936 0.22412084 0.27904972
0000c0 84 95 9e bd 76 bd 11 be 05 5a 59 3c 17 d6 19 3d
       -0.077433616 -0.1423243 0.013266091 0.037557688
0000d0 df 2a 54 3d 89 f7 00 be c0 ee b5 bb 6b 95 7a 3d
       0.051798698 -0.12594427 -0.005552143 0.061177652
0000e0 dc 41 87 3e 12 a1 be bd 54 2a c5 3d fd ae 95 bd
       0.26417434 -0.093080655 0.09627214 -0.07308767
0000f0 32 70 b5 3c e8 67 67 3e 2a c9 44 bd 10 fd 83 3e
       0.022148225 0.22598231 -0.048043407 0.2577901
000100 3a d2 1d bb ed 28 17 bb 26 31 93 3c c2 5a 4f bd
       -0.0024081604 -0.0023065165 0.017967772 -0.050623663
000110 3a e5 f2 bd 4d 68 ca bd 59 72 e0 bb b2 9f 88 be
       -0.11860128 -0.09883175 -0.006849569 -0.26684338
000120 68 2a 61 3e 5b 51 77 be 19 72 b6 be 72 60 a6 bd
       0.21988833 -0.24152128 -0.35633925 -0.08123864
000130 20 8a 0f bf f5 95 3b 3d d5 94 ad bc f1 9a 5f 3d
       -0.5607014 0.045797307 -0.021189133 0.054591123
000140 19 19 c8 3d b6 6c 4d 3c 84 c9 52 bc 8e 0a f7 be
       0.09770412 0.012538126 -0.012865428 -0.4825024
000150 ea 74 11 be c1 2e 88 3d 46 11 e4 bd 35 22 e4 3d
       -0.14204755 0.066495426 -0.11136107 0.11139337
000160 04 1f 76 be 51 17 1e bd b6 03 be be 85 97 d8 3d
       -0.24035269 -0.038596455 -0.37112206 0.10575775
000170 5f ee 83 3d 59 da 9f 3e 34 ae 1e bf 85 65 80 bd
       0.0644195 0.31221274 -0.6198456 -0.06269363
000180 d5 b2 1b 3e 3b 12 3b 3e c2 43 da be 5a a6 d0 be
       0.15204938 0.18268673 -0.4262982 -0.40751916
000190 15 30 80 be b9 0c 03 3e d1 75 16 3d 59 d7 9c be
       -0.25036684 0.12797822 0.036733452 -0.30633047
0001a0 54 f2 97 be b3 d4 72 bd d9 d0 d9 be 56 a2 82 be
       -0.2967707 -0.059284877 -0.4254215 -0.25514477
0001b0 9b bc 16 bc 4a 43 c1 bb f6 1e 59 3e 99 f0 78 be
       -0.0092002405 -0.005897914 0.21203217 -0.2431053
0001c0 34 9d 9a 3d 56 45 b2 bd 60 38 2e be 2c ab 05 bf
       0.07549515 -0.08704631 -0.17013693 -0.5221431
0001d0 86 03 a2 3d 83 e3 22 be 21 33 74 3d 33 09 7a bd
       0.07910828 -0.15907101 0.059619073 -0.06104393
0001e0 32 f7 95 be 42 48 ec bd a9 a1 2d bf fd f6 19 be
       -0.29290158 -0.115372196 -0.678248 -0.15035625
0001f0 5f 59 af 3c f5 e1 61 bd 48 a7 9d bd 0c 56 03 bd
       0.02140492 -0.05514713 -0.07697922 -0.032064483
000200 54 59 d6 3d 7f dd 27 3e 72 59 3c 3e 7a b3 04 3e
       0.10466257 0.16393088 0.18393496 0.1295909
000210 9a 99 a3 3e a6 6e 30 3c f5 1e 3a 3d e0 e4 85 3d
       0.31953126 0.010768568 0.04543968 0.06537795
000220 b4 91 54 3e 19 d3 a2 3e 7a 8b 99 3d 8c 73 41 3d
       0.20758706 0.3180168 0.07497306 0.047229335
000230 7f b4 fe 3d f5 3d 98 3d 99 f8 bb 3d 1d c6 1c 3e
       0.12436771 0.07433692 0.091782756 0.15309949
000240 c5 c6 de 3d 56 56 a9 3d 2b f5 93 bd ca b0 4d 3d
       0.10877756 0.082684204 -0.072244965 0.050217427
000250 3a 80 ef 3d 76 e1 40 3c 46 62 53 3e 5a b6 ed 3d
       0.11694379 0.011772504 0.20642957 0.116070464
000260 3f ed 7a 3c 46 a2 13 bd bd 68 1a 3c c7 a6 3b 3e
       0.015315353 -0.036043428 0.009424386 0.1832534
000270 28 6b db bd 3d 0f 3c 3e 80 cb fd 3d 84 f4 81 3d
       -0.10713798 0.18365188 0.1239233 0.06345466
000280 16 1a a9 bc 16 68 ae bb 8a 99 c4 bc d8 2e 40 3e
       -0.020642322 -0.0053224666 -0.023998994 0.1876787
000290 94 c7 8d 3e fc 68 7c 3d 3e af dd 3d af 7b fc 3d
       0.2769133 0.06162356 0.108244404 0.12328278
0002a0 2e 4b 8d 3e ee 3a dd 3d 7d bb 47 3d e6 b0 28 3e
       0.2759642 0.108022556 0.048762787 0.16473731
0002b0 dc b7 de 3d b4 ab 06 3e 94 17 8b 3b 23 7d 61 3e
       0.10874912 0.13151437 0.004244754 0.22020392
0002c0 ad f5 a9 3d 65 fa 04 3e 45 b7 01 3e 0a 0e 14 3e
       0.08298812 0.12986143 0.12667568 0.1445848
0002d0 2b f7 22 3e fb ee 39 3e 2d b5 42 3e 2c 57 cb 3c
       0.159146 0.1815757 0.19014426 0.02482184
0002e0 0c a2 75 3e 6d 25 3c 3e 9f c4 19 3e f8 c3 9b bc
       0.23987597 0.18373652 0.15016411 -0.019014344
0002f0 ac 4f 66 3e 2d 3f 08 3e 2c 24 4a 3c 06 40 e6 3d
       0.2249133 0.1330535 0.012337726 0.1124268
000300 a8 b8 a5 bd 4e 74 76 bc 9c e7 8c 3d b2 c3 d7 bd
       -0.08091861 -0.015042378 0.068801135 -0.10535373
000310 d6 c7 0f be 04 ce 5b bd 7f c9 0d be 3b 10 c3 bd
       -0.14041075 -0.05366327 -0.13846396 -0.0952458
000320 88 25 8a 3c 21 4b dc 3c 5c 8d fc bc be 59 b9 bc
       0.0168636 0.026891293 -0.030829124 -0.0226258
000330 47 5d 0a bd 56 61 f9 bd 6d 64 37 3d 14 42 9e bd
       -0.033780362 -0.121767685 0.044773508 -0.07727447
000340 be 7f 15 be 70 6c 8b bc 04 7f de 3d b0 2d 26 bd
       -0.14599511 -0.01701948 0.1086407 -0.040570915
000350 43 70 8e 3d 90 6e 7b bc f8 77 90 bd a0 1f 0f bc
       0.06955006 -0.015346184 -0.07054132 -0.008735567
000360 48 02 07 bd 9c 71 19 bd 38 50 a2 bc ab 7b cc bd
       -0.03296116 -0.037461862 -0.019813642 -0.09984525
000370 62 39 0b bc 46 55 29 3d 50 d5 27 3d 38 8d 18 3d
       -0.008497568 0.04134109 0.040974915 0.03724405
000380 f2 99 13 bd 10 33 15 3d 62 75 a4 bd 11 82 86 bd
       -0.036035486 0.03642565 -0.080302015 -0.06567777
000390 6c 52 5e 3d 20 22 c7 bd 03 4d c0 3d da b6 dd 3c
       0.054277822 -0.09723306 0.09389689 0.02706473
0003a0 2e ec 6b bd 4a 1d 73 3d 72 5c 5b 3d a2 fb 35 bd
       -0.057598285 0.059354104 0.05355496 -0.04442943
0003b0 ae 33 95 3b 72 c0 78 bd dc a6 03 bd 78 71 f1 bc
       0.00455328 -0.060730405 -0.03214155 -0.029473051
0003c0 a4 dc ad 3d c0 b5 f1 bb e8 a7 44 3d 96 9d bb 3d
       0.084893495 -0.0073764026 0.04801169 0.091609165
0003d0 ea bd af bd 1a 90 98 bd 4f 33 0e 3d fa 2a 4d 3d
       -0.08581145 -0.0744936 0.0347169 0.050089814
0003e0 16 49 49 3c c2 c7 f5 bd a8 94 90 bd 96 02 68 bd
       0.012285491 -0.120009914 -0.07059604 -0.05664309
0003f0 4f e8 cb bc 27 ed fa bd 14 98 12 3b 61 9e d0 bd
       -0.024891047 -0.122522645 0.0022368478 -0.101864584

fc2.bias f4 [64]
000000 51 18 9c 3d 40 4c 72 be 95 36 0a 3f df da 18 be
       0.076218255 -0.236619 0.53989536 -0.14927243
000010 63 7e be 3e a1 63 ca be e9 29 f5 bd 94 da c9 bd
       0.372058 -0.39529136 -0.11970884 -0.098561436
000020 56 2a e2 3e 01 76 f8 3e c2 14 55 3e 3c 20 91 bd
       0.44172925 0.4852753 0.208087 -0.07086226
000030 43 8b dc 3e 85 e7 a1 3e 71 40 bb 3e 1c 8e f1 bd
       0.43074998 0.31621948 0.36572602 -0.11794683
000040 59 bb 59 3e 22 12 43 3d 6d 4a a7 3e fc 89 bd bc
       0.21262874 0.047624715 0.3267397 -0.023137085
000050 4c c6 c8 3e 97 e1 a2 be 49 80 65 3e 77 89 92 be
       0.39213789 -0.31812736 0.22412218 -0.28620502
000060 b4 a1 b7 bd 3b 6d f0 3e 63 20 b4 3e 27 c8 a2 3e
       -0.08966389 0.46958336 0.3518096 0.3179333
000070 d6 24 da 3c d3 12 a9 3e 75 a8 ef bd a0 d5 84 bd
       0.026628893 0.33022174 -0.117020525 -0.06486058
000080 ee a2 f9 3e 99 16 a4 3e b9 b3 13 be 40 86 d2 3e
       0.48757118 0.3204849 -0.14424028 0.4111805
000090 51 5d c2 3e 69 96 b1 3e b6 4c f2 3e 0e 77 e1 3e
       0.3796182 0.34685066 0.4732415 0.44036144
0000a0 1c 32 a3 3e 68 5b d0 3e 10 02 bd 3e 19 95 ed 3e
       0.31874168 0.40694737 0.36915636 0.46402815
0000b0 c2 72 ee 3e 26 15 91 be 04 81 98 3e 0f d9 da 3e
       0.46571928 -0.28336447 0.2978593 0.42743728
0000c0 94 fb f7 3e 15 30 6b bc ed a3 9f 3e 05 c6 99 be
       0.48434126 -0.014354725 0.31179753 -0.3003389
0000d0 b2 7a d1 3e e8 70 5b 3d 06 53 b8 3d 3b 1f 85 3e
       0.40913922 0.053574473 0.090002105 0.2600039
0000e0 7a c4 c5 3e 61 0d a5 be 5c ef 1a be b2 3c a9 be
       0.38626462 -0.3223677 -0.15130371 -0.3305412
0000f0 0d 8f 96 bd c5 07 bd 3e 5c 8c 83 be 94 e1 c3 3e
       -0.073515035 0.3691999 -0.25693023 0.3825804

fc3.weight f4 [1, 64]
000000 d4 d2 cf 3e 09 e4 8d 3e 43 91 61 bd a7 cc 63 bd
       0.40590537 0.2771304 -0.055070173 -0.055615094
000010 2c b3 d8 bd 4b 70 f5 3e 0e 94 3b 3f 8f e0 c5 3e
       -0.10581049 0.47937235 0.7327279 0.38647887
000020 a0 cd a6 bd 5a 4e 74 bd c8 38 ee 3e 4a c0 be 3e
       -0.081446886 -0.059645034 0.46527696 0.3725608
000030 ed 35 89 bd 43 d0 4d be 7e 79 12 bd 7e f4 dc 3d
       -0.06699739 -0.20098977 -0.035760395 0.10788821
000040 5b 9d 8c bd 34 f7 c2 3e 85 97 25 be 96 db fc be
       -0.06865951 0.38079226 -0.16171081 -0.4938628
000050 06 d4 e0 bd 5e 23 9b 3e a2 4f a7 3e c2 1b b0 3e
       -0.1097794 0.3030042 0.32677943 0.34396178
000060 9a 53 c5 3e 52 52 13 be 32 01 2d be 58 8a 3a be
       0.38540345 -0.14386871 -0.16894987 -0.18216836
000070 b8 8a e2 3e 5a 3e 07 be 6e 63 90 3d 3b 88 2e 3e
       0.4424646 -0.13207379 0.07050215 0.17044155
000080 03 e6 7d bd 09 b4 b3 bd 81 a1 ca 3d 83 dd b3 bd
       -0.061986934 -0.08774573 0.09894086 -0.087824844
000090 a8 3e 9e bd 6d 5d bc bd bd 90 d8 bd c6 f7 0d be
       -0.077267945 -0.09197507 -0.10574482 -0.1386405
0000a0 18 a5 d5 bd fc 4a 60 bd 8c af c4 bd 4f 49 16 be
       -0.1043188 -0.05475901 -0.096037954 -0.14676403
0000b0 c5 ba 24 bd d7 24 a6 3e 89 f7 a1 3e f0 99 8d bd
       -0.04021718 0.32449982 0.31634167 -0.06914127
0000c0 c4 e5 fa bd c3 db bf 3e 63 8d 1d bd 8c 6c 56 3e
       -0.122508556 0.37472352 -0.038464915 0.20939845
0000d0 a4 ef 06 be 3d f6 d3 3e 0f c6 55 3c 58 d7 d5 be
       -0.13177353 0.41398802 0.013047709 -0.41765857
0000e0 11 30 af bd fd 7e fe 3f 5b 49 96 3e 59 04 80 3e
       -0.0855409 1.9882504 0.2935284 0.25003317
0000f0 b3 49 ca 3e d6 11 29 be 94 d9 b0 3f c6 6c 9b bd
       0.39509353 -0.1651071 1.38164 -0.07589106
