SAC/sac/critic1.pth (torch, 22728 bytes, 5 tensors)

fc1.weight f4 [64, 13]
17.6301 42.102695 -4.4826584 -12.26187 -9.694803 -54.042023 -44.21752 40.968536
-48.86312 -33.21528 -53.06348 -53.038563 -53.591682 0.019002467 -3.5990815 -0.0957765
4.184663 4.1871 1.1774012 -0.030530676 -0.17349744 0.37570956 -0.22164664 -0.12221688
1.0010751 0.754375 17.575682 42.12497 -4.4070287 -53.807724 -11.016185 -54.13322
-44.330036 41.08092 -48.741436 -33.362476 -52.869236 -52.935883 -53.42268 17.704998
41.89138 -4.4317646 -54.13183 -5.5455594 -54.263496 -44.132145 40.882557 -48.580307
-33.3127 -53.027145 -52.929302 -53.097733 17.195667 40.58744 -4.9857507 -53.52487
-9.179096 -53.443832 -43.644917 41.998756 -48.101772 -33.380623 -51.34964 -51.769436
-52.36834 0.009269055 -3.0185142 -0.07688458 4.0801935 4.1880817 0.8125347 0.1646928
-0.15223232 0.024090068 -0.1874848 -0.46059322 0.9072673 0.57982737 17.626003 41.987522
-4.6846876 -12.3026 -5.788552 -54.066948 -44.13417 41.535572 -48.387188 -33.668404
-53.224735 -53.424107 -53.199917 17.709768 40.818745 -4.6588607 -52.562283 -10.46577
-53.571754 -44.232918 41.771545 -48.489414 -33.15899 -52.740074 -52.473114 -52.70713
0.01376247 -3.0099528 -0.07239737 4.1024985 -0.14405939 1.0409558 0.031791598 -0.17082846
0.17662899 -0.19675124 -0.18955125 0.71723 0.8478881 17.685936 41.45694 -5.3515472
-54.109272 -10.042351 -54.27482 -44.661148 42.224724 -48.582375 -33.72792 -53.84675
-53.69813 -53.760162 17.975939 41.729424 -4.635591 -12.322124 -10.523524 -54.36075
-44.028736 40.8194 -48.548832 -33.533844 -53.617023 -53.418415 -53.215656 17.618044
40.117416 -5.061103 -12.156639 -5.734131 -53.976585 -44.810482 41.589375 -48.986416
-34.205418 -53.846256 -53.521133 -53.87957 0.0008991449 -1.5527638 -0.043822087 2.5503302
2.1181178 0.06829735 -0.036205288 -0.05934423 0.49291468 -0.077390164 -0.1716098 0.45594126
0.21167845 0.01798854 -3.3121617 -0.08887215 4.251515 4.019823 1.1264127 -0.05083878
-0.16153046 0.265311 -0.20821536 -0.05065978 0.7187154 0.71611524 17.779463 40.681686
-4.344172 -52.619076 -10.323716 -53.24148 -44.539608 39.77699 -48.278156 -33.038654
-52.97261 -52.60424 -52.5007 17.696598 41.119106 -4.6409316 -52.35783 -5.725719
-53.712242 -44.306984 40.759865 -48.51628 -32.901043 -52.738754 -52.698227 -52.69867
17.916561 41.70491 -4.369005 -53.84596 -10.304732 -54.131096 -44.36265 41.08132
-48.823708 -33.59213 -53.227566 -53.236237 -53.51227 18.102184 41.860344 -4.5515447
-12.200378 -11.608443 -54.17077 -43.96572 40.600903 -48.643818 -33.37319 -52.98477
-52.958733 -53.111687 17.258848 41.558403 -4.5642304 -54.138683 -10.307078 -54.049538
-44.054966 41.533222 -48.304184 -33.5554 -52.890263 -53.00422 -52.84327 17.61802
41.90689 -4.498451 -54.13731 -5.5757217 -53.944656 -44.2346 41.08451 -48.445736
00000000: 720a 8d41 2969 2842 f071 8fc0 9f30 44c1
00000010: ea1d 1bc1 082b 58c2 bede 30c2 c8df 2342
00000020: d673 43c2 72dc 04c2 0141 54c2 7d27 54c2
00000030: e25d 56c2 10ab 9b3c 5a57 66c0 7826 c4bd
00000040: c2e8 8540 b9fc 8540 15b5 963f 781b fabc
00000050: 50a9 31be 015d c03e 56f7 62be d84c fabd
00000060: 3b23 803f b81e 413f ff9a 8c41 f87f 2842
00000070: 6106 8dc0 1c3b 57c2 4b42 30c1 6b88 58c2
00000080: f551 31c2 dd52 2442 3bf7 42c2 2d73 05c2
00000090: 197a 53c2 58be 53c2 d3b0 55c2 d6a3 8d41
000000a0: c690 2742 04d1 8dc0 fe86 58c2 3975 b1c0
000000b0: d20d 59c2 5187 30c2 bd87 2342 3c52 42c2
000000c0: 3440 05c2 cc1b 54c2 9bb7 53c2 1464 54c2
000000d0: ba90 8941 8a59 2242 458b 9fc0 7819 56c2
000000e0: 94dd 12c1 7cc6 55c2 6594 2ec2 bafe 2742
000000f0: 3768 40c2 c285 05c2 0866 4dc2 e713 4fc2
00000100: 2e79 51c2 3cdd 173c 562f 41c0 aa75 9dbd
00000110: f290 8240 c404 8640 4602 503f 3ba5 283e
00000120: cae2 1bbe 8958 c53c 04fc 3fbe e0d2 ebbe
00000130: ab42 683f 916f 143f 0e02 8d41 39f3 2742
00000140: f6e8 95c0 73d7 44c1 d13b b9c0 8e44 58c2
00000150: 6489 30c2 6d24 2642 7b8c 41c2 72ac 06c2
00000160: 21e6 54c2 49b2 55c2 b7cc 54c2 9bad 8d41
00000170: 6546 2342 6315 95c0 c73f 52c2 cb73 27c1
00000180: 7a49 56c2 82ee 30c2 1016 2742 29f5 41c2
00000190: cea2 04c2 d6f5 52c2 78e4 51c2 1ad4 52c2
000001a0: fc7b 613c 11a3 40c0 1345 94bd ab47 8340
000001b0: 4e84 13be 0a3e 853f e837 023d a8ed 2ebe
000001c0: 3bde 343e 2879 49be b919 42be 639c 373f
000001d0: 320f 593f cc7c 8d41 e8d3 2542 e03f abc0
000001e0: e56f 58c2 78ad 20c1 6a19 59c2 04a5 32c2
000001f0: 1ee6 2842 5a54 42c2 64e9 06c2 1263 57c2
00000200: e3ca 56c2 680a 57c2 b9ce 8f41 eeea 2642
00000210: c356 94c0 6b27 45c1 5b60 28c1 6871 59c2
00000220: 6d1d 30c2 1147 2342 0132 42c2 a822 06c2
00000230: d577 56c2 75ac 55c2 d5dc 54c2 c1f1 8c41
00000240: 3c78 2042 8ef4 a1c0 9881 42c1 007e b7c0
00000250: 06e8 57c2 ef3d 33c2 855b 2642 17f2 43c2
00000260: 59d2 08c2 9162 57c2 a415 56c2 ae84 57c2
00000270: 98b4 6b3a f7c0 c6bf ca7e 33bd 9c38 2340
00000280: 3e8f 0740 7bdf 8b3d ff4b 14bd ef12 73bd
00000290: 505f fc3e bc7e 9ebd 7bba 2fbe 2271 e93e
000002a0: 3cc2 583e b45c 933c 75fa 53c0 9a02 b6bd
000002b0: 690c 8840 64a2 8040 4b2e 903f 533c 50bd
000002c0: 3e68 25be d8d6 873e 6836 55be a180 4fbd
000002d0: bcfd 373f 5453 373f 573c 8e41 0cba 2242
000002e0: 7503 8bc0 ef79 52c2 f12d 25c1 47f7 54c2
000002f0: 8f28 32c2 a31b 1f42 d51c 41c2 9527 04c2
00000300: f4e3 53c2 be6a 52c2 b800 52c2 a292 8d41
00000310: f779 2442 8382 94c0 6b6e 51c2 1739 b7c0
00000320: 56d9 56c2 5a3a 31c2 1a0a 2342 ac10 42c2
00000330: ab9a 03c2 7cf4 52c2 fcca 52c2 70cb 52c2
00000340: 1e55 8f41 d4d1 2642 e4ce 8bc0 4362 57c2
00000350: 2fe0 24c1 3e86 58c2 5b73 31c2 4653 2442
00000360: 7a4b 43c2 575e 06c2 07e9 54c2 e8f1 54c2
00000370: 910c 56c2 46d1 9041 fe70 2742 41a6 91c0
00000380: c034 43c1 2fbc 39c1 deae 58c2 e6dc 2fc2
00000390: 5367 2242 4593 42c2 267e 05c2 68f0 53c2
000003a0: bed5 53c2 5e72 54c2 1f12 8a41 ce3b 2642
000003b0: 2d0e 92c0 038e 58c2 cbe9 24c1 ba32 58c2
000003c0: 4938 30c2 0522 2642 7c37 41c2 bb38 06c2
000003d0: a18f 53c2 5204 54c2 825f 53c2 b4f1 8c41
000003e0: a8a0 2742 50f3 8fc0 9b8c 58c2 506c b2c0
000003f0: 54c7 57c2 3bf0 30c2 8a56 2442 6fc8 41c2

fc1.bias f4 [64]
54.11158 -1.2275367 54.28149 54.42887 53.20994 -1.4440486 54.05608 53.924385
-1.3805422 54.57229 54.692295 54.16901 -0.44635954 -1.4002607 53.710682 54.39755
54.413372 54.256824 54.340458 54.159496 54.272675 54.17142 -0.724237 54.674118
54.236385 53.389496 54.13959 54.319805 53.67802 53.46945 54.186428 55.114586
54.60998 54.96373 53.2941 -1.5361313 54.54059 54.012325 54.420063 53.73927
53.590187 53.85167 52.544224 54.10071 54.432056 54.20989 -1.5488396 53.55181
54.11345 -1.3718001 54.544895 54.50684 -1.1794077 55.221264 -1.4072615 54.040154
53.592 -1.1459712 54.106922 -1.0437409 54.427013 -0.93894917 53.886707 53.905945
00000000: 4272 5842 ec1f 9dbf 3f20 5942 2ab7 5942
00000010: fbd6 5442 96d6 b8bf 6d39 5842 92b2 5742
00000020: 9bb5 b0bf 064a 5a42 e9c4 5a42 11ad 5842
00000030: 3d89 e4be be3b b3bf bdd7 5642 1797 5942
00000040: 4ba7 5942 fd06 5942 a15c 5942 53a3 5842
00000050: 3817 5942 89af 5842 9967 39bf 4cb2 5a42
00000060: 0ff2 5842 d88e 5542 f18e 5842 7b47 5942
00000070: 4bb6 5642 b8e0 5542 e7be 5842 5675 5c42
00000080: 9f70 5a42 dcda 5b42 292d 5542 f39f c4bf
00000090: 9029 5a42 9f0c 5842 25ae 5942 03f5 5642
000000a0: 5a5c 5642 1c68 5742 492d 5242 2167 5842
000000b0: 6dba 5942 edd6 5842 6040 c6bf 0e35 5642
000000c0: 2c74 5842 2597 afbf f92d 5a42 0107 5a42
000000d0: d5f6 96bf 93e2 5c42 2521 b4bf 1e29 5842
000000e0: 355e 5642 2faf 92bf 7d6d 5842 4d99 85bf
000000f0: 43b5 5942 f95e 70bf fd8b 5742 b09f 5742

fc2.weight f4 [64, 64]
51.21604 -5.639982 51.250774 50.971207 50.6795 -5.5385876 50.139633 50.743767
-5.804228 49.903263 50.58862 48.69187 -3.1985872 -5.4051595 50.962105 51.135098
50.531178 51.159508 50.855873 51.022987 51.685463 49.737366 -3.491919 50.3707
50.857895 50.095215 50.68627 50.414845 48.958336 50.29826 51.251076 49.730022
50.92529 50.0564 50.425087 -5.566412 50.87762 50.095573 51.88512 51.12742
50.08733 50.393555 50.333286 49.430653 50.422207 50.282627 -5.1781106 51.11113
50.437485 -4.8689113 49.76477 49.89447 -4.5004025 49.0311 -4.9330716 50.934227
50.70464 -4.5628414 50.185654 -4.155039 51.12979 -5.2479963 51.453106 51.3129
51.063225 -5.8770266 51.595154 51.18115 50.71738 -5.3391967 50.325703 51.198555
-5.7765937 49.841385 50.794533 48.912243 -3.022799 -5.7348237 51.17849 51.163437
50.63514 51.34038 51.16697 51.168224 51.143 49.957584 -4.4847856 50.18632
51.29849 50.178566 50.928776 50.734116 49.46438 50.258514 51.28292 49.70887
51.045013 50.19341 50.579914 -5.9916816 50.59439 50.252106 51.528294 51.014538
49.670094 50.527737 50.109314 49.430237 50.604168 50.38349 -5.505982 50.72255
50.379066 -4.9458566 49.87401 50.275055 -4.3921065 49.244118 -5.0503426 51.258335
50.82809 -5.1150985 50.380123 -4.2510724 51.18293 -5.1249967 51.412502 51.069405
51.72904 -6.622847 51.842903 51.45876 50.994682 -5.4876995 50.39255 51.425274
-5.93229 50.026733 50.880684 48.895077 -3.305215 -5.5430245 51.17631 51.17874
50.84155 51.787064 51.475323 51.390766 51.573616 49.9628 -3.9836092 50.465527
51.49147 50.192276 51.10199 50.776432 49.738964 50.576298 51.644676 49.90774
51.529545 50.327995 50.44645 -6.0968437 51.187664 50.39497 51.522694 51.066174
50.210094 50.74301 50.13735 49.58943 50.72354 50.479332 -5.4190173 50.86291
50.67504 -5.1522536 49.91879 50.59942 -4.1422744 49.17513 -4.9904356 51.079735
51.10629 -4.7682533 50.54124 -4.530336 51.38496 -5.158013 51.44043 51.066925
51.461643 -5.7111516 51.47211 51.242935 50.6974 -5.294645 50.09047 50.83086
-6.0637865 50.34759 50.322353 49.039227 -3.4492834 -5.5736966 51.192642 51.24406
50.657948 51.367588 50.61358 51.08726 51.215256 50.036667 -3.7662911 49.9513
51.14174 49.946774 50.945423 50.430523 49.662655 50.320374 51.204887 49.885544
50.99271 50.1669 50.111305 -5.6102104 51.036182 50.15997 51.275658 50.820015
50.04934 50.50343 50.10987 49.67762 50.160683 50.157784 -5.293161 50.68541
50.497753 -4.8583045 49.708866 50.196392 -4.2701416 48.79196 -5.166603 51.1665
51.124146 -4.9965434 50.321083 -4.615795 51.282906 -5.14435 50.802 50.339653
00000000: 3add 4c42 bc7a b4c0 cb00 4d42 84e2 4b42
00000010: cfb7 4a42 1c3c b1c0 fc8e 4842 9ef9 4a42
00000020: 3cbc b9c0 f19c 4742 bf5a 4a42 7ac4 4242
00000030: a7b5 4cc0 11f7 acc0 32d9 4b42 578a 4c42
00000040: ed1f 4a42 56a3 4c42 6a6c 4b42 8a17 4c42
00000050: eabd 4e42 10f3 4642 9a7b 5fc0 997b 4942
00000060: 7c6e 4b42 8061 4842 bebe 4a42 cda8 4942
00000070: 56d5 4342 6b31 4942 1a01 4d42 8beb 4642
00000080: 7fb3 4b42 c139 4842 4ab3 4942 0c20 b2c0
00000090: af82 4b42 de61 4842 5d8a 4f42 7a82 4c42
000000a0: 6d59 4842 0093 4942 4955 4942 fdb8 4542
000000b0: 57b0 4942 6921 4942 15b3 a5c0 cc71 4c42
000000c0: fcbf 4942 1fce 9bc0 200f 4742 f093 4742
000000d0: 4c03 90c0 d91f 4442 b9db 9dc0 a6bc 4b42
000000e0: 8dd1 4a42 cc02 92c0 1cbe 4842 14f6 84c0
000000f0: e884 4c42 96ef a7c0 fbcf 4d42 6940 4d42
00000100: be40 4c42 9a10 bcc0 7061 4e42 7fb9 4c42
00000110: 99de 4a42 b3da aac0 854d 4942 52cb 4c42
00000120: dbd9 b8c0 945d 4742 9a2d 4b42 23a6 4342
00000130: 8a75 41c0 ad83 b7c0 c6b6 4c42 5ca7 4c42
00000140: 628a 4a42 8d5c 4d42 faaa 4c42 43ac 4c42
00000150: 6f92 4c42 91d4 4742 5d83 8fc0 cbbe 4842
00000160: a731 4d42 dab6 4842 11b7 4b42 bcef 4a42
00000170: 86db 4542 b808 4942 b621 4d42 e2d5 4642
00000180: 182e 4c42 0dc6 4842 d551 4a42 dbbb bfc0
00000190: a860 4a42 2802 4942 f91c 4e42 e30e 4c42
000001a0: 2dae 4642 671c 4a42 f06f 4842 90b8 4542
000001b0: ab6a 4a42 b288 4942 0131 b0c0 e4e3 4a42
000001c0: 2a84 4942 7544 9ec0 fc7e 4742 a819 4942
000001d0: 238c 8cc0 faf9 4442 689c a1c0 8908 4d42
000001e0: f74f 4b42 e3ae a3c0 3f85 4942 c908 88c0
000001f0: 52bb 4c42 f9ff a3c0 67a6 4d42 1247 4c42
00000200: 89ea 4e42 5dee d3c0 225f 4f42 c5d5 4d42
00000210: 8efa 4b42 3c9b afc0 f991 4942 7bb3 4d42
00000220: 52d5 bdc0 601b 4842 d285 4b42 8f94 4342
00000230: a488 53c0 7560 b1c0 8bb4 4c42 08b7 4c42
00000240: bf5d 4b42 f425 4f42 bbe6 4d42 2590 4d42
00000250: 624b 4e42 e8d9 4742 74f3 7ec0 b3dc 4942
00000260: 44f7 4d42 e4c4 4842 7068 4c42 111b 4b42
00000270: b3f4 4642 214e 4a42 2694 4e42 87a1 4742
00000280: 411e 4e42 de4f 4942 2ac9 4942 5819 c3c0
00000290: 2bc0 4c42 7394 4942 3d17 4e42 c343 4c42
000002a0: 23d7 4842 d8f8 4a42 a58c 4842 945b 4642
000002b0: e8e4 4a42 d6ea 4942 9768 adc0 9f73 4b42
000002c0: 3eb3 4a42 43df a4c0 d7ac 4742 ce65 4a42
000002d0: 838d 84c0 55b3 4442 a6b1 9fc0 a651 4c42
000002e0: d76c 4c42 8895 98c0 3b2a 4a42 83f8 90c0
000002f0: 338a 4d42 710e a5c0 00c3 4d42 8844 4c42
00000300: b9d8 4d42 c1c1 b6c0 71e3 4d42 c4f8 4c42
00000310: 23ca 4a42 bb6d a9c0 a45c 4842 cd52 4b42
00000320: 8a0a c2c0 ef63 4942 174a 4942 2b28 4442
00000330: 0fc1 5cc0 b95b b2c0 44c5 4c42 ebf9 4c42
00000340: bda1 4a42 6978 4d42 4e74 4a42 5b59 4c42
00000350: 6cdc 4c42 8c25 4842 ea0a 71c0 22ce 4742
00000360: 2491 4c42 7fc9 4742 1dc8 4b42 dbb8 4942
00000370: 8fa6 4642 1048 4942 ced1 4c42 cc8a 4742
00000380: 89f8 4b42 e8aa 4842 fa71 4842 d886 b3c0
00000390: 0d25 4c42 cfa3 4842 461a 4d42 b247 4b42
000003a0: 8632 4842 8303 4a42 8270 4842 e2b5 4642
000003b0: 8aa4 4842 92a1 4842 9361 a9c0 dcbd 4a42
000003c0: b3fd 4942 3b77 9bc0 e1d5 4642 1bc9 4842
000003d0: 00a5 88c0 f82a 4342 d054 a5c0 7faa 4c42
000003e0: 207f 4c42 afe3 9fc0 ca48 4942 98b4 93c0
000003f0: b221 4d42 849e a4c0 3f35 4b42 ce5b 4942

fc2.bias f4 [64]
53.824524 53.702503 53.988415 53.6247 53.673058 45.969536 53.929054 50.02797
53.524498 -0.15039249 -0.09503199 46.80864 -0.14607285 53.83103 -0.15958665 47.003307
-0.03470447 48.479492 -0.35933268 -0.12561016 53.421593 -0.30816975 -0.25925532 53.469692
-0.17947644 54.08749 -0.26585037 50.58646 46.015266 49.78369 54.01885 -0.32976246
53.00781 53.638775 -0.25267744 53.89761 46.575176 53.672398 54.031284 -0.01460082
54.028473 -0.088719554 -0.13951561 50.111668 53.840603 -0.0388992 -0.17663108 -0.011375435
53.79802 52.965332 -0.47313908 -0.07184862 -0.07836618 53.677532 -0.33972454 54.03708
54.089157 -0.21201093 54.062054 53.656097 53.165737 54.123833 53.961792 -0.25441438
00000000: 504c 5742 5dcf 5642 23f4 5742 b17f 5642
00000010: 36b1 5642 cee0 3742 5ab7 5742 a41c 4842
00000020: 1619 5642 7d00 1abe 22a0 c2bd 0c3c 3b42
00000030: 1f94 15be fa52 5742 af6a 23be 6303 3c42
00000040: 4626 0ebd 00eb 4142 74fa b7be f39f 00be
00000050: b6af 5542 6dc8 9dbe 1dbd 84be f7e0 5542
00000060: acc8 37be 9759 5842 8a1d 88be 8958 4a42
00000070: a20f 3842 8022 4742 4d13 5842 a0d6 a8be
00000080: ff07 5442 1b8e 5642 f05e 81be 2797 5742
00000090: fb4c 3a42 89b0 5642 0920 5842 4738 6fbc
000000a0: 281d 5842 99b2 b5bd 2edd 0ebe 5972 4842
000000b0: c75c 5742 c454 1fbd c7de 34be 0860 3abc
000000c0: 2c31 5742 80dc 5342 493f f2be 5f25 93bd
000000d0: 737e a0bd cbb5 5642 60f0 adbe f825 5842
000000e0: 4c5b 5842 6519 59be 8b3f 5842 d89f 5642
000000f0: b7a9 5442 ce7e 5842 e0d8 5742 9a42 82be

fc3.weight f4 [1, 64]
-51.305653 -51.25518 -51.18119 -51.234676 -52.358566 -43.5131 -51.249756 -47.471153
-51.148663 5.6722856 0.3897261 -44.04009 0.0071545443 -51.056652 0.20939678 -44.257996
5.8033075 -45.968536 6.6128 0.28644612 -51.215637 6.406444 6.288411 -50.84864
0.24037139 -51.27797 6.559927 -47.978912 -43.29527 -47.134583 -51.22391 0.22369944
-50.77945 -52.26056 6.4952917 -51.27017 -44.227715 -51.51087 -51.168888 5.153999
-51.174973 0.13560103 6.5343 -47.398796 -51.52406 0.1575018 0.4125576 0.014357733
-51.07493 -50.203205 6.756319 0.0018807136 0.11195405 -51.009712 6.6624084 -51.273273
-51.202274 0.16237015 -51.207745 -51.266834 -50.75668 -51.234806 -51.22904 0.27858493
00000000: fd38 4dc2 4e05 4dc2 8ab9 4cc2 4ff0 4cc2
00000010: 2c6f 51c2 6a0d 2ec2 c0ff 4cc2 76e2 3dc2
00000020: 3b98 4cc2 5d83 b540 2e8a c73e 0d29 30c2
00000030: ab70 ea3b 033a 4cc2 1c6c 563e 3008 31c2
00000040: b2b4 b940 c8df 37c2 0f9c d340 11a9 923e
00000050: d0dc 4cc2 9701 cd40 aa3a c940 0265 4bc2
00000060: eb23 763e a41c 4dc2 ecea d140 68ea 3fc2
00000070: 5b2e 2dc2 d089 3cc2 49e5 4cc2 7711 653e
00000080: 281e 4bc2 d00a 51c2 6ed9 cf40 a714 4dc2
00000090: 2ee9 30c2 220b 4ec2 f1ac 4cc2 8fed a440
000000a0: 2cb3 4cc2 ffda 0a3e fc18 d140 5e98 3dc2
000000b0: a318 4ec2 2748 213e c03a d33e b23c 6b3c
000000c0: ba4c 4cc2 15d0 48c2 c433 d840 4782 f63a
000000d0: 2a48 e53d f209 4cc2 7332 d540 d517 4dc2
000000e0: 21cf 4cc2 5c44 263e bbd4 4cc2 3d11 4dc2
000000f0: d706 4bc2 71f0 4cc2 89ea 4cc2 afa2 8e3e
