SAC/sac/critic2_checkpoint_4.pth (torch, 23178 bytes, 5 tensors)

fc1.weight f4 [64, 13]
00000000: 4967 be3e 70a3 01bf 9eea 2ebe 03f0 8abc
00000010: 8bb0 40be 8177 9b3e 4b17 02be 4f39 20be
00000020: 5fbf 5c3e 332b 093f 0b26 8b3e 13bd 993e
00000030: cfe5 283e 29bc f93b aaa2 ab3e 878e ed3d
00000040: 5a2f 2ebf 0e46 0fbf 853f 33be 3e18 623e
00000050: 5185 1e3e e827 c83b 7a09 13be 3a03 9abe
00000060: 8afd 1a3d 8d7e 16be 5478 8e3c 50bd fcbd
00000070: 2455 933d e9c5 13be bc30 febe 20af dd3d
00000080: 66af 033f 4a9c 15bb d7bb 4a3c 5fcb 0d3d
00000090: 0290 05bd 1405 ec3d b94d 143c 0470 8c3e
000000a0: c174 083e f612 c43d 8786 29bd f185 73bd
000000b0: 8b6c 5a3f b7f8 18be 01b3 823e 3fa3 5c3e
000000c0: a146 513e a4aa 8c3d 62e3 593c 44d0 213e
000000d0: ecd0 93be ec03 e7be f40a e8bc 96c2 483d
000000e0: 107c 643d 2d1e 09be 1feb 26be c603 543d
000000f0: 11c2 0cbe 6005 1c3e e4c5 9dbc 82e0 0dbe
00000100: 078c e9ba 6e36 c63d a68a 1ebe 254c ab3d
00000110: 9eae 1abe 0686 163e 7413 85be 5f8a 7d3e
00000120: b0af 883d 6a58 d2be 9725 69bd a535 53be
00000130: 1ca4 48bd b679 57be 17c6 fabe 7cde f83d
00000140: ae53 91bd 31ff cabe 0b9d ba3d 0453 54be
00000150: 8bca 843e 7f58 27bc 6e23 81be 0caf fdbd
00000160: 8965 333d bcd1 c03d 357e 863d 3be1 08be
00000170: 695d 7cbe 2c40 89be 71e1 99bf 7367 01bd
00000180: e8eb 87be 9d84 733f 87f7 c83c 6372 1ebe
00000190: f79f b0be a7d6 043d a499 79bc 9c15 bb3d
000001a0: cc8e 5ebe 3214 593e ca52 47bd ff8a 0ebe
000001b0: 92dd 84be 81bc 903d 4daa afbe ca45 393e
000001c0: 5e9e 2c3d d6aa f9bd 920b 383d 42dd 5a3e
000001d0: c650 5b3d 17b4 9abd f376 96be d6a8 42bd
000001e0: 5cc9 753e 425a 6bbe 8502 1abe 732d 81bc
000001f0: 1214 633d d8fb c1be 3bea 27be 526f 96bd
00000200: 6bba d2bd bdd4 97bd 874e ccbc 3303 cabc
00000210: 3c34 bc3e ab86 253e dacf 1abf e594 15be
00000220: c185 813e e8ff 3b3e 885d 0c3e f36a 0e3d
00000230: f8db ef3e aee5 ad3e 0194 983d 33a5 9cbe
00000240: 36ff b63e e19d 083c a6f9 70bf e052 95be
00000250: d032 02bf f0c2 dbbd fde1 98bd ff34 b4bd
00000260: d689 28bd 9911 9a3d 2ae8 993d 4c0b 58bd
00000270: 54a2 f5bd be2a 9abe 08b0 9dbe 8dcd 0bbf
00000280: 54a8 123d ccd9 87bc 35f1 2ebe 4dd0 a13d
00000290: 5a07 babe 9821 30bd d673 cebd 0ef4 8a3e
000002a0: f2bc dc3d 8574 963e 9b58 01be aa06 ec3d
000002b0: 2aec bebe 172e 65bc 89b6 e13e bab4 cd3d
000002c0: b1bf fc3b f29b c83e 779d a23e a225 423d
000002d0: 8293 c23d 7084 323d eac6 15bd 16c6 d83d
000002e0: 6034 513e 4859 6bbd 3a33 1fbe e8c8 52bd
000002f0: 4c57 51be f5bd 2bbe 5752 c73e d4a6 533e
00000300: dd0e 5b3e 6422 1b3e 5543 8b3e a0d4 e3bd
00000310: cb02 6b3f 2206 2bbe 5b9a b23d 628b 25be
00000320: d509 aebd 1264 c7be 5897 c9bc 9ed8 c03d
00000330: 0a9c bc3d c67a 943c 29f6 75bd 7ad7 62be
00000340: 7a39 c7bd 9cea ef3e 7cb7 753e fa5f 93be
00000350: 94fb 7c3d fee5 393e 12e8 13be b3c8 313e
00000360: 199c d23c a7ff 3cbc 06b0 433d ac15 a8bd
00000370: 3f81 1d3e 02c5 5dbe ac3f 563e 48ac 0b3c
00000380: 0964 3fbe 9852 233e 5bc8 9c3d 048f 313d
00000390: 33f8 423e 99a9 b5be a4a1 cfbd 5a15 64bd
000003a0: 3cb4 153e 55c7 423e 2b63 88be 22e6 b03e
000003b0: 09ce 8f3d 237b 11bb 7f0a a23d f630 c43e
000003c0: 2b3a c1bd aed2 f03e 4cf2 c63e 747f 153d
000003d0: 8b1a 603e 1dc1 213e 90c2 a53d bc0a afbd
000003e0: f68e bd3e 5b34 873e 65d1 8fbe 5151 26be
000003f0: b9b4 8f3e 8ae4 ebbd 8df8 a6bd f68e cd3e
0.37188175 -0.5064001 -0.17081687 -0.01696015 -0.18817346 0.30364612 -0.12704198 -0.15646861
0.21557377 0.5358154 0.27177462 0.30027065 0.16493915 0.0076213074 0.3352254 0.115994506
-0.68041 -0.5596627 -0.175047 0.2207956 0.15480544 0.006108273 -0.14359084 -0.30080587
0.03783945 -0.14696713 0.017391361 -0.12340796 0.07193974 -0.14430965 -0.49646556 0.10824418
0.5143951 -0.0022828751 0.012373886 0.034617778 -0.03260804 0.11524406 0.009051734 0.2742921
0.13325788 0.09573929 -0.04138806 -0.05945391 0.85321873 -0.14938627 0.25527194 0.21546648
0.20437099 0.068684846 0.013298841 0.15802103 -0.28870332 -0.4512018 -0.028325535 0.049013697
0.055782378 -0.13390417 -0.16300629 0.05176141 -0.13745905 0.15236425 -0.0192594 -0.13855174
-0.0017818221 0.096783504 -0.15482578 0.08364133 -0.15105674 0.14699563 -0.25991404 0.24759816
0.06674135 -0.4108308 -0.056920614 -0.20625933 -0.048984632 -0.21042523 -0.48979256 0.121518105
-0.07096039 -0.3964782 0.09111985 -0.20734793 0.25935778 -0.01021397 -0.25222343 -0.12386903
0.043798003 0.09415004 0.06567041 -0.13367169 -0.24645008 -0.26806772 -1.2021924 -0.031592797
-0.2654717 0.95124227 0.024532093 -0.15473323 -0.34497043 0.03243127 -0.015234385 0.09134981
-0.2173416 0.2119911 -0.04866294 -0.1392021 -0.25950295 0.07067204 -0.34309617 0.18093029
0.04214322 -0.121907875 0.04493291 0.21373466 0.05354383 -0.07553881 -0.29387626 -0.047524296
0.24002594 -0.2298365 -0.15040024 -0.015768742 0.055439062 -0.37887454 -0.16397946 -0.073454514
-0.10289463 -0.074136235 -0.024939789 -0.024659729 0.36758602 0.16164653 -0.60473406 -0.1460758
0.2529736 0.18359339 0.13707554 0.034769963 0.4684751 0.33964294 0.074501045 -0.30594787
0.35741585 0.0083384225 -0.94130933 -0.2916479 -0.50858784 -0.10730541 -0.07464979 -0.08799171
-0.041147076 0.07522888 0.07514985 -0.05274515 -0.11993852 -0.30110735 -0.30798364 -0.5461052
0.03580506 -0.016583346 -0.170842 0.07901058 -0.36333734 -0.043000787 -0.10080688 0.27139324
0.10778226 0.29385772 -0.12631457 0.115247086 -0.37289554 -0.013988039 0.44084576 0.100442365
0.007713281 0.39181477 0.3176076 0.04739917 0.09500791 0.043583333 -0.036566652 0.10584657
0.20430136 -0.057458192 -0.15546885 -0.05146113 -0.20443457 -0.16771682 0.38930008 0.20669109
0.21392389 0.15149838 0.27199808 -0.111245394 0.91801137 -0.16701558 0.08720847 -0.16166452
-0.08497969 -0.38943535 -0.0246083 0.094163164 0.092094496 0.01812495 -0.06004921 -0.2215251
-0.0972776 0.4685868 0.23995775 -0.28784162 0.06176336 0.18154141 -0.14443997 0.17361717
0.025709199 -0.011535562 0.04777529 -0.082072586 0.15381335 -0.21657184 0.20922726 0.008524962
-0.18690504 0.15949476 0.07655402 0.04334928 0.19039993 -0.35480955 -0.101382524 -0.055684425
0.14619535 0.19021352 -0.2663816 0.34550577 0.0702172 -0.002219864 0.07912158 0.38318604
-0.09434923 0.47035736 0.38856733 0.036498502 0.21885125 0.15796323 0.080937505 -0.08546969
0.37023133 0.26407132 -0.28089443 -0.16241957 0.28067568 -0.115182 -0.08152876 0.40148133

fc1.bias f4 [64]
00000000: 28cf 30be a94e 473f 3ef2 123e 7977 2cbe
00000010: ca96 3dbe fd29 923e 252b 403e dd5b 443f
00000020: b11d fabb 333b 563e 747b 123f fa93 f93e
00000030: 8cee eb3e 248a 89be c99f 833e 7ad1 b1bd
00000040: 2bda 50be ef83 143f 7fd8 05bf 1929 133f
00000050: e1fa 593f 7bb2 493e 5033 303f c390 2f3f
00000060: 9b9f 9f3e 2c37 ef3e 7934 3bbe b51c 8d39
00000070: a782 9bbe 01a0 ff3e f2d7 8cbe 4d2d 293c
00000080: ece6 453f 7b39 ebbd 9802 4f3e 8b78 a13e
00000090: be3d c83d 6416 f73e d6a0 bc3e c617 173f
000000a0: bebe 323f e936 2f3d cf3b b03c 2f65 853e
000000b0: 15ce 323f 7a66 2f3f bfbe 32be 2b35 e4be
000000c0: 320b 8c3f 06f2 283f 3daa 783f e72a 383f
000000d0: d622 433f 47bf 88be 90af 293f 7a93 03be
000000e0: 9a5e a13e 713e a8bc 8c24 303e e4dd 863d
000000f0: 6d01 443e 11cd bcbe c03b 4f3f 1ee6 323e
-0.17266524 0.778544 0.1435022 -0.1684245 -0.18514553 0.2854766 0.18766458 0.7670267
-0.007632934 0.2092102 0.57219625 0.4874571 0.46080434 -0.26863205 0.25707844 -0.086825326
-0.20395724 0.58013815 -0.5228347 0.57484585 0.85148436 0.19696991 0.68828297 0.68580264
0.31176457 0.4672178 -0.18281735 0.00026915004 -0.30373117 0.4992676 -0.27508503 0.010325742
0.77305484 -0.11485573 0.20215833 0.3153728 0.097774014 0.4825927 0.36841458 0.5902065
0.698223 0.042776976 0.021512894 0.2605376 0.69845706 0.6851574 -0.17455576 -0.44571814
1.0940917 0.659943 0.97134763 0.71940464 0.7622503 -0.26708433 0.6628351 -0.12849227
0.31517488 -0.020537587 0.17201442 0.06585291 0.19141169 -0.36875203 0.80950546 0.17470595

fc2.weight f4 [64, 64]
00000000: 7d58 4fbb 8e18 223e 20c8 da3d 6f0f af3d
00000010: be0c 5f3d 0373 a4bc eed7 063e 23d4 f93d
00000020: 5450 233e 60b6 513b d7f2 af3b 3de2 12bd
00000030: 3d2b 123d f8e5 373e 0d17 ff3d ce9f e83d
00000040: 0a0b f2bd b6d5 403e fb79 28be a8d1 c03d
00000050: 45af 933e ed39 50be fbfd 343e c267 ba3d
00000060: c80e 433e 154c 803d d8bb f13d 5e5d 853d
00000070: b2e8 10bd 4afb 863d f2a2 113e 0b96 90bb
00000080: 794e 9f3d 74cc 2e3e 5852 c83d b6d9 633d
00000090: 9f00 17be 0a7a 5f3e a360 513e bd05 af3d
000000a0: 2463 da3d 18ea 19bd 60fe ffbd 4ba1 453e
000000b0: f445 a53e 8a70 8a3b 5c71 56bd 617c 263e
000000c0: 6145 833d 020d 183d 0bc2 323d e232 593e
000000d0: 8e32 af3d f96d 283d 71c4 763d af8e 41bd
000000e0: 78dc 3cbd 5930 273e b7df 0c3d 3dcc bf3d
000000f0: 4001 8f3e cb6f de3d defd 873e 7990 a13d
00000100: 2252 393d 001c eb3d 7cff 373d c813 ce3d
00000110: cd45 973d b5d0 bfbd 5029 ce3d 4c6a fc3b
00000120: 2f54 32bc 0ba6 383e 4f18 b23b a449 a63d
00000130: ada7 653d 53cf 6d3d 0f8f 383e 3741 443d
00000140: 912a e73c 0e06 8d3e 5c0e 2c3d 89b8 45bd
00000150: 5a87 423e 140e c3bc fe7e 453e 62b6 413d
00000160: 46a2 613e caef 173e 05ef 8abc f873 0f3d
00000170: 9091 d1bd a31e c63d 0ffc 083e 37b6 493d
00000180: 5b15 703e a224 093e e803 813d 2b62 be3a
00000190: 6e34 a4bc 05dd bc3d be12 a03d 6a40 b73d
000001a0: d2db 2f3d 78dc 90bc 9933 a9bd e2b0 323e
000001b0: 0715 0d3e fdeb ce3d d70c cdbd 1dd2 dd3d
000001c0: 51f2 a63d b189 693e dd2d 063e fbd7 363e
000001d0: 4a93 8b3d 1d4a 9dbd d382 6a3d 99c0 073e
000001e0: abe9 8f3d a0c4 cc3d 01d2 dbbc 14ac 093e
000001f0: fc51 983e 49b1 6dbd 512b 853d e056 5abd
00000200: c6b3 86bd f1fc 01be dff1 a0be 9e38 91bd
00000210: 1bbb 51be 68f0 b4bc 17a4 1ebe 1c2e 943c
00000220: ea62 01bd 8b64 803d 30b5 6abe 6d50 ee3d
00000230: 78e8 723e d01b 243e e20f 31be 75ff e73c
00000240: 182e 8f3d 7ada ae3d c90b e0be d2c1 b3bc
00000250: 148d c3bd 035d 2a3d b881 89bd 0d73 c4bd
00000260: 84b8 04bd 5d7d 2abc 6ca5 bbbd b143 eebd
00000270: c0a5 babc bdba 6fbd 0248 dbbd b7a5 993d
00000280: 9a06 1d3c 6925 2c3e 7b36 0c3e 282f 693d
00000290: 9f4e 823e c5f6 48be da5c 9e3d f3b4 fd3c
000002a0: c785 dfbd 9c80 913d 487e 28bb c5c8 a6bd
000002b0: 57ff ccbd f39a 2a3e 376d 9a3d f468 063d
000002c0: 3484 173e fa16 f73d 3c91 4d3e fc1d 873d
000002d0: 176d cbbd 3e15 233d b1cd da3d aa63 7b3d
000002e0: 1248 f1bd 27b4 e63c c158 20bd 0682 323d
000002f0: 677b b3bd c4d3 3c3e 0225 cd3d a60d ae3d
00000300: 98f0 0fbf 2bf5 483e 59f3 c3be 49e2 2cbe
00000310: 6860 dbbe 35b4 82bd ed57 333d 5fec 6e3d
00000320: 060b 213e db4a 913d 91fd 823b 246d e43d
00000330: 7663 c43d 659a 813e d272 c93e c541 2ebc
00000340: 28d8 bcbd acf4 803c b797 f9be 3418 853e
00000350: cc5a a93d 41a2 16be 8ea6 913e d594 6d3e
00000360: ffd9 65bb 5b2e 103a 946e 14be 5c40 8e3d
00000370: f39d 1abf de68 343e 8b9a 89be 61ef 743e
00000380: dbfc 37bc 390d adbe 541d 72bd 5c46 48be
00000390: 5b95 d3bd e045 233e 534f 053e 1331 f0bb
000003a0: edc9 c03d b258 09be f96f 0cbe 0543 9c3e
000003b0: de74 8c3e 9351 f7bd 1f80 18be 7f05 cfbe
000003c0: 5b4c 92bc 14cd 0b3e 5c2c ba3d f05d 7c3e
000003d0: 3352 2a3d 8c6a 39bd 7304 333c 6bab 5c3d
000003e0: 6b3b d43c 2356 71bd 5c53 93bd ba72 d73d
000003f0: f33e c13e 2d72 113c f00f 3c3d 6419 d33d
-0.0031638436 0.1582968 0.10682702 0.085478656 0.05445551 -0.020074373 0.13168308 0.12198665
0.15948611 0.0031999573 0.005369525 -0.03586029 0.035685766 0.1795882 0.124555685 0.11358605
-0.11818512 0.18831524 -0.16452782 0.09414989 0.28844658 -0.20334597 0.17675011 0.091018215
0.19048607 0.062645115 0.118034065 0.06511949 -0.035378166 0.06590898 0.14222315 -0.0044124178
0.07778639 0.1707018 0.09781331 0.055627547 -0.1474633 0.21823898 0.2044702 0.08546016
0.10663441 -0.037576765 -0.1249969 0.1929981 0.32279932 0.0042248415 -0.0523542 0.16258384
0.06409717 0.03712178 0.043642085 0.21210817 0.085545644 0.041120503 0.060245935 -0.047255214
-0.046108693 0.16327037 0.03439304 0.09365127 0.2793064 0.108611666 0.26560873 0.07888884
0.045244344 0.1147995 0.044921383 0.10062367 0.0738636 -0.093659796 0.100664735 0.0077031013
-0.010884329 0.1803209 0.0054350267 0.081195146 0.05606811 0.058059048 0.18023323 0.047913756
0.02821854 0.27543682 0.04200588 -0.04827169 0.18996945 -0.023810424 0.19286725 0.047293074
0.22034559 0.14837566 -0.016959677 0.035022706 -0.10232842 0.09673812 0.13377403 0.04924604
0.23445646 0.1339288 0.06299573 0.0014525106 -0.020044532 0.09221844 0.07816075 0.08947833
0.042934246 -0.017683253 -0.082617946 0.17450288 0.13777553 0.10103605 -0.10012215 0.108310916
0.08151687 0.22806431 0.13103433 0.17855828 0.068152025 -0.076801516 0.05725367 0.13257064
0.070269905 0.09998441 -0.026833536 0.13444549 0.2975005 -0.0580304 0.065024026 -0.053305507
-0.06577258 -0.12694146 -0.31434533 -0.07090877 -0.20481531 -0.02208729 -0.15492283 0.018088393
-0.031588472 0.06269177 -0.2292068 0.11636434 0.23721492 0.16026235 -0.17291215 0.028320054
0.069912136 0.08537765 -0.4375899 -0.021943007 -0.09548393 0.04159261 -0.06714195 -0.09592257
-0.03240253 -0.0104058655 -0.09162411 -0.11634005 -0.022784114 -0.058527697 -0.10707094 0.07502311
0.0095840935 0.16811146 0.13692658 0.056929737 0.25450608 -0.19625385 0.07732554 0.030970072
-0.10914188 0.071046084 -0.0025710035 -0.081437625 -0.1000964 0.16660671 0.07540362 0.032814935
0.14796525 0.12064929 0.20074934 0.06597516 -0.099329166 0.03981518 0.10683764 0.061374344
-0.117813244 0.028162075 -0.039147142 0.04358103 -0.087637715 0.18440157 0.10016824 0.08498697
-0.5622649 0.19624774 -0.38271597 -0.16883196 -0.4284699 -0.06382028 0.043785024 0.05833089
0.15726861 0.07094356 0.0039975126 0.111536294 0.09589283 0.25313106 0.39345413 -0.010635798
-0.09220916 0.015741669 -0.48748562 0.25995028 0.08269271 -0.14710332 0.28447384 0.23201306
-0.0035072563 0.00055000716 -0.14495307 0.06945869 -0.6039726 0.17618129 -0.2687572 0.23919441
-0.011229719 -0.3379915 -0.05911 -0.1955809 -0.10331222 0.15944624 0.13018541 -0.007330069
0.09413514 -0.13412741 -0.13714589 0.30519882 0.27432913 -0.12076106 -0.14892624 -0.4043388
-0.017858675 0.1365245 0.09090492 0.2464521 0.041582298 -0.045267627 0.010926354 0.053874414
0.025907239 -0.058920037 -0.07193634 0.10519929 0.3774334 0.008877319 0.045913637 0.10307577

fc2.bias f4 [64]
00000000: 46c1 c93e 8e2a 0e3f 839e b93d 4ea1 8c3e
00000010: 4a24 d4bc 35f9 a83e e15f 8fbc 854c c2be
00000020: c7a3 003f 49fe 513c 1156 46bd eba4 033f
00000030: e7d7 af3d cbed e13e 6068 a53e 8757 f13e
00000040: e02a 683e a835 813d 4bd1 8c3e 0574 a33d
00000050: 3570 e63e e638 e53e c948 0a3f 8a4b db3e
00000060: 0936 dd3e 3b96 023f a8e3 de3e 17c0 0a3f
00000070: 68f9 d1be 0aeb c53e 29e9 e93e eadf f73e
00000080: 68ef 523e 5a30 8c3e ce90 e13e 4385 23be
00000090: 1a8f 403c 2b92 b1be cc89 c73e d90d 5ebe
000000a0: 3784 943e 275a 69bd e7bd 243e 7de3 debd
000000b0: ab12 e6be 0294 e23d 7150 d63e 7429 db3e
000000c0: 40b7 3f3e 8b80 0dbd 4961 c1be a8e4 ffbc
000000d0: 0b68 e53e fb67 e7bd 2b75 92bc 3a15 ec3e
000000e0: 8229 bb3e 5669 c23e afab 15bc 0f0f b93e
000000f0: e182 f3bd d34f b93e 691e e33b c81e 93bd
0.39405268 0.55533683 0.09063437 0.27466816 -0.02589621 0.3300263 -0.017501773 -0.37949005
0.50249904 0.012816974 -0.048421923 0.5142352 0.08586102 0.44126734 0.32306194 0.4713709
0.22672606 0.06309062 0.27503428 0.07981113 0.45007482 0.44769973 0.5401731 0.4283107
0.43205288 0.51010484 0.43533063 0.54199356 -0.41010594 0.38655883 0.456857 0.4841302
0.20599139 0.2738064 0.4405579 -0.15968804 0.011752868 -0.3468183 0.38972318 -0.2168497
0.29007122 -0.05697074 0.16088067 -0.10883234 -0.44936118 0.110633865 0.41858247 0.42805064
0.18722248 -0.034546416 -0.37769535 -0.031236961 0.4480594 -0.112991296 -0.017878136 0.46109945
0.36555105 0.3797099 -0.009135171 0.361443 -0.118901975 0.36193714 0.0069311154 -0.071836054

fc3.weight f4 [1, 64]
00000000: 7ecc 4bbe a7f8 20be 881a 87be f77b 863e
00000010: 29a1 ba3e 861c a1bd 3ac6 d53e f330 0d3f
00000020: fff2 dbbd 9ed5 663e 9faa a43e 7260 3bbe
00000030: e13f 783e d7b4 c7bd 7fe1 a8bd 6e4b 39be
00000040: 0ddb 8e3e fe29 9b3d 62d0 963e 704b d6be
00000050: 0d7a 30be 2bf4 d8bd 8160 e4bd 48b0 05be
00000060: 1170 e1bd 7460 acbd 4f87 f8bd 713f cfbd
00000070: ccda 0240 7e9e 00be 3bcb a9bd f84d cebd
00000080: 6451 593e c9cb 30be 7d3f 11be 3fa1 8d3e
00000090: 0ecf c63e dad7 893e 039c 30be 08bd 8c3e
000000a0: 5637 993e 1fdb e03d 75ba 7e3e 1aba d23e
000000b0: 10bc be3f 74f9 933e 0be9 2cbe f47b 41be
000000c0: edea be3e 06be a93e bc6b d63e be6b 483e
000000d0: 32cd c1bd da65 8c3e d7eb ce3e f1dc 12be
000000e0: 66af 5ebe 38c2 3abe 75f2 cd3e da77 0fbe
000000f0: 9e58 893e 21d0 3cbe b0c0 ac3e b683 ab3d
-0.19902226 -0.15719853 -0.2638743 0.26266453 0.3645108 -0.078667685 0.41752797 0.55152816
-0.10739707 0.22542426 0.32161424 -0.1829851 0.24243118 -0.09751289 -0.08246135 -0.1809518
0.27901497 0.07576369 0.29455858 -0.4185443 -0.17234059 -0.10593446 -0.11151219 -0.13055527
-0.11007703 -0.084168345 -0.12135183 -0.10119522 2.0446043 -0.1256046 -0.08290716 -0.10073465
0.21222454 -0.17265238 -0.14184375 0.27662084 0.38829845 0.26922494 -0.17247014 0.2748797
0.2992503 0.10979294 0.24875815 0.4115761 1.4901142 0.28901255 -0.16885774 -0.1889494
0.3728861 0.3315279 0.4187907 0.1957235 -0.09462966 0.27421457 0.40414307 -0.14342095
-0.21746597 -0.18238151 0.40224043 -0.14010563 0.26825422 -0.1843877 0.3374076 0.08374731
