SAC/sac/critic2_checkpoint_6.pth (torch, 23178 bytes, 5 tensors)

fc1.weight f4 [64, 13]
0.31067047 -0.4802872 -0.15969954 -0.026843067 -0.09948156 0.32123408 -0.07986639 -0.18169501
0.22179794 0.5086144 0.3328417 0.38084587 0.23885065 0.0033598933 0.32039428 0.11479266
-0.6852715 -0.5645242 -0.18139507 0.21633698 0.11938822 0.022979679 -0.12739511 -0.27897564
0.03387639 -0.14911029 -0.0030422395 -0.17968059 -0.026888337 -0.045451313 -0.3491243 0.25121173
0.38577574 -0.01928642 0.10424479 0.05457029 -0.022348342 0.05925186 0.016555052 0.24678369
0.13798438 0.07420902 -0.043920208 0.016005957 0.7889889 -0.09359496 0.22941332 0.10346218
0.19549109 0.186446 -0.020635517 0.28125125 -0.2289543 -0.42662063 -0.05031438 0.0346579
0.058175273 -0.19517985 -0.12142486 -0.011656788 -0.18421029 0.07150239 0.0322852 -0.13846608
-0.018191881 0.08156904 -0.14360029 0.09861591 -0.12914683 0.14809135 -0.22746047 0.24862762
0.07322669 -0.41283357 -0.04299326 -0.19292873 -0.03675407 -0.17858486 -0.51938885 0.18053477
-0.015426807 -0.11537962 0.09765097 -0.0016851844 0.30811357 -0.03652936 0.06929599 -0.009133137
0.115871996 0.1399998 0.010350708 -0.1370578 -0.40421385 -0.20370679 -1.1479632 -0.04906332
-0.23242545 0.91982144 -0.021163072 -0.11809495 -0.27277127 0.093890876 -0.008782824 0.15407437
-0.13880062 0.28504667 0.050006803 -0.02606117 -0.15742075 0.16963485 -0.31319278 0.08444397
0.09029348 -0.042140253 0.090545535 0.29442486 0.16916265 -0.094868645 -0.22278963 -0.02335665
0.22216238 -0.23137666 -0.12740694 0.006617754 0.026626261 -0.3789565 -0.1472549 -0.062998444
-0.07822608 -0.08374868 -0.025487795 0.18497172 0.18175694 0.12721416 -0.49688837 0.017559798
0.23949759 0.1987711 0.31726527 0.062993735 0.42986807 0.4271473 0.041887846 -0.35507923
0.3970533 0.0045688907 -0.875675 -0.22602846 -0.42719075 -0.07092791 -0.071083836 -0.0452507
-0.03470195 0.10243397 0.11424923 -0.0023970064 -0.051706053 -0.22998592 -0.20160034 -0.45555705
0.04989237 0.042675857 -0.118116744 0.15538557 -0.34445798 -0.03217777 0.007396415 0.2542232
0.12556799 0.236592 -0.12716465 0.16254863 -0.3617043 0.046273988 0.41501644 0.14697109
-0.059838533 0.36912137 0.2812862 -0.024828576 0.08438002 0.08477435 0.13845284 0.04401333
0.14679018 -0.06186877 -0.068704575 0.03777445 -0.21137726 -0.09447419 0.3783371 0.18427064
0.2194779 0.13622592 0.32160857 -0.13198565 0.6881834 -0.19081837 0.11870053 0.05004088
0.15409417 -0.33235165 -0.18875282 0.4751014 -0.029326238 0.005068482 -0.007161105 -0.0037281609
-0.12042877 0.43165293 0.0943634 -0.09389655 0.060077514 0.28094694 0.026111584 0.17053188
0.16840538 0.050564952 0.13793589 -0.03527073 0.24273892 -0.26599047 0.27413282 -0.035577986
-0.118331194 0.16671607 0.12383507 0.08928831 0.19379196 -0.2907902 -0.10489312 0.018168818
0.2055739 0.21616471 -0.1396117 0.35484362 0.01307553 0.06052515 0.054367702 0.48030713
-0.0022223727 0.42305306 0.2923061 -0.04063605 0.17462356 0.11144901 0.19277568 0.020957908
0.35037836 0.22617602 -0.28508276 -0.16661268 0.49509305 -0.10118631 0.021222731 0.48822814
00000000: 3310 9f3e 34e8 f5be 4788 23be fee5 dbbc
00000010: fdbc cbbd cb78 a43e fd90 a3bd 420e 3abe
00000020: 001f 633e 8e34 023f 3a6a aa3e 3bfe c23e
00000030: 4495 743e a831 5c3b b80a a43e 6a18 eb3d
00000040: f46d 2fbf a884 10bf a1bf 39be 7187 5d3e
00000050: d081 f43d e13f bc3c dd73 02be e5d5 8ebe
00000060: f8c1 0a3d 5eb0 18be 4f60 47bb 30fe 37be
00000070: ee44 dcbc 282b 3abd 6cc0 b2be d39e 803e
00000080: 6684 c53e 8efe 9dbc 4b7e d53d 1985 5f3d
00000090: df13 b7bc 14b2 723d 769e 873c ddb4 7c3e
000000a0: c74b 0d3e e6fa 973d ade5 33bd ed1e 833c
000000b0: 2dfb 493f b7ae bfbd 53eb 6a3e fbe3 d33d
000000c0: d12e 483e b3eb 3e3e d10b a9bc 2a00 903e
000000d0: ff72 6abe 056e dabe 7416 4ebd 71f5 0d3d
000000e0: 3249 6e3d 3add 47be 99ad f8bd 1dfc 3ebc
000000f0: 9fa1 3cbe d86f 923d 7c3d 043d 0dca 0dbe
00000100: 2407 95bc ab0d a73d f40b 13be 23f7 c93d
00000110: 113f 04be 42a5 173e 66eb 68be 3d98 7e3e
00000120: e0f7 953d ec5e d3be b319 30bd 1c8f 45be
00000130: 708b 16bd f3de 36be abf6 04bf 1bde 383e
00000140: b8c0 7cbc 264c ecbd 3bfd c73d 68e1 dcba
00000150: 10c1 9d3e cf9f 15bd 0eeb 8d3d 27a3 15bc
00000160: 4c4e ed3d 1c5c 0f3e 0496 293c e158 0cbe
00000170: 1ef5 cebe 8398 50be 75f0 92bf 9ff6 48bd
00000180: f000 6ebe 6b79 6b3f 2e5e adbc c4db f1bd
00000190: ada8 8bbe dc49 c03d d5e5 0fbc acc5 1d3e
000001a0: c021 0ebe a3f1 913e efd3 4c3d 3c7e d5bc
000001b0: e832 21be c2b4 2d3e ce5a a0be f6f0 ac3d
000001c0: caeb b83d 429b 2cbd f06f b93d dbbe 963e
000001d0: f938 2d3e 7e4a c2bd f722 64be 7256 bfbc
000001e0: 897e 633e 01ee 6cbe f776 02be bfd9 d83b
000001f0: 511f da3c 9606 c2be fdc9 16be 5405 81bd
00000200: ff34 a0bd 6e84 abbd c8cb d0bc 3a69 3d3e
00000210: 7e1e 3a3e 6e44 023e 2768 febe 91d9 8f3c
00000220: db3e 753e a78a 4b3e 9870 a23e dc02 813d
00000230: ab17 dc3e 0db3 da3e 9792 2b3d f2cc b5be
00000240: 924a cb3e a2b6 953b 3d2c 60bf 0174 67be
00000250: bfb8 dabe a742 91bd 6794 91bd cc58 39bd
00000260: a223 0ebd e7c8 d13d 80fb e93d 1817 1dbb
00000270: bac9 53bd 6e81 6bbe 5270 4ebe c63e e9be
00000280: f15b 4c3d e1cc 2e3d 31e7 f1bd 651d 1f3e
00000290: cc5c b0be d6cc 03bd a05d f23b 8b29 823e
000002a0: e594 003e 2c45 723e 7337 02be 2673 263e
000002b0: 4e31 b9be cb89 3d3d 097d d43e 977f 163e
000002c0: 4019 75bd 7afd bc3e bf04 903e 4c65 cbbc
000002d0: 6fcf ac3d 2d9e ad3d 95c6 0d3e 5247 343d
000002e0: 2a50 163e 1b6a 7dbd fcb4 8cbd 62b9 1a3d
000002f0: 4873 58be af7b c1bd 66b5 c13e 71b1 3c3e
00000300: d1be 603e cf7e 0b3e e1a9 a43e 3f27 07be
00000310: ca2c 303f e465 43be 4319 f33d aaf7 4c3d
00000320: ddca 1d3e ff29 aabe 6b48 41be 7e40 f33e
00000330: 943d f0bc 8215 a63b b4a7 eabb 2954 74bb
00000340: 5ca3 f6bd 9d01 dd3e 9941 c13d d64c c0bd
00000350: d713 763d 47d8 8f3e f6e7 d53c e99f 2e3e
00000360: 7672 2c3e 321d 4f3d 113f 0d3e 0a78 10bd
00000370: 8d90 783e e72f 88be 235b 8c3e 39ba 11bd
00000380: a057 f2bd 9eb7 2a3e 3e9d fd3d cadc b63d
00000390: 6671 463e 74e2 94be 34d2 d6bd c6d6 943c
000003a0: f781 523e 485a 5d3e 5ff6 0ebe 10ae b53e
000003b0: bf3a 563c 38e9 773d abb0 5e3d d1ea f53e
000003c0: 3aa5 11bb 699a d83e 25a9 953e fd71 26bd
000003d0: 85d0 323e 613f e43d fd66 453e ebaf ab3c
000003e0: cb64 b33e b09a 673e 5ef6 91be 849c 2abe
000003f0: d67c fd3e c53a cfbd 4bdb ad3c 0af9 f93e

fc1.bias f4 [64]
-0.28088757 0.783407 -0.0038630164 -0.33943135 -0.15484688 0.2754866 -0.0934862 0.7127744
-0.120785095 0.21264139 0.4642866 0.42183658 0.3702426 -0.38864088 0.17802519 -0.5349736
-0.39799494 0.497863 -0.65895355 0.5790512 0.8315771 0.22880882 0.5593532 0.54311866
0.23775987 0.37330827 -0.23931405 -0.115232915 -0.31434563 0.39759874 -0.3166937 -0.08060503
0.66580355 -0.07389143 0.13034092 0.2356397 0.14954387 0.43850452 0.30166247 0.5983546
0.6879517 -0.014446491 -0.04678149 0.24196582 0.56162345 0.68426627 -0.31677085 -0.47836968
1.0890586 0.5546883 0.93201244 0.645458 0.7415498 0.0006717864 0.60087466 -0.5136992
0.30081984 -0.265548 0.035556097 -0.07353294 0.08552075 -0.4969607 0.6882003 0.22272052
00000000: 7fd0 8fbe 5c8d 483f a92a 7dbb f2c9 adbe
00000010: 2e90 1ebe 940c 8d3e b175 bfbd 6278 363f
00000020: 2d5e f7bd aabe 593e f9b6 ed3e f7fa d73e
00000030: 7090 bd3e f0fb c6be 3c4c 363e 08f4 08bf
00000040: fec5 cbbe e6e7 fe3e 2eb1 28bf b33c 143f
00000050: 3de2 543f dc4c 6a3e c531 0f3f d309 0b3f
00000060: 5377 733e 4322 bf3e be0e 75be 3cff ebbd
00000070: e9f1 a0be 1092 cb3e ad25 a2be 4014 a5bd
00000080: 1a72 2a3f 6454 97bd 1778 053e 894b 713e
00000090: 0722 193e aa83 e03e 8173 9a3e c42d 193f
000000a0: 9a1d 303f fab0 6cbc f39d 3fbd e3c5 773e
000000b0: 8ec6 0f3f 132c 2f3f ca2f a2be dfec f4be
000000c0: 4666 8b3f 0d00 0e3f 5e98 6e3f bc3c 253f
000000d0: 35d6 3d3f d21a 303a ecd2 193f ca81 03bf
000000e0: 0f05 9a3e e8f5 87be 45a3 113d 7098 96bd
000000f0: 8125 af3d a271 febe e52d 303f d910 643e

fc2.weight f4 [64, 64]
-0.001143572 0.14793453 0.10338432 0.09817307 0.043764655 -0.00733107 0.13386089 0.12098222
0.15942338 0.00796349 0.0067975298 -0.022715362 0.037839882 0.15542166 0.12347815 0.08648855
-0.12846206 0.16864729 -0.15369885 0.08568508 0.2814081 -0.18641415 0.1837811 0.10504305
0.18163352 0.06423102 0.116987735 0.065813534 -0.043085344 0.06499486 0.14105801 -0.007258013
0.05760206 0.15609273 0.099136546 0.06414035 -0.13969067 0.21563925 0.20328695 0.082938544
0.10742924 -0.038380068 -0.12279761 0.19476613 0.33009055 0.016188521 -0.05153897 0.15004729
0.07294151 0.035063628 0.03926632 0.20522715 0.09529773 0.053576823 0.056092877 -0.06349846
-0.03784643 0.16851743 0.028136706 0.100221604 0.25428608 0.1060427 0.27645022 0.07644385
0.04733538 0.1039625 0.04151318 0.113436356 0.062951915 -0.08140273 0.10273132 0.006459138
-0.011365068 0.18455932 0.0069026127 0.09382045 0.05779467 0.034002528 0.17925875 0.020375088
0.017979406 0.25534144 0.052928377 -0.056694254 0.18250577 -0.007399672 0.19982928 0.060947474
0.21108502 0.1500748 -0.017968416 0.035832215 -0.11006465 0.09558056 0.13263695 0.046486802
0.21401626 0.118820846 0.06397782 0.009952174 -0.012661875 0.08925259 0.07711134 0.08645931
0.043208368 -0.018372715 -0.08082865 0.17624946 0.14483769 0.1124864 -0.09924952 0.09585205
0.08985897 0.22559685 0.12614337 0.17131321 0.07741792 -0.06455185 0.05257573 0.11615934
0.07802484 0.10524582 -0.033031464 0.141073 0.27261457 -0.060608335 0.07553165 -0.055780534
-0.0697035 -0.14822492 -0.26590008 -0.062062588 -0.19875592 -0.0049340026 -0.15539664 0.0201291
-0.03507703 0.06431471 -0.22017351 0.10148134 0.2408396 0.14977844 -0.12843113 -0.054089975
0.0035428924 0.059759196 -0.39425087 0.011855226 -0.116490416 0.054656528 -0.09773185 -0.12462159
-0.034220405 -0.0005602139 -0.0040508662 -0.06012219 -0.061833553 -0.055770833 -0.0664664 0.102429554
-0.009764829 0.1512942 0.14639127 0.08567555 0.26432908 -0.22291394 0.11150127 0.029353464
-0.123127826 0.10273994 0.004858743 -0.109230086 -0.13871069 0.16592826 0.11732769 -0.008890052
0.14927241 0.11247184 0.19113272 0.043400817 -0.10692302 0.055025525 0.100444734 0.074108995
-0.117117636 0.034583367 -0.033548348 0.05166524 -0.07075163 0.16491134 0.081556596 0.09103626
-0.5718392 0.20229639 -0.33718386 -0.22298075 -0.36857596 -0.074189365 0.029603206 0.0584953
0.14808004 0.06961409 0.014248446 0.10495663 0.11123291 0.2338065 0.3544315 0.032012895
-0.10063962 0.042667948 -0.4943362 0.25318488 0.09859463 -0.16186568 0.2867351 0.21547133
-0.0022879608 -0.05093331 -0.1437259 0.038518663 -0.6107275 0.18946256 -0.29991406 0.20434412
0.0054949336 -0.31588084 -0.07166277 -0.17228213 -0.12030538 0.16982292 0.068228036 -0.0062640524
0.1053413 -0.1537577 -0.12636836 0.28417522 0.25416932 -0.12502089 -0.19369122 -0.41067293
-0.019733947 0.13198638 0.09039344 0.259289 0.02716049 -0.031515174 0.017712174 0.07624979
0.021103531 0.01005596 -0.05814394 0.12102853 0.3696808 0.014405305 0.028220773 0.09435397
00000000: e9e3 95ba 267c 173e 29bb d33d f60e c93d
00000010: 9142 333d 7939 f0bb d412 093e 87c5 f73d
00000020: e23f 233e 4c79 023c d0bd de3b 9115 babc
00000030: fefd 1a3d db26 1f3e 1de2 fc3d e920 b13d
00000040: 8f8b 03be e0b1 2c3e 3b63 1dbe a97b af3d
00000050: b914 903e 5ae3 3ebe 1d31 3c3e d020 d73d
00000060: 23fe 393e 8e8b 833d 4497 ef3d 3fc9 863d
00000070: 427a 30bd 061c 853d 8371 103e a0d4 edbb
00000080: 23f0 6b3d c6d6 1f3e 1a08 cb3d 045c 833d
00000090: 120b 0fbe 89d0 5c3e 742a 503e afdb a93d
000000a0: dd03 dc3d 6b34 1dbd 507d fbbd c670 473e
000000b0: a101 a93e ca9d 843c 871a 53bd ffa5 193e
000000c0: 5c62 953d e19e 0f3d b9d5 203d 1127 523e
000000d0: 752b c33d 5f73 5b3d a5c1 653d 7b0b 82bd
000000e0: dc04 1bbd d58f 2c3e f37e e63c fc40 cd3d
000000f0: c931 823e ea2c d93d e28a 8d3e 988e 9c3d
00000100: bee2 413d 4bea d43d b909 2a3d 5251 e83d
00000110: efec 803d 79b6 a6bd cc64 d23d 2da7 d33b
00000120: 8d34 3abc 1efd 3c3e 502f e23b f024 c03d
00000130: 1bba 6c3d 3c46 0b3d 9b8f 373e a8e9 a63c
00000140: 8c49 933c 1dbc 823e 6dcb 583d 3c38 68bd
00000150: cbe2 3a3e f378 f2bb 0ca0 4c3e 0fa4 793d
00000160: ac26 583e 35ad 193e 8032 93bc cdc4 123d
00000170: 9369 e1bd bebf c33d fbd1 073e f268 3e3d
00000180: 1427 5b3e 5858 f33d ce06 833d 710e 233c
00000190: c173 4fbc 10ca b63d 8dec 9d3d 9411 b13d
000001a0: 42fb 303d 6082 96bc 7e89 a5bd bd7a 343e
000001b0: 5550 143e 455f e63d 5543 cbbd 144e c43d
000001c0: fb07 b83d dc02 673e ba2b 013e bb6c 2f3e
000001d0: 498d 9e3d c333 84bd a659 573d f3e4 ed3d
000001e0: 7dcb 9f3d 1f8b d73d 004c 07bd 7175 103e
000001f0: 2394 8b3e 7240 78bd 56b0 9a3d 217a 64bd
00000200: b5c0 8ebd 46c8 17be 0e24 88be 5735 7ebd
00000210: ac86 4bbe 6aad a1bb 4c20 1fbe c8e5 a43c
00000220: efac 0fbd 6eb7 833d 2a75 61be 73d5 cf3d
00000230: a89e 763e 855f 193e 7383 03be 738d 5dbd
00000240: df2f 683b 0fc6 743d 40db c9be 6c3c 423c
00000250: 8792 eebd 86df 5f3d a327 c8bd 9b39 ffbd
00000260: b22a 0cbd 52db 12ba 21bd 84bb af42 76bd
00000270: 2e45 7dbd f56f 64bd 891f 88bd 96c6 d13d
00000280: a9fc 1fbc deec 1a3e 98e7 153e aa76 af3d
00000290: 2456 873e 8d43 64be c75a e43d ad76 f03c
000002a0: 712a fcbd 5169 d23d 1736 9f3b 06b4 dfbd
000002b0: 2d0a 0ebe 19e9 293e 8049 f03d 95a7 11bc
000002c0: deda 183e a357 e63d 4cb8 433e 0ec5 313d
000002d0: 75fa dabd 7262 613d f8b5 cd3d 75c6 973d
000002e0: 5fdb efbd 4aa7 0d3d fe69 09bd ee9e 533d
000002f0: 3be6 90bd 85de 283e 2507 a73d 3871 ba3d
00000300: 0e64 12bf c926 4f3e 5da3 acbe 1155 64be
00000310: fdb5 bcbe 98f0 97bd 6c82 f23c c598 6f3d
00000320: 4ba2 173e d591 8e3d 5072 693c 80f3 d63d
00000330: 14ce e33d f96a 6f3e 0c78 b53e f41f 033d
00000340: 251c cebd 96c4 2e3d a219 fdbe 73a1 813e
00000350: fbeb c93d 1ec0 25be f1ce 923e 84a4 5c3e
00000360: 9df1 15bb 729f 50bd e22c 13be bfc5 1d3d
00000370: a358 1cbf 7902 423e 568e 99be 963f 513e
00000380: d80e b43b 22bb a1be eec3 92bd ba6a 30be
00000390: ab62 f6bd 0fe6 2d3e 24bb 8b3d ae42 cdbb
000003a0: 2ebd d73d a972 1dbe b566 01be 6a7f 913e
000003b0: 7b22 823e 7a05 00be fe56 46be b943 d2be
000003c0: 16a9 a1bc 7027 073e 3220 b93d 87c1 843e
000003d0: ad7f de3c 0e16 01bd 1f19 913c da28 9c3d
000003e0: 50e1 ac3c c1c1 243c 5728 6ebd cedd f73d
000003f0: cd46 bd3e 3a04 6c3c 402f e73c a73c c13d

fc2.bias f4 [64]
0.4029528 0.56376487 0.08567553 0.27130204 -0.0374394 0.3363804 -0.033075973 -0.39914295
0.5099452 0.022185897 -0.06013807 0.5230503 0.07500868 0.4483716 0.32923785 0.4801495
0.20863996 0.06309062 0.267946 0.08455968 0.458776 0.45507076 0.547528 0.4377097
0.43952614 0.5164688 0.4434558 0.5491735 -0.41010594 0.39430046 0.46314266 0.49125096
0.20579565 0.282407 0.44952473 -0.16029058 0.003794395 -0.34583327 0.39837125 -0.2168497
0.2895149 -0.05834257 0.16747032 -0.12032728 -0.44936118 0.10240251 0.42715508 0.4368991
0.17748095 -0.046203677 -0.39825323 -0.027469072 0.45500872 -0.13628925 -0.029361168 0.46938926
0.37469155 0.38843527 -0.020600727 0.3696326 -0.13580807 0.3707102 -0.004353501 -0.071836054
00000000: d44f ce3e e552 103f a776 af3d 1ae8 8a3e
00000010: 0e5a 19bd 0d3a ac3e ac7a 07bd 775c ccbe
00000020: c58b 023f 33bf b53c 5653 76bd a0e6 053f
00000030: 279e 993d f690 e53e dd91 a83e 28d6 f53e
00000040: b7a5 553e a835 813d 3830 893e a02d ad3d
00000050: b0e4 ea3e 09ff e83e cc2a 0c3f 7c1b e03e
00000060: 9209 e13e 4d37 043f a30c e33e a296 0c3f
00000070: 68f9 d1be c0e1 c93e 0921 ed3e 3f85 fb3e
00000080: 18bc 523e a697 903e 1b28 e63e 3723 24be
00000090: 62ab 783b 0f11 b1be 51f7 cb3e d90d 5ebe
000000a0: 4c3b 943e 9ef8 6ebd 577d 2b3e 266e f6bd
000000b0: ab12 e6be 68b8 d13d 12b4 da3e 3db1 df3e
000000c0: 91bd 353e 1140 3dbd d9e7 cbbe d206 e1bc
000000d0: e7f6 e83e 698f 0bbe d586 f0bc ca53 f03e
000000e0: 92d7 bf3e fde0 c63e dbc2 a8bc 7c40 bd3e
000000f0: 4511 0bbe bacd bd3e d0a7 8ebb c81e 93bd

fc3.weight f4 [1, 64]
-0.18281752 -0.14624806 -0.25412238 0.23112324 0.35401392 -0.06819176 0.40444675 0.48452795
-0.09986756 0.17791219 0.31141472 -0.17114104 0.22278613 -0.08627105 -0.07201439 -0.17177494
0.27188876 0.07576369 0.28426298 -0.3848769 -0.1602107 -0.09562515 -0.10014243 -0.11521026
-0.099775 -0.07505114 -0.105209626 -0.09240415 2.0446043 -0.1144769 -0.07059322 -0.09160224
0.1986904 -0.16091433 -0.1304229 0.2621064 0.37590387 0.2665372 -0.15992254 0.2748797
0.27884242 0.08458832 0.2301582 0.3998718 1.4901142 0.27718654 -0.15966724 -0.17662159
0.36142078 0.32809213 0.39054456 0.16177888 -0.08569046 0.24234107 0.3922961 -0.13388254
-0.20582876 -0.16712251 0.3944481 -0.13037704 0.23296905 -0.17812487 0.3241184 0.08374731
00000000: 8434 3bbe 0dc2 15be 541c 82be 92ab 6c3e
00000010: 5041 b53e 1fa8 8bbd a513 cf3e 0c14 f83e
00000020: 5d87 ccbd 9d2e 363e c071 9f3e 993f 2fbe
00000030: 0c22 643e e0ae b0bd 487c 93bd c5e5 2fbe
00000040: 0135 8b3e fe29 9b3d eb8a 913e 960e c5be
00000050: 460e 24be 1ed7 c3bd 7917 cdbd 5bf3 ebbd
00000060: d656 ccbd 69b4 99bd 2578 d7bd 633e bdbd
00000070: ccda 0240 dd72 eabd 2e93 90bd f599 bbbd
00000080: 7f75 4b3e bac6 24be 958d 05be cf32 863e
00000090: 7976 c03e 9077 883e bcc2 23be 08bd 8c3e
000000a0: 6fc4 8e3e a43c ad3d 97ae 6b3e ffbb cc3e
000000b0: 10bc be3f 65eb 8d3e cf7f 23be 4adc 34be
000000c0: 250c b93e b1fb a73e 75f5 c73e 5da9 253e
000000d0: 7b7e afbd 4228 783e 09db c83e 8118 09be
000000e0: c6c4 52be 2a22 2bbe 1af5 c93e 8f81 05be
000000f0: 708f 6e3e 5e66 36be d9f2 a53e b683 ab3d
