SAC/sac/critic2.pth (torch, 22728 bytes, 5 tensors)

fc1.weight f4 [64, 13]
00000000: 6112 8641 f4b1 2042 fee3 a0c0 c4b8 65c1
00000010: 9b6b a9c0 6e0e 52c2 004d 2bc2 7455 2242
00000020: 316c 3bc2 0ad9 04c2 b071 50c2 d858 4fc2
00000030: 7109 51c2 28ed 913c 02c4 51c0 d721 b5bd
00000040: 4331 7e40 d901 6140 9682 a03f 6e22 a3bb
00000050: 27b2 23be cadd d83d e6ce 57be 3b18 63be
00000060: 2bb2 4e3f bf67 713f a2a8 8d41 5e9a 1e42
00000070: b850 5dc0 b494 50c2 821d 29c1 e0b5 52c2
00000080: 339f 2dc2 2a79 1a42 f939 3fc2 acd3 00c2
00000090: 8799 51c2 16a4 4ec2 ffab 50c2 c637 8941
000000a0: 1f7e 2242 f088 88c0 ffc5 56c2 0576 24c1
000000b0: c8b1 55c2 bcf0 2bc2 65ab 1e42 1d68 3dc2
000000c0: 8f92 02c2 d7ff 51c2 c1c0 50c2 4c69 51c2
000000d0: 9529 8a41 fd48 2342 025d 89c0 bf69 57c2
000000e0: 5145 24c1 7ea8 56c2 445e 2cc2 4a62 2142
000000f0: b95e 3dc2 cdef 03c2 b60c 53c2 426d 52c2
00000100: dcf8 52c2 b621 743a 2f7f f1bf 305f 55bd
00000110: 3cfa 7640 0ef3 6d40 5dce 1a3f ddd8 1f3c
00000120: 7f5f dcbd 5c6e c53c c83c f6bd dbeb 97bd
00000130: ee24 ce3e ccf1 ca3e 1887 8441 5df8 1a42
00000140: caad bac0 2132 50c2 838d e3c0 3ea1 4fc2
00000150: 24c7 29c2 3add 2242 bc5d 39c2 49b0 01c2
00000160: f3ef 4bc2 c1c0 4cc2 00fb 4ac2 3c22 8941
00000170: 0cd1 2042 ce1a 92c0 2027 6dc1 a2ca b4c0
00000180: 6b82 59c2 8ef6 2dc2 351a 2242 2b67 40c2
00000190: 90d2 04c2 fd46 55c2 50d3 54c2 b3d0 55c2
000001a0: b57d 8b41 1a75 2042 ac71 77c0 f8f8 6ac1
000001b0: f25f 21c1 9e9b 54c2 90a9 2dc2 722b 1e42
000001c0: b4e8 3cc2 054d 03c2 104b 52c2 6296 4fc2
000001d0: 62ca 51c2 0442 8841 26bf 2042 2bf1 a1c0
000001e0: 4ca0 53c2 4fac a1c0 458b 51c2 4f45 2ac2
000001f0: 29ae 2342 c273 3dc2 a616 03c2 6ca0 4ec2
00000200: 4498 4ec2 fbb4 50c2 4e07 8141 7f48 1c42
00000210: 9244 a8c0 30e7 51c2 0fb2 f8c0 bc9b 50c2
00000220: 6e75 28c2 abcc 2242 6f87 3bc2 a46e 03c2
00000230: 5a31 4dc2 0def 4dc2 28e8 4fc2 a183 9041
00000240: e49e 1d42 e3b2 82c0 a96d 56c2 c2c3 20c1
00000250: 0821 53c2 ac80 2bc2 f278 1842 87a0 3dc2
00000260: 3133 02c2 d09a 4fc2 4646 4fc2 3e96 50c2
00000270: 9d12 8a41 2902 2142 fdc4 88c0 1c08 57c2
00000280: 4a4f 27c1 bfe3 54c2 6dca 2cc2 a79a 1f42
00000290: 80b2 3ec2 5fcd 02c2 14bf 50c2 a41d 4fc2
000002a0: ebaa 4fc2 587d 8a41 cb76 2242 da57 89c0
000002b0: 2c6e 58c2 4246 2dc1 eee2 56c2 fe9e 2dc2
000002c0: 71a2 1f42 351e 3fc2 ff7f 03c2 a5fe 52c2
000002d0: c3b4 51c2 d8d5 52c2 674f 8741 5f7d 2242
000002e0: c757 95c0 ba05 57c2 2048 a2c0 1c1d 55c2
000002f0: bb3a 2cc2 351f 2342 118c 3ec2 71d9 04c2
00000300: a51a 53c2 b9f6 51c2 1222 53c2 538c 8a41
00000310: a9ef 2342 244b 88c0 2920 56c2 a83e 28c1
00000320: 3d72 55c2 31a1 2cc2 2881 2042 457d 3fc2
00000330: 60c8 02c2 3872 52c2 8324 52c2 0d7f 53c2
00000340: 0780 043b 7455 f2bf 5ae1 50bd d7f9 3640
00000350: 12a3 7c40 92e7 2a3f cb48 833d 6e19 c9bd
00000360: 6f07 39bc 85f1 f4bd 888e 46be 33c0 d03e
00000370: ba7d cd3e a8a2 8a41 ec0e 2342 64cd 8ec0
00000380: 362c 57c2 ac4f 22c1 b894 56c2 478b 2dc2
00000390: 93c5 1f42 c294 3ec2 0930 03c2 d907 53c2
000003a0: 7156 51c2 9529 53c2 46bf 8941 bd8f 1c42
000003b0: f1af 8fc0 f40c 6ec1 b260 a1c0 6ec9 59c2
000003c0: bd6f 30c2 b648 2142 a40a 43c2 8f97 04c2
000003d0: c7f8 55c2 92b0 56c2 6caf 57c2 5e5e 8941
000003e0: 03f1 2142 d4e9 9dc0 adaa 56c2 79b8 25c1
000003f0: 1291 54c2 7b5d 2cc2 40e9 1f42 d64a 3dc2
16.758974 40.173782 -5.027831 -14.357609 -5.2943854 -52.51409 -42.825195 40.58345
-46.855656 -33.211952 -52.111023 -51.83676 -52.25922 0.01781328 -3.2775884 -0.08844345
3.9717567 3.5157378 1.2539852 -0.0049784696 -0.15985928 0.10589178 -0.21075019 -0.22177212
0.8074061 0.9429893 17.70734 39.65075 -3.4580517 -52.145218 -10.569704 -52.677612
-43.405468 38.618324 -47.806614 -32.20671 -52.39993 -51.66024 -52.167965 17.152233
40.623165 -4.266716 -53.693356 -10.278813 -53.423615 -42.985092 39.667377 -47.351673
-32.643124 -52.499844 -52.188236 -52.35283 17.270304 40.821278 -4.2926035 -53.853268
-10.266923 -53.664543 -43.092056 40.345985 -47.342503 -32.98418 -52.762413 -52.606697
-52.743027 0.00093128846 -1.8866938 -0.05209273 3.859023 3.71796 0.60471135 0.009756294
-0.10760402 0.024100475 -0.12023312 -0.07418033 0.4026255 0.396376 16.565964 38.742542
-5.8337145 -52.048954 -7.1110244 -51.907463 -42.444473 40.71604 -46.341537 -32.422153
-50.984325 -51.188236 -50.745117 17.141716 40.204147 -4.565772 -14.822052 -5.6497355
-54.37736 -43.490776 40.525593 -48.10075 -33.205627 -53.319324 -53.20636 -53.453808
17.43638 40.114357 -3.866313 -14.685783 -10.085924 -53.15197 -43.41559 39.542427
-47.22725 -32.825214 -52.573303 -51.89686 -52.44764 17.032234 40.18667 -5.0606894
-52.90654 -5.052284 -52.386005 -42.567684 40.92008 -47.363045 -32.772118 -51.656662
-51.648697 -52.17674 16.128567 39.070797 -5.2583704 -52.47577 -7.7717357 -52.152084
-42.114677 40.69987 -46.88226 -32.858047 -51.298195 -51.483448 -51.976715 18.064272
39.405167 -4.0843368 -53.60709 -10.047792 -52.782257 -42.875656 38.11811 -47.406765
-32.54999 -51.901184 -51.818626 -52.14672 17.259089 40.25211 -4.2740464 -53.75792
-10.456858 -53.22241 -43.19768 39.901028 -47.674316 -32.700558 -52.1866 -51.778946
-51.916912 17.311203 40.61601 -4.291974 -54.10759 -10.829653 -53.72161 -43.405266
39.908634 -47.7795 -32.874996 -52.748676 -52.426525 -52.70883 16.91377 40.622433
-4.666965 -53.755592 -5.0713043 -53.278427 -43.057354 40.780476 -47.636784 -33.212345
-52.77602 -52.49094 -52.78327 17.318518 40.984043 -4.2591724 -53.531406 -10.515297
-53.36156 -43.157413 40.12613 -47.872334 -32.69568 -52.61154 -52.535656 -52.874073
0.0020217912 -1.8932328 -0.050996162 2.858999 3.947453 0.667596 0.064103685 -0.098193035
-0.011293276 -0.11960129 -0.19390309 0.40771636 0.40134984 17.329422 40.764572 -4.462572
-53.793175 -10.144451 -53.645233 -43.386013 39.942944 -47.64527 -32.79691 -52.757664
-52.334415 -52.790607 17.218395 39.14037 -4.490227 -14.878162 -5.0430536 -54.44671
-44.10912 40.321007 -48.76039 -33.148006 -53.492947 -53.672432 -53.92131 17.171078
40.485363 -4.9347935 -53.666676 -10.357537 -53.14167 -43.09129 39.977783 -47.323082

fc1.bias f4 [64]
00000000: 3ba8 5242 de71 aabf db8e 5442 ab0a 5742
00000010: f2bc 5542 17b9 60bf a0bf 5042 7059 5942
00000020: 11d6 5642 7ed5 5242 a15b 5242 fafa 5442
00000030: f7b1 5742 0b61 5842 e63c 5542 903e 5642
00000040: e2d7 53bf c916 5742 d4e6 5a42 ad92 5642
00000050: 5d96 5442 73ab 5742 3f75 5842 b30c 5742
00000060: 7550 52bf 086a 5742 6fc0 5c42 256b 5842
00000070: a3e1 5742 2cc5 a9bf 544a 5342 a3d1 7bbf
00000080: d0c1 77bf b88b 5642 312f 5542 65e4 5642
00000090: aae2 87bf 8a56 5442 3e7c 5742 af95 4b42
000000a0: 61b6 5642 849f 5642 3163 5842 4259 5542
000000b0: 9f51 5642 4380 5242 6ea0 5542 83cb 5642
000000c0: bd3c c8bf cd61 91bf 9e3f 5442 d716 9abf
000000d0: d3c1 5442 c71e 5642 2a60 9dbf 4ebd 98bf
000000e0: 2327 5742 e3e7 5a42 2b35 5642 d5ed 5742
000000f0: b4ab 5542 6d96 5742 a847 5542 577f c7bf
52.664288 -1.3316 53.139507 53.760418 53.434517 -0.87782425 52.187134 54.33734
53.70905 52.70849 52.58948 53.245094 53.923794 54.09477 53.30947 53.561096
-0.82751286 53.77225 54.725418 53.643238 53.14684 53.91743 54.1145 53.7624
-0.8215402 53.853546 55.187923 54.104633 53.97035 -1.3263297 52.822586 -0.98366755
-0.9678011 53.636444 53.296085 53.72304 -1.0616047 53.08451 53.87133 50.896175
53.678104 53.655777 54.096867 53.337166 53.57971 52.625256 53.40667 53.698742
-1.5643536 -1.1357971 53.062126 -1.203822 53.18928 53.530056 -1.2294972 -1.1932771
53.78822 54.72645 53.55192 53.982258 53.41768 53.8969 53.319977 -1.5585736

fc2.weight f4 [64, 64]
00000000: cbeb 4142 ba08 bcc0 1403 4b42 951a 5042
00000010: 39bc 4a42 c65f 89c0 fe60 4342 fdfc 4442
00000020: 59b4 4742 b132 4642 2eab 4342 70bf 4942
00000030: 08d7 4b42 7523 4942 e9d5 4542 580f 4d42
00000040: 7058 84c0 5634 4942 7bd2 4242 5248 4942
00000050: 01f9 4942 8eed 4b42 f879 4842 a6dd 4d42
00000060: 0083 83c0 0446 4742 a66c 4342 56fa 4642
00000070: 4312 4842 14e6 91c0 8f65 4742 5e93 8dc0
00000080: 250d 80c0 47dc 4a42 bb82 4042 b75d 4542
00000090: 20a1 83c0 6e2a 4a42 85c4 4242 38ab 3a42
000000a0: f143 4b42 0b43 4c42 aa1e 4a42 f867 4842
000000b0: ce90 4a42 3bf8 4842 91ec 4742 3197 4c42
000000c0: 24c6 cfc0 d844 93c0 3b78 4842 0be4 b9c0
000000d0: c45b 5042 f31d 4b42 0bf7 88c0 e3fc 7ec0
000000e0: da66 4742 ad76 4342 4c0b 4a42 7661 4742
000000f0: a626 5042 145f 4742 5c92 4a42 f66a afc0
00000100: f8dd 4142 cc97 bac0 3ce7 4a42 6fc5 4f42
00000110: 90f3 4942 9369 8ac0 1027 4342 3804 4542
00000120: 0998 4742 076b 4542 0855 4342 9b90 4942
00000130: 3dba 4b42 662c 4942 3440 4542 d8fe 4c42
00000140: 9c10 84c0 6042 4942 c85e 4342 2600 4942
00000150: 5aa0 4a42 46ef 4b42 261d 4842 2569 4d42
00000160: 0af3 7fc0 7d47 4742 f6af 4342 ab5d 4742
00000170: 20cc 4742 baea 94c0 52fe 4742 3c73 8cc0
00000180: 5563 80c0 6f38 4b42 99b6 4042 8d53 4542
00000190: 6279 82c0 f260 4a42 4026 4342 ad97 3a42
000001a0: b487 4a42 787e 4b42 8abf 4942 06c6 4842
000001b0: c8e4 4942 1fe8 4842 abf7 4742 095d 4c42
000001c0: 777c d2c0 6a09 94c0 0ce7 4842 54e3 bbc0
000001d0: 1efa 5042 ef89 4b42 49e5 8dc0 242d 85c0
000001e0: 62b9 4642 2b89 4242 e20e 4a42 8b9e 4742
000001f0: 9f20 5042 2166 4742 3cc0 4a42 d0f7 a9c0
00000200: 0615 4242 25a9 b8c0 33e9 4a42 6713 5042
00000210: c57e 4a42 fac1 8dc0 8c84 4342 1400 4542
00000220: 5684 4742 63f9 4542 45a4 4342 7a1b 4a42
00000230: 90a6 4b42 606f 4942 a21a 4542 73b8 4c42
00000240: 0f03 86c0 cdb0 4942 7d3a 4342 b199 4842
00000250: 0480 4a42 1565 4b42 7460 4842 330f 4e42
00000260: c1b5 7ac0 1b58 4742 0b08 4442 e2b7 4642
00000270: b586 4842 5e16 98c0 0514 4842 2f85 8bc0
00000280: 0753 74c0 da2d 4b42 31a0 4042 be8b 4442
00000290: 3186 84c0 aa2b 4a42 e4ac 4242 d5e7 3a42
000002a0: 6ba8 4a42 4026 4c42 9f17 4a42 e1ed 4842
000002b0: 96d2 4a42 edbf 4842 84dd 4742 b1e4 4c42
000002c0: 921a d4c0 81d0 95c0 3096 4842 d12c c0c0
000002d0: f269 5042 dc73 4b42 18ab 8dc0 f812 81c0
000002e0: 3c5c 4742 272b 4342 6ce5 4942 4d46 4842
000002f0: ae33 5042 c3a4 4742 603f 4b42 b014 acc0
00000300: 3c04 4142 30f7 9ac0 9000 4542 ba0a 4542
00000310: 2cf0 4242 8f71 84c0 6ad1 4042 c95f 4142
00000320: bd54 4442 47ca 4142 0ece 4142 f542 4542
00000330: e633 4242 98d8 4342 8246 4242 cc83 4442
00000340: d0ed 82c0 9cb3 4442 5a19 4042 385c 4442
00000350: 4aac 4242 2087 4442 d718 4342 134b 4442
00000360: 0549 5dc0 6e38 4242 dadb 4042 3382 4342
00000370: 7d0c 4342 a6e4 83c0 da45 4242 fe6a 82c0
00000380: 632b 74c0 bf71 4342 3126 3f42 4e06 4142
00000390: 6bb4 83c0 ee91 4442 511f 4242 db9b 3b42
000003a0: 026c 4342 fcd6 4342 16ec 4342 fa4e 4342
000003b0: b44a 4442 ecb9 4342 f0b3 4242 5a18 4342
000003c0: ebfd b9c0 9257 91c0 d300 4342 2ac1 afc0
000003d0: 552f 4442 3bbd 4342 660f 8cc0 3fb9 80c0
000003e0: c8f5 4242 a975 4042 7664 4342 71da 4242
000003f0: 0fbf 4242 89e6 4242 3fdf 4442 f01c a3c0
48.480267 -5.8760653 50.753006 52.02596 50.68381 -4.292941 48.84472 49.24706
49.92612 49.549503 48.917168 50.43695 50.95999 50.284626 49.458897 51.264984
-4.1357956 50.30111 48.705547 50.320625 50.493168 50.981987 50.11911 51.466454
-4.109741 49.818375 48.856102 49.74447 50.017834 -4.5593357 49.84918 -4.424239
-4.0016046 50.715115 48.127666 49.34152 -4.1134186 50.541435 48.691914 46.667206
50.81635 51.06547 50.529945 50.101532 50.64141 50.242413 49.98102 51.147648
-6.492937 -4.602154 50.117413 -5.8090873 52.089615 50.779247 -4.2801566 -3.984185
49.85044 48.865894 50.511032 49.845177 52.037743 49.84285 50.64293 -5.4818068
48.466766 -5.83103 50.725815 51.942806 50.487854 -4.3253875 48.788147 49.25412
49.89847 49.35452 48.83304 50.391216 50.931873 50.293358 49.3127 51.24887
-4.1270275 50.31482 48.84256 50.250145 50.656593 50.983665 50.028465 51.35268
-3.999209 49.819813 48.921837 49.841473 49.94934 -4.653653 49.99836 -4.3890667
-4.0121255 50.80511 48.178318 49.331593 -4.077317 50.594673 48.787354 46.64812
50.632523 50.873505 50.43705 50.193382 50.47342 50.22668 49.991863 51.090855
-6.5776935 -4.626149 50.22563 -5.8715 52.244255 50.8847 -4.434239 -4.1617603
49.681038 48.633953 50.514534 49.904827 52.031857 49.849735 50.68773 -5.3115005
48.52053 -5.7706475 50.727734 52.018948 50.6238 -4.429929 48.87944 49.250076
49.879234 49.49354 48.91042 50.526833 50.91266 50.358765 49.27601 51.180126
-4.1878734 50.422657 48.807117 50.15009 50.625015 50.848713 50.094193 51.514843
-3.9173434 49.83604 49.007854 49.679573 50.13155 -4.7527304 50.01955 -4.360008
-3.8175676 50.794777 48.156437 49.136467 -4.141381 50.54264 48.66884 46.7264
50.66447 51.037354 50.523067 50.232304 50.70565 50.187428 49.966324 51.22333
-6.6282434 -4.681702 50.146667 -6.0054708 52.103462 50.863144 -4.4271355 -4.0335655
49.840073 48.79214 50.474045 50.068653 52.05047 49.9109 50.81189 -5.3775253
48.254135 -4.8426743 49.25055 49.260475 48.734543 -4.138862 48.204506 48.34354
49.082752 48.447536 48.451225 49.315388 48.550682 48.961517 48.568855 49.128708
-4.09153 49.1754 48.024757 49.090057 48.66825 49.131958 48.774258 49.073315
-3.4575818 48.555107 48.2147 48.877148 48.762196 -4.121661 48.568214 -4.0755606
-3.815148 48.86108 47.787296 48.256157 -4.1157737 49.14251 48.530582 46.902203
48.855476 48.959946 48.980553 48.827126 49.072952 48.931564 48.67572 48.77378
-5.812246 -4.5419397 48.750805 -5.4923296 49.046223 48.934795 -4.3768797 -4.022613
48.74002 48.114902 48.848106 48.71332 48.68658 48.725132 49.218014 -5.0972824

fc2.bias f4 [64]
00000000: 332f 5642 09e8 5542 ebbe 5542 3b88 4f42
00000010: 7a09 b2be 2db1 6dbd 23f9 5542 d7df 86bd
00000020: b765 5442 fc7a 5542 3098 4cbe 6363 47be
00000030: 0828 8dbe c1de 5542 7ce1 f8bc c318 5642
00000040: 7fc3 1cbe 95df 2bbe 1777 5442 9a22 5542
00000050: 7e54 5642 bacf c0bd 5bf9 a4bd 73a1 86bc
00000060: e878 5542 85be ccbd fa22 5642 6861 5642
00000070: c936 5642 a652 71be bdf1 3342 4fe2 b1be
00000080: f2c3 5542 40c6 5542 bfbf cbbd d4c7 32bc
00000090: c02a 5542 d4e4 4abe 33de 5442 ee89 13bb
000000a0: f295 c0be 9700 0bbe 7a5b 5442 5455 5442
000000b0: 6310 5442 8b03 4842 1340 5442 c3a4 8fbe
000000c0: ce2e 1abe da90 5542 d630 5442 9c57 5342
000000d0: 8bbd 5442 24a9 5542 f8d3 5542 adfb 5442
000000e0: 9afa 5542 92e0 5442 d425 00be ef3c c8be
000000f0: dda6 5542 a65b 5642 d386 5542 0345 5542
53.546093 53.476597 53.436443 51.883038 -0.34772855 -0.058030296 53.493298 -0.06585663
53.09933 53.370102 -0.1997993 -0.19471507 -0.27569604 53.467533 -0.030380957 53.52418
-0.15308951 -0.16784509 53.1163 53.28379 53.58251 -0.09414621 -0.08055373 -0.016434407
53.368073 -0.09997276 53.534157 53.595123 53.5535 -0.23566684 44.986073 -0.34742972
53.441353 53.443604 -0.09948682 -0.010911901 53.291748 -0.19813854 53.21699 -0.0022512632
-0.376144 -0.13574444 53.089333 53.08333 53.016003 50.00346 53.062572 -0.2805539
-0.15056917 53.391457 53.04769 52.835556 53.1851 53.415176 53.457 53.245777
53.494728 53.219307 -0.1251443 -0.3910899 53.412952 53.5895 53.381664 53.317394

fc3.weight f4 [1, 64]
00000000: 25e5 49c2 ce24 4ac2 f2d0 49c2 bb9f 45c2
00000010: 488c af40 c9c0 b240 1839 4ac2 92ff ba3c
00000020: 3705 4ac2 594e 4ac2 6600 c240 b5d3 cd40
00000030: 94c3 433e 39d3 4ac2 3deb a840 eedd 49c2
00000040: 7b51 783e 549a cd40 8a94 49c2 bd6a 4ac2
00000050: 1349 4ac2 e446 f03e 5d7b b640 0d61 9a40
00000060: e573 4ac2 78a4 bd40 0a23 4ac2 94c8 49c2
00000070: 47d8 49c2 49ab b840 02b7 28c2 696e 2f3f
00000080: 6772 4bc2 98f7 49c2 f1ec 8940 9537 9540
00000090: 57a0 49c2 0382 423e fb74 49c2 eb25 1b3e
000000a0: dde8 2e3e 822a ba40 b9f1 4bc2 1051 4ac2
000000b0: cf6a 49c2 d170 3dc2 d96a 49c2 ca56 373d
000000c0: d2d8 b840 cefe 49c2 a985 4ac2 64e4 48c2
000000d0: f162 4bc2 7322 4ac2 e5ea 49c2 c412 4cc2
000000e0: f2c3 49c2 fe35 49c2 4f0b b740 9b02 a140
000000f0: ea19 4ac2 2447 4ac2 23a7 49c2 28c1 4ac2
-50.473774 -50.535942 -50.45405 -49.405987 5.485874 5.5860333 -50.555756 0.022826944
-50.505093 -50.57651 6.0625486 6.432093 0.19117576 -50.706272 5.2787156 -50.46673
0.24249832 6.425089 -50.395058 -50.604237 -50.57136 0.46929085 5.702559 4.824347
-50.61318 5.9263268 -50.534218 -50.445877 -50.46121 5.770909 -42.17872 0.6852785
-50.86172 -50.49179 4.3101735 4.663035 -50.40658 0.18994908 -50.36424 0.15151183
0.17081018 5.817689 -50.986057 -50.579163 -50.354305 -47.360172 -50.354343 0.044760503
5.7764673 -50.498833 -50.630527 -50.223038 -50.846622 -50.53364 -50.47939 -51.018326
-50.441353 -50.302727 5.7201304 5.031568 -50.525307 -50.569473 -50.41322 -50.68863
