SAC/sac/critic1_checkpoint_2.pth (torch, 23178 bytes, 5 tensors)

fc1.weight f4 [64, 13]
0	0xbe511842	-0.2041941
1	0x3f2dc589	0.6787954
2	0x3dd8ab49	0.10579545
3	0x3e76996d	0.24081965
4	0xbf05c8ea	-0.52259696
5	0xbee1b473	-0.44082984
6	0x3e48e005	0.19616707
7	0x3d7b36a9	0.061331425
8	0x3d98a83d	0.07453964
9	0xbe296bab	-0.16544978
10	0xbe5cd527	-0.21565686
11	0x3e23968d	0.159754
12	0xbd4517e9	-0.048118506
13	0x3e2fafe1	0.17156936
14	0x3e98e010	0.29858446
15	0x3e336d3a	0.17522135
16	0xbde9ed60	-0.11422229
17	0xbdb1a82a	-0.08674653
18	0x3ef90f5c	0.4864453
19	0xbdd6ff12	-0.104978696
20	0x3e128d71	0.14311768
21	0x3f049ccb	0.5180175
22	0x3e191d6d	0.14952631
23	0x3cbe5285	0.023232708
24	0xbd89f03f	-0.067352764
25	0x3d9c8f38	0.07644504
26	0x3efee553	0.49784335
27	0x3f02819f	0.50979036
28	0xbe02c5a7	-0.12770711
29	0x3e63c130	0.22241664
30	0x3d8f567c	0.069989175
31	0xbd6b2073	-0.057403993
32	0xbe16151d	-0.14656492
33	0xbe5d04f1	-0.21583916
34	0x3c4a7e64	0.012359235
35	0x3d8e4ef0	0.0694865
36	0x3d9db0f8	0.0769977
37	0x3e3099a9	0.17246117
38	0x3e8e7af9	0.27828196
39	0x3da89936	0.08232348
40	0x3e867371	0.2625995
41	0x3dd3883e	0.103287205
42	0xbf22acbf	-0.6354484
43	0xbf1dd18d	-0.61647874
44	0xbde5f523	-0.11228397
45	0x3d460c23	0.04835142
46	0xbeb2343e	-0.34805483
47	0x3e79e928	0.24405348
48	0xbe0ac01b	-0.13549845
49	0x3d970f3d	0.07375953
50	0x3c94095c	0.01807087
51	0xbd657c78	-0.056026906
52	0xbea1723e	-0.31532472
53	0x3e5213cb	0.20515363
54	0xbd9e6721	-0.07734514
55	0xbe335442	-0.1751261
56	0xbf0ab4ad	-0.5418194
57	0xbe3cbe90	-0.18432069
58	0x3a37fda4	0.00070186914
59	0x3e9bb3e6	0.3041069
60	0xbe0d3a58	-0.13791788
61	0xbc2d0a32	-0.010561513
62	0x3e858616	0.26078862
63	0xbd8454db	-0.064614974
64	0xbd3ccf03	-0.04609586
65	0xbe7fe0de	-0.24988124
66	0xbe9c46ac	-0.30522668
67	0xbe84760d	-0.25871316
68	0xbf7f7cd1	-0.9979983
69	0xbf5f7675	-0.87290126
70	0xbee5a40a	-0.44851714
71	0x3e2bd500	0.16780472
72	0x3f07bd7c	0.53023505
73	0xbe522c7a	-0.20524779
74	0xbe839cb1	-0.25705484
75	0xbd74e079	-0.059784386
76	0xbdaaef51	-0.08346427
77	0xbdf3e442	-0.11908771
78	0xbe9ec552	-0.31009918
79	0x3e7946b4	0.24343377
80	0xbeb24bee	-0.34823555
81	0xbe34c1cd	-0.17652054
82	0xbe5d3ee5	-0.21606024
83	0x3e7522f4	0.23939115
84	0xbd15ddc2	-0.036588438
85	0x3e568e99	0.20952834
86	0x3dafe5ce	0.08588754
87	0xbd4692d8	-0.048479885
88	0x3e37ddff	0.17955779
89	0x3e5626ac	0.2091319
90	0xbd00baa9	-0.031428013
91	0x3e9e5cc8	0.3093016
92	0xbe8134e8	-0.25235677
93	0x3a963dff	0.0011462568
94	0xbf4c5757	-0.7982077
95	0x3e284eb7	0.16436277
96	0xbe569c9c	-0.20958179
97	0x3e62f08d	0.22162075
98	0xbe5382b7	-0.20655333
99	0xbd040e4e	-0.032240205
100	0xbdb65d5f	-0.08904528
101	0x3e26a4b9	0.16273774
102	0xbe2aa3f2	-0.16664103
103	0xbe14bac1	-0.14524366
104	0xbd7ad95f	-0.061242457
105	0x3e707779	0.23483075
106	0x3bf0f56a	0.0073534744
107	0x3e12230e	0.14271185
108	0xbf1d7231	-0.6150237
109	0xbe469274	-0.19391805
110	0x3e21054b	0.15724675
111	0xbd985bba	-0.074393705
112	0xbe8f71ef	-0.28016612
113	0xbe33d7bf	-0.1756277
114	0x3e55ec1a	0.20890847
115	0xbd9271c9	-0.07150609
116	0x3d130692	0.035894938
117	0xbd373077	-0.044723954
118	0x3e87681b	0.26446614
119	0x3d0a0ab5	0.033701617
120	0xbe7fd0e2	-0.24982026
121	0xbeb811a1	-0.3595095
122	0x3e6bf8dc	0.23044151
123	0xbd905bb4	-0.07048741
124	0x3d2447e0	0.040107608
125	0x3e8f3996	0.27973622
126	0x3e3863d6	0.18006834
127	0x3d6d7bf7	0.05797955
128	0x3d6de66b	0.05808107
129	0xbafd3fb7	-0.0019321357
130	0xbe76cb24	-0.2410093
131	0x3f4327f6	0.7623285
132	0xbc601f27	-0.013679302
133	0xbeddc4ca	-0.433142
134	0xbeb2abea	-0.34896785
135	0xbd7001d3	-0.05859549
136	0xbe6d57d9	-0.23178042
137	0x3e6c776c	0.23092431
138	0x3e2c100b	0.16802995
139	0xbd9f38dd	-0.07774518
140	0xbcbf973d	-0.023387546
141	0xbd624931	-0.055245582
142	0x3d9eec78	0.077599466
143	0x3e9748bd	0.29547682
144	0x3d94b248	0.07260567
145	0x3e71947f	0.23591803
146	0xbeb43e43	-0.35203752
147	0xbe75379c	-0.23946995
148	0xbdea1735	-0.11430208
149	0x3e1062f5	0.14100249
150	0x3d0a5e44	0.033781305
151	0x3db254de	0.087075934
152	0x3ea28549	0.31742314
153	0x3ea33f33	0.31884155
154	0x3e6927a9	0.22769035
155	0x3e1df3fe	0.15425107
156	0xbe273e6b	-0.16332404
157	0xbe9c9784	-0.30584347
158	0xbe987703	-0.297783
159	0xbed9d76c	-0.42547166
160	0x3d09f445	0.03368022
161	0x3e0ad89e	0.13559195
162	0xbe11d02c	-0.14239568
163	0xbd47c717	-0.04877385
164	0xbc83a589	-0.016070144
165	0xbe0dae4e	-0.13836023
166	0xbdef3310	-0.11679661
167	0xbdfea500	-0.12433815
168	0xbd9a3cd4	-0.07531133
169	0x3e921002	0.28527838
170	0x3ec0acad	0.3763174
171	0x3dfec633	0.12440147
172	0xbef19670	-0.47185087
173	0x3e066f82	0.13128474
174	0xbd37e92b	-0.0449001
175	0xbee89738	-0.4542787
176	0x3e9b3d24	0.30320084
177	0x3ca14066	0.019684028
178	0x3ee4d2cb	0.44692072
179	0xbe0c98d9	-0.13730182
180	0x3c46e5c0	0.012139738
181	0x3d7b448a	0.06134466
182	0xbc85670a	-0.016284484
183	0x3e84c773	0.25933418
184	0xbdd7a36d	-0.10529218
185	0xbe8dd2b4	-0.27699816
186	0xbd9ec14d	-0.07751713
187	0x3d86acf3	0.06575956
188	0x3e361336	0.17780766
189	0xbeb2af9b	-0.348996
190	0x3b4ea922	0.0031533916
191	0x3ec12e7b	0.37730774
192	0xbddda06e	-0.10821615
193	0xbe2b9913	-0.16757612
194	0xbc0ec06a	-0.008712867
195	0xbe49a9ec	-0.19693726
196	0x3e7ccc09	0.24687208
197	0x3e7a78ef	0.24460195
198	0x3e5b856d	0.21437617
199	0xbc21a7a0	-0.009866625
200	0x3e94a0a3	0.29028806
201	0xbe74f3f6	-0.23921189
202	0x3d8baab4	0.068196684
203	0x3d7e821a	0.062135793
204	0x3e5b8fd1	0.2144158
205	0xba45608c	-0.000752934
206	0x3b5f7807	0.0034098641
207	0x3d96af68	0.07357675
208	0x3f091392	0.53545487
209	0xbd4d6674	-0.050146535
210	0xbe47014c	-0.19434088
211	0xbb94d904	-0.004542472
212	0xbec80a50	-0.39070368
213	0x3df68943	0.12037899
214	0xbe114e8b	-0.14190118
215	0x3ebdebac	0.37093866
216	0x3e613a87	0.21994983
217	0xbd7dbca7	-0.06194749
218	0x3cfba28b	0.030717155
219	0x3d419e15	0.0472699
220	0x3d1423ce	0.03616696
221	0x3e1537d6	0.14572081
222	0x3e34d53d	0.17659469
223	0x3e7e79ab	0.248511
224	0xbdf0021b	-0.117191516
225	0xbe8e743c	-0.27823055
226	0x3e87ad72	0.26499516
227	0xbdce3ff3	-0.10070791
228	0xbe215c7e	-0.15757939
229	0x3e814ad4	0.25252402
230	0x3e848036	0.25879067
231	0xbd333c51	-0.043758694
232	0x3dab5ca9	0.08367283
233	0x3cb8a2f0	0.022538632
234	0xbc67f4a4	-0.014157448
235	0x3f34d112	0.70631516
236	0xbc5259d9	-0.012838804
237	0xbeac5e87	-0.3366587
238	0xbe66c57d	-0.22536273
239	0xbe0b427a	-0.13599578
240	0xbdcbda9a	-0.09953804
241	0x3e0e2c68	0.13884127
242	0x3e16623a	0.14685908
243	0x3e92cac1	0.28670314
244	0xbe70d34d	-0.23518105
245	0xbe3dc370	-0.18531585
246	0x3dac38c2	0.08409263
247	0x3dd64c48	0.10463768
248	0xbcd9b995	-0.02657775
249	0x3eb7b53b	0.35880455
250	0xbef5ce1d	-0.48008814
251	0x3de0e073	0.1098031
252	0x3e4a7246	0.19770154
253	0xbdcf88a9	-0.10133488
254	0xbe89b0eb	-0.2689279
255	0x3e373a98	0.17893445

fc1.bias f4 [64]
0	0x3ea1aec9	0.31578663
1	0xbeb2fbe0	-0.3495779
2	0x3e2d9d70	0.16954589
3	0x3ef8322f	0.48475787
4	0x3f191e76	0.59812105
5	0x3f12191f	0.5706958
6	0x3f0f6f01	0.56028754
7	0x3f04df1b	0.5190293
8	0x3ebf04ce	0.37308353
9	0x3edf9e1a	0.4367531
10	0x3eda2b57	0.4261119
11	0x3e75d8cb	0.24008481
12	0x3f2e22a1	0.6802159
13	0x3f07aa0a	0.52993834
14	0x3ed6a636	0.41923684
15	0xbd8159e5	-0.06315974
16	0x3e1850d6	0.14874586
17	0xbd4bd600	-0.049764633
18	0xbe668061	-0.2250991
19	0x3ed0cfab	0.40783438
20	0x3eb6e670	0.35722685
21	0xbd13358b	-0.035939734
22	0x3eaec7d9	0.34136847
23	0x3cf4add1	0.029868038
24	0x3e186437	0.14881979
25	0x3ac21656	0.0014807682
26	0x3f7c4d79	0.98555714
27	0x3f0257cd	0.50915223
28	0xbefc9964	-0.49335778
29	0x3e131a02	0.1436539
30	0x3e8253d8	0.25454593
31	0x3eeb66ee	0.45976967
32	0xbdb667c5	-0.08906511
33	0xbdf4ec31	-0.119591124
34	0xbd8ebd05	-0.06969646
35	0x3f24da1a	0.64395297
36	0x3f0807ff	0.531372
37	0x3de98308	0.11401945
38	0xbe28356b	-0.16426627
39	0x3ee87e74	0.45408976
40	0x3e9a0b7d	0.3008689
41	0xbe16b094	-0.14715797
42	0xbd9d7cd0	-0.07689822
43	0x3f1fd1bb	0.624294
44	0x3e436ced	0.1908452
45	0x3e48fa7a	0.19626799
46	0xbdfbff63	-0.123045705
47	0x3eaaf79d	0.3339204
48	0x3f679a52	0.9046985
49	0x3ee22270	0.441669
50	0x3e79baea	0.24387708
51	0x3eb993b5	0.36245504
52	0x3f6939b6	0.91103685
53	0x3ee00a19	0.43757704
54	0x3ea54b0f	0.32283828
55	0x3e91f41b	0.2850655
56	0x3f36c14d	0.71388704
57	0x3f3daae2	0.7408887
58	0x3f399458	0.7249198
59	0x3ef06c39	0.46957567
60	0x3eec5647	0.46159574
61	0x3f4118d7	0.7542853
62	0x3d060d92	0.032727785
63	0x3f1bd953	0.60878485

fc2.weight f4 [64, 64]
0	0x3de6d0a2	0.11270262
1	0xbd80345f	-0.06259989
2	0xbddcf3b1	-0.10788668
3	0x3dd0cd7a	0.101954415
4	0x3dbc39cf	0.091907136
5	0xbc554c06	-0.013018614
6	0x3e5c630a	0.21522155
7	0x3e3736e9	0.1789204
8	0xbd788eba	-0.06068299
9	0x3e2ac8b6	0.16678128
10	0xbe3d46aa	-0.18483987
11	0x3dba4b4d	0.09096394
12	0x3c02eb3f	0.007990657
13	0x3daaad5f	0.08333849
14	0xbcccb960	-0.024990737
15	0xbd4dbc08	-0.05022815
16	0x3d9d815b	0.07690688
17	0xbe11794a	-0.14206424
18	0x3e3dd973	0.18539982
19	0x3d84e8c9	0.06489713
20	0xbd4d6d65	-0.050153155
21	0xbc3032b7	-0.010754279
22	0x3d88cf48	0.06680161
23	0xbd528cdb	-0.05140386
24	0x3dcd0a11	0.10011686
25	0xbdc7e136	-0.097597525
26	0xbe1efd85	-0.15526398
27	0x3dd2bc14	0.10289779
28	0x3cf5792d	0.029965008
29	0x3d9115e0	0.070842505
30	0xbdb53233	-0.08847465
31	0x3e167d36	0.14696202
32	0x3e1920be	0.14953896
33	0x3ec01d0e	0.37522167
34	0x3e42a54f	0.19008373
35	0xbdc446ae	-0.095837936
36	0x3e9e277d	0.30889502
37	0x3e087da4	0.13329178
38	0xbc1a8607	-0.009431369
39	0x3d9f3e42	0.077755466
40	0x3ccb9ca5	0.024854967
41	0xbba1ea47	-0.004941258
42	0xbe928b5a	-0.28621942
43	0xbea5cf7b	-0.32384858
44	0x3e49b0ad	0.19696303
45	0x3e7063cf	0.23475574
46	0x3e1d0bd9	0.15336551
47	0x3e9bd1f1	0.3043361
48	0x3b9e8921	0.0048381244
49	0xbda31a92	-0.07964052
50	0xbb980fa7	-0.004640538
51	0x3e258b83	0.16166501
52	0x3d8d83e6	0.06909923
53	0xbe0cba6d	-0.13742991
54	0x3b1a1cf6	0.0023515797
55	0x3d4c77d3	0.04991896
56	0x3e8bcaf4	0.27303278
57	0xbddc28c2	-0.107499614
58	0x3c9b1e95	0.018935481
59	0xbdf170fb	-0.117891274
60	0xbb44145d	-0.0029919364
61	0x3e8204ff	0.25394437
62	0xbdb20717	-0.086927585
63	0x3e89d524	0.26920426
64	0x3ba9009e	0.0051575443
65	0x3d32ab21	0.043620232
66	0x3de4625e	0.111515746
67	0xbd1c5843	-0.03817011
68	0xbd69f081	-0.057114128
69	0xbdc001db	-0.09375354
70	0x3d986435	0.07440988
71	0xbe803f4e	-0.25048298
72	0x3e69190e	0.22763464
73	0xbe35d298	-0.17756116
74	0xbeae019b	-0.339856
75	0x3c42b1ae	0.011883182
76	0xbf0d9f91	-0.55321604
77	0x3ddb559c	0.10709688
78	0x3dbebf36	0.09313814
79	0x3de48cfc	0.11159703
80	0x3d7a97e3	0.061180007
81	0x3d9be71c	0.0761244
82	0x3dbe1aaf	0.09282433
83	0xbeb3d969	-0.35126808
84	0xbe0bbf2c	-0.13647145
85	0x3de16409	0.11005408
86	0xbcd25734	-0.025676347
87	0x3e2d2f8d	0.1691267
88	0xbe8a08e2	-0.26959902
89	0xbb70f858	-0.0036769118
90	0xbec5741b	-0.38565144
91	0x3d752476	0.059849225
92	0x3e03de1d	0.12877698
93	0x3ea7634f	0.32692954
94	0xbf01ba9f	-0.50675386
95	0x3ce63b16	0.028104346
96	0x3e607d1c	0.21922725
97	0x3e6adecc	0.22936553
98	0xbeb41063	-0.35168752
99	0xbe403d78	-0.18773448
100	0xbe0b93f7	-0.13630663
101	0x3e030cb9	0.12797822
102	0x3ce9cbae	0.028539505
103	0xbd0ba828	-0.034095913
104	0xbe8313f4	-0.2560116
105	0xb9922805	-0.00027877107
106	0xbedbf66e	-0.42961448
107	0xbe88ff8a	-0.2675746
108	0x3d5f6791	0.054542128
109	0x3d9b5cf3	0.07586088
110	0x3e42fba9	0.19041313
111	0xbdb99470	-0.09061515
112	0x3d8a92f7	0.067663126
113	0x3c8391fd	0.016060824
114	0xbe0b2366	-0.13587722
115	0xbdf7d112	-0.12100424
116	0x3da20386	0.07910828
117	0xbe22e383	-0.15907101
118	0x3defb04e	0.11703549
119	0x3c175f7f	0.009239077
120	0xbe19ad67	-0.15007554
121	0xbe09c756	-0.13454947
122	0xbf1f4f88	-0.6223073
123	0xbd711ffd	-0.058868397
124	0x3d9843dd	0.07434819
125	0x3ccbca87	0.024876846
126	0xbe18a5be	-0.14906976
127	0x3d191a58	0.03737864
128	0x3db6a650	0.0891844
129	0x3e5904d2	0.21193245
130	0x3e17565c	0.14779037
131	0x3e1a3526	0.15059337
132	0x3ebaba4c	0.36470258
133	0xbc91e5dd	-0.017809803
134	0x3d441cf0	0.04787916
135	0x3dbfc3af	0.093634956
136	0x3e4c707d	0.19964786
137	0x3ee4169a	0.44548494
138	0x3bd936e9	0.0066288603
139	0x3d6f6221	0.058443192
140	0x3e12d575	0.1433924
141	0x3d94f8bf	0.07274007
142	0x3dd7ec78	0.1054315
143	0x3e1f7ea3	0.15575652
144	0x3e02e6c6	0.12783346
145	0x3df73a93	0.12071719
146	0xbd80a3c8	-0.06281239
147	0x3d86b1d2	0.06576885
148	0x3dd6c3a1	0.10486532
149	0x3cd3dd45	0.025862345
150	0x3e5540d0	0.20825505
151	0x3e04056d	0.12892695
152	0xbbb93125	-0.0056516104
153	0xbd60c0c9	-0.054871354
154	0x3d1aebe7	0.03782263
155	0x3e55caaf	0.20878099
156	0xbdd5ea18	-0.104450405
157	0x3e4212d5	0.18952496
158	0x3e2564ab	0.16151683
159	0x3db2a3d4	0.08722654
160	0xbd049c08	-0.032375365
161	0xbc1940ba	-0.009353811
162	0xbdbf1d7c	-0.093317956
163	0x3e5e3de6	0.217033
164	0x3ea410bc	0.32044017
165	0x3da048ea	0.07826407
166	0x3e0f4d6e	0.13994381
167	0x3dcf5b8a	0.101248816
168	0x3ead5460	0.33853436
169	0x3d1801c8	0.037111074
170	0x3c3f3564	0.011670444
171	0x3e4afc21	0.19822742
172	0x3e22ddf8	0.15904987
173	0x3e2b122a	0.16706148
174	0x3d93c8d0	0.07216036
175	0x3e67eff5	0.2265013
176	0x3d9f8c45	0.07790426
177	0x3dbd1305	0.09232143
178	0x3e046e6f	0.12932752
179	0x3da2cc54	0.07949129
180	0x3e0d17f6	0.13778672
181	0x3e2f4165	0.1711479
182	0x3e5ee13b	0.21765606
183	0x3d2081c4	0.039186254
184	0x3e6e7a74	0.232889
185	0x3e45e7c4	0.19326693
186	0x3e21330c	0.15742129
187	0xbc9c904d	-0.019111777
188	0x3e92ca9c	0.28670204
189	0x3e42b328	0.19013655
190	0x3d0927c0	0.033485174
191	0x3dd36704	0.10322383
192	0xbda5b8a8	-0.08091861
193	0xbc76744e	-0.015042378
194	0x3d8ce79c	0.068801135
195	0xbdd7c3b2	-0.10535373
196	0xbe0fc7d6	-0.14041075
197	0xbd5bce04	-0.05366327
198	0xbe0dc97f	-0.13846396
199	0xbdc3103b	-0.0952458
200	0x3c8a2588	0.0168636
201	0x3cdc4b21	0.026891293
202	0xbcfc8d5c	-0.030829124
203	0xbcb959be	-0.0226258
204	0xbd0a5d47	-0.033780362
205	0xbdf96156	-0.121767685
206	0x3d37646d	0.044773508
207	0xbd9e4214	-0.07727447
208	0xbe157fbe	-0.14599511
209	0xbc8b6c70	-0.01701948
210	0x3dde7f04	0.1086407
211	0xbd262db0	-0.040570915
212	0x3d8e7043	0.06955006
213	0xbc7b6e90	-0.015346184
214	0xbd9077f8	-0.07054132
215	0xbc0f1fa0	-0.008735567
216	0xbd070248	-0.03296116
217	0xbd19719c	-0.037461862
218	0xbca25038	-0.019813642
219	0xbdcc7bab	-0.09984525
220	0xbc0b3962	-0.008497568
221	0x3d295546	0.04134109
222	0x3d27d550	0.040974915
223	0x3d188d38	0.03724405
224	0xbd1399f2	-0.036035486
225	0x3d153310	0.03642565
226	0xbda47562	-0.080302015
227	0xbd868211	-0.06567777
228	0x3d5e526c	0.054277822
229	0xbdc72220	-0.09723306
230	0x3dc04d03	0.09389689
231	0x3cddb6da	0.02706473
232	0xbd6bec2e	-0.057598285
233	0x3d731d4a	0.059354104
234	0x3d5b5c72	0.05355496
235	0xbd35fba2	-0.04442943
236	0x3b9533ae	0.00455328
237	0xbd78c072	-0.060730405
238	0xbd03a6dc	-0.03214155
239	0xbcf17178	-0.029473051
240	0x3daddca4	0.084893495
241	0xbbf1b5c0	-0.0073764026
242	0x3d44a7e8	0.04801169
243	0x3dbb9d96	0.091609165
244	0xbdafbdea	-0.08581145
245	0xbd98901a	-0.0744936
246	0x3d0e334f	0.0347169
247	0x3d4d2afa	0.050089814
248	0x3c494916	0.012285491
249	0xbdf5c7c2	-0.120009914
250	0xbd9094a8	-0.07059604
251	0xbd680296	-0.05664309
252	0xbccbe84f	-0.024891047
253	0xbdfaed27	-0.122522645
254	0x3b129814	0.0022368478
255	0xbdd09e61	-0.101864584

fc2.bias f4 [64]
0	0x3d9a7e93	0.07543673
1	0xbe379cde	-0.17930934
2	0x3f0eae88	0.55735064
3	0xbe18dadf	-0.14927243
4	0x3ec507c8	0.384825
5	0xbea38799	-0.3193939
6	0xbdc1c2c4	-0.09460977
7	0xbdd681ad	-0.104739524
8	0x3eecfff2	0.4628902
9	0x3f021bc8	0.5082364
10	0x3e2bdb91	0.16782977
11	0xbd9d6ee0	-0.07687163
12	0x3ee61e70	0.44945097
13	0x3eaa5525	0.33268085
14	0x3ec58101	0.38574985
15	0xbdf18e1c	-0.11794683
16	0x3e6eec63	0.23332362
17	0x3da68067	0.081299596
18	0x3eaf8fc7	0.3428938
19	0xbcf89c25	-0.030347893
20	0x3ed1ac45	0.40951744
21	0xbeae1d23	-0.34006605
22	0x3e437385	0.19087036
23	0xbe8cba50	-0.27485895
24	0xbdc27cb4	-0.094964415
25	0x3ef81421	0.48452857
26	0x3eb9bf13	0.3627859
27	0x3ea8270f	0.328423
28	0x3cad7cfc	0.021177761
29	0x3eafc950	0.34333277
30	0xbdedbd46	-0.11608367
31	0xbe1f9443	-0.15583901
32	0x3f00f747	0.50377315
33	0x3eab1d56	0.3342082
34	0xbe13b3b9	-0.14424028
35	0x3ed9ae1f	0.42515656
36	0x3ecd9be1	0.4015799
37	0x3eb8a3d5	0.36062494
38	0x3ef8e239	0.48610094
39	0x3eeafdaf	0.4589667
40	0x3eb04ac5	0.34432045
41	0x3ee02155	0.4377543
42	0x3ec3c180	0.38233566
43	0x3ef6fac9	0.4823821
44	0x3ef87198	0.48524165
45	0xbe458adb	-0.1929125
46	0x3e84be35	0.25926366
47	0x3ee29ee5	0.44261852
48	0x3efe415d	0.49659243
49	0xbcc41875	-0.023937443
50	0x3ea6d505	0.32584396
51	0xbea5d05f	-0.32385537
52	0x3ed78eac	0.42101038
53	0x3d294dbe	0.041333906
54	0x3dbdfd42	0.09276821
55	0x3ea087df	0.3135366
56	0x3ed0a5e8	0.40751576
57	0xbea1d1eb	-0.31605467
58	0xbc94776b	-0.01812335
59	0xbec25db9	-0.3796213
60	0xbdaeb916	-0.08531396
61	0x3ec63a99	0.3871658
62	0xbe838c5c	-0.25693023
63	0x3ecb9550	0.39762354

fc3.weight f4 [1, 64]
0	0x3efd2519	0.49442366
1	0x3ec18e10	0.37803698
2	0xbdb6d011	-0.08926404
3	0xbd63cca7	-0.055615094
4	0xbe1cd6ea	-0.15316358
5	0x3eeecebe	0.46642107
6	0x3f702473	0.9380562
7	0x3ed3bc9e	0.4135484
8	0xbdf5d871	-0.120041735
9	0xbde52f1b	-0.11190625
10	0x3ef67882	0.48138815
11	0x3ec88ed0	0.39171457
12	0xbdf539ba	-0.11973901
13	0xbe7462c9	-0.23865809
14	0xbdbdb4bc	-0.09262988
15	0x3ddcf47e	0.10788821
16	0xbd8129c1	-0.06306792
17	0x3ef5ff5a	0.4804638
18	0xbe4f44bd	-0.20241065
19	0xbee66a2b	-0.45002875
20	0xbe23d1b7	-0.15997969
21	0x3ed6dfb6	0.41967553
22	0x3eb5d438	0.35513473
23	0x3f016de8	0.5055833
24	0x3ed5fa09	0.41792324
25	0xbe3ed2d7	-0.18635117
26	0xbe5561a7	-0.20838033
27	0xbe609d94	-0.21935111
28	0x3eec46ab	0.46147665
29	0xbe2cc5a8	-0.16872275
30	0x3d961758	0.07328671
31	0x3e97820c	0.29591405
32	0xbdcada6d	-0.09904943
33	0xbe0a1061	-0.1348281
34	0x3dcaa181	0.09894086
35	0xbe0b42d9	-0.13599719
36	0xbde5dbc6	-0.11223559
37	0xbe059b9e	-0.13047644
38	0xbe1cca65	-0.15311582
39	0xbe337ba4	-0.17527634
40	0xbe10201b	-0.14074747
41	0xbe0eb416	-0.13935885
42	0xbe0bddf9	-0.13658895
43	0xbe48ad35	-0.19597323
44	0xbda9170c	-0.08256349
45	0x3ef2f4f4	0.4745251
46	0x3eaf856a	0.34281474
47	0xbddb7202	-0.10715105
48	0xbe201831	-0.15634228
49	0x3ecc6150	0.39917994
50	0xbdc1e4a6	-0.09467439
51	0x3e9a3097	0.30115196
52	0xbe2b2f6a	-0.16717306
53	0x3ee3e769	0.4451249
54	0x3c847df0	0.016173333
55	0xbf06c596	-0.5264524
56	0xbdfb1ad7	-0.12260979
57	0x3fff0888	1.9924479
58	0x3ea2372c	0.31682718
59	0x3eb9c036	0.36279458
60	0x3ed149a7	0.40876505
61	0xbe4fce7b	-0.2029361
62	0x3fb0d994	1.38164
63	0xbde729fe	-0.11287306
