SAC/sac/critic2_checkpoint_7.pth (torch, 23178 bytes, 5 tensors)

fc1.weight f4 [64, 13]
000000 a4 1e 97 3e 85 e4 ee be 50 b9 1f be f9 89 16 bd
       0.29515564 -0.46658722 -0.15598035 -0.036752675
000010 3f d1 b1 bd 8e 91 a0 3e 41 5c 85 bd ef ba 36 be
       -0.08682489 0.3136105 -0.06511737 -0.17844747
000020 12 f7 6d 3e 4c 31 fc 3e a8 51 b7 3e eb c4 c2 3e
       0.23238781 0.4925636 0.35804486 0.3804086
000030 29 31 86 3e b1 bc 0b 3d a4 c8 93 3e 7c c3 bf 3d
       0.2620938 0.034115497 0.28864014 0.093634576
000040 42 6e 2f bf f6 84 10 bf f2 6c 37 be 21 23 72 3e
       -0.68527615 -0.5645288 -0.17912653 0.23646213
000050 87 53 18 3e 3e 9a fe 3c df d7 f9 bd ef 6a 82 be
       0.14875613 0.031079408 -0.12199377 -0.2547221
000060 df a1 7c 3d 5b 06 01 be ff ff 6b 3c a1 a2 4d be
       0.06167781 -0.1260008 0.014404296 -0.20081569
000070 1f df 20 bd 28 27 a9 bc 6b 3c 75 be 69 96 a0 3e
       -0.039275285 -0.020648554 -0.23948829 0.31364754
000080 94 b4 94 3e 58 39 a3 bc b2 04 0c 3e 3e 59 2a 3d
       0.2904402 -0.019924805 0.13673666 0.041589014
000090 9a c5 e8 bc d4 b3 8d 3d 6d 3b a0 3b 5f c8 66 3e
       -0.028414536 0.06919065 0.0048898966 0.22537373
0000a0 e9 2a 1a 3e 82 5e 30 3d 33 74 59 bd cb 0f ea 3c
       0.15055431 0.04305888 -0.05308933 0.028571984
0000b0 19 22 45 3f e4 a2 a1 bd d4 77 52 3e 01 96 8f 3d
       0.77005154 -0.07892397 0.20553523 0.07011033
0000c0 06 d6 3a 3e 30 3c 5f 3e 1a 19 ec bc b2 78 a0 3e
       0.18245706 0.21800303 -0.028820563 0.31342083
0000d0 07 ae 28 be 60 4e ab be 85 ff 48 bd fb ad 8e 3c
       -0.16472636 -0.33458233 -0.049071807 0.017416945
0000e0 62 16 52 3d d2 19 5f be 3f 9a cb bd c4 6c 58 3c
       0.051290877 -0.21787193 -0.099415295 0.0132095255
0000f0 b2 94 44 be 3e 9a 60 3d be 8b d4 3c 25 7e 36 be
       -0.19197348 0.054834597 0.02594554 -0.17821558
000100 70 f0 03 bd 6a 75 41 3d 69 1e 0e be 2e 0d c0 3d
       -0.03221172 0.047231115 -0.13878788 0.09377514
000110 ab 1a 02 be 69 63 12 3e ba 7b 50 be 87 80 73 3e
       -0.12705486 0.14295734 -0.20359698 0.23779498
000120 cb 01 61 3d 6f e9 d2 be 92 e0 29 bd 76 16 53 be
       0.05493335 -0.4119372 -0.041473933 -0.20614037
000130 ae 07 23 bd 57 a9 43 be b9 49 b1 be 0c 02 93 3e
       -0.039802246 -0.19107567 -0.34626558 0.287125
000140 6d 15 72 bd 3d 52 70 bd d7 3d ce 3d 63 0d 9e 3b
       -0.059102464 -0.05867218 0.10070389 0.004823373
000150 9c eb 7a 3e 04 c7 9b bd 80 d0 20 3e c7 76 8d bb
       0.2450394 -0.076063186 0.15704536 -0.004317138
000160 1e fd 72 3d 55 0f 40 3e 4f ac 67 3d ec 2e 4e be
       0.059323423 0.18755849 0.05656081 -0.20135087
000170 0a 00 f5 be 26 90 46 be 74 fa 84 bf 52 ec 29 bd
       -0.47851592 -0.19390926 -1.0388932 -0.04148514
000180 4b 02 05 be 12 09 73 3f 67 0c c0 bb 43 0b d2 bd
       -0.12989156 0.94935715 -0.0058608535 -0.10256054
000190 3a 93 59 be b1 b8 24 3e 63 61 ac 3d 8d d7 5d 3e
       -0.21247569 0.16086079 0.084170125 0.21664257
0001a0 86 18 16 be 55 76 69 3e 04 28 c1 3c 1c 54 a7 bc
       -0.14657792 0.22799046 0.023578651 -0.020425849
0001b0 6e 6d 1b be 3f f5 2a 3e b7 73 91 be d4 98 f0 3d
       -0.15178463 0.16695116 -0.28408596 0.117479
0001c0 bb cc 72 3d ce 3c 52 bd 02 4f fe 3d 58 09 a2 3e
       0.059277277 -0.05132752 0.12417413 0.31647754
0001d0 da 89 58 3e bc 35 08 be 62 fa 3d be 4c 77 d0 bb
       0.21146336 -0.13301748 -0.18552545 -0.0063618775
0001e0 2d f5 58 3e b1 04 80 be 06 0f f4 bd 18 58 86 bb
       0.21187277 -0.2500358 -0.11916928 -0.004099857
0001f0 e5 5a 75 3c 51 3c c5 be 52 23 0b be e2 85 9e bd
       0.014975284 -0.3852258 -0.13587692 -0.0774038
000200 1c 47 ba bd 28 31 b1 bd 17 e2 d7 3b 87 b5 3a 3e
       -0.09095594 -0.08651954 0.0065882313 0.1823331
000210 ff ae 1b 3e df 6b be 3d b5 00 d2 be 0f fc bf 3d
       0.15203474 0.092979185 -0.41016164 0.09374248
000220 15 23 70 3e 94 02 2b 3e a5 d5 9d 3e bf 54 3e 3c
       0.23450883 0.16700202 0.3082706 0.011616885
000230 7d 01 e4 3e 1c be f5 3e 6d b4 28 3e ea 54 af be
       0.44532385 0.47996604 0.16475077 -0.34244472
000240 ea 5a df 3e 97 a0 cd bb 72 eb 58 bf 21 71 4a be
       0.4362405 -0.0062752473 -0.8473426 -0.19769718
000250 ec 63 c8 be ce cb 57 bd b2 f0 86 bd db 21 22 bd
       -0.39138734 -0.052684598 -0.06588878 -0.03958307
000260 59 a7 d5 bc 2f 1d dd 3d 13 98 f5 3d b3 a6 f4 38
       -0.026080774 0.10796582 0.119918965 0.00011665877
000270 e9 21 31 bd d3 7b 58 be ab 3d 37 be 00 4c b4 be
       -0.04324523 -0.21140985 -0.17894618 -0.35214233
000280 f7 6a 6b 3d a6 ad 36 3e 34 02 27 bd 06 55 01 3e
       0.057475056 0.17839679 -0.040773585 0.1263009
000290 de 72 66 be d2 a0 f1 3c 62 66 b3 3d d7 51 a7 3e
       -0.22504756 0.02949563 0.08759762 0.32679626
0002a0 96 09 2e 3e 98 bf 87 3e 38 19 67 bd a8 91 03 3e
       0.16995844 0.26513362 -0.056420535 0.12848532
0002b0 52 c9 ac be d1 17 a5 3d 6c ca fb 3e 37 ba 0c 3e
       -0.33747345 0.08061183 0.49177873 0.1374291
0002c0 bc 1b 90 bd 4f 5c ba 3e 39 96 77 3e 32 d3 1a 3c
       -0.0703654 0.3639855 0.24178399 0.009449767
0002d0 b7 40 12 3e 49 48 29 3d db 8a 1d 3e 0e bb dc 3d
       0.14282499 0.041328702 0.15385 0.10777865
0002e0 de 6e d5 3d b9 77 54 bd 96 49 3b bd 60 5d 89 3d
       0.10421537 -0.05187199 -0.045724474 0.06707263
0002f0 5a f5 2d be f1 07 c1 bd e7 73 b5 3e 73 09 2c 3e
       -0.16988125 -0.09425343 0.3543999 0.1680048
000300 1d 48 89 3e 5b 45 24 3e a4 2e b1 3e 4f 47 28 be
       0.2681283 0.16042082 0.34605896 -0.16433452
000310 e8 41 22 3f ab a5 49 be 40 9a ed 3d 53 ac 85 3d
       0.63381815 -0.19692104 0.116016865 0.06527009
000320 a9 87 42 3e ba 27 9a be f8 fd 14 be 83 9d f5 3e
       0.18997063 -0.30108434 -0.14550006 0.47971734
000330 3e 7c 87 bd 3d 1a 5f 3c da 40 19 3c 0f 4e 34 bc
       -0.06615494 0.013617096 0.009353841 -0.011004939
000340 04 f8 b1 bd 3c 64 f8 3e eb 1c a2 3d 6d b4 bb bd
       -0.08689883 0.48513973 0.07915672 -0.09165273
000350 5a 8c 9d 3d 18 53 8a 3e 8c 2e 0d 3d f4 9b 17 3e
       0.076927856 0.2701652 0.03446822 0.14805585
000360 c2 f5 c3 3d 0d aa 68 3d 50 bb 13 3e 8b ae a8 3c
       0.09568359 0.056802798 0.14426923 0.020591041
000370 5d 57 8a 3e 67 87 6d be 3f 0d 6d 3e c7 5d 37 bd
       0.27019778 -0.23196183 0.23149584 -0.044767167
000380 da be c7 bd aa 31 21 3e d6 e5 27 3e 90 91 d1 3d
       -0.09753199 0.15741602 0.16396269 0.10232842
000390 a3 69 05 3e fc fe 7a be 5e 7a b0 bd de ab 42 3d
       0.13028578 -0.24511331 -0.0861709 0.047527187
0003a0 ab 5a 85 3e 05 64 83 3e 93 d2 a7 bd 54 5c b3 3e
       0.26045737 0.25662246 -0.08194461 0.35031378
0003b0 67 f7 b2 bc 5d 8e a7 3d 78 8c 31 3d 03 07 e2 3e
       -0.021846486 0.081814505 0.043346852 0.44145975
0003c0 74 ce 6f 3c f6 58 c4 3e 0b 2f 97 3e df 46 b1 bc
       0.014636625 0.38349122 0.29528078 -0.02164024
0003d0 c2 86 6b 3e 05 0d be 3d 1c 59 85 3e 31 e1 8b bc
       0.23000625 0.09279827 0.26044548 -0.017075153
0003e0 b0 7a a6 3e 41 70 44 3e c0 8f 63 be 58 80 d4 bd
       0.32515478 0.19183446 -0.22222805 -0.10376042
0003f0 a8 4f 01 3f 66 84 36 bd e9 ca 7b bc 0d d3 f2 3e
       0.5051217 -0.04455986 -0.015368202 0.47426644

fc1.bias f4 [64]
000000 1c 76 9b be af 8d 48 3f 69 81 e8 bd ad 93 b7 be
       -0.30363548 0.7834119 -0.11352808 -0.35854855
000010 06 53 fa bd fc 17 88 3e 17 d7 19 be 2d 8a 1a 3f
       -0.12222867 0.265808 -0.15023457 0.6036709
000020 d9 74 01 be 6a 8f 54 3e 4b 43 c1 3e 05 79 c9 3e
       -0.1264223 0.20757833 0.37746653 0.39350143
000030 22 97 88 3e 5c 95 dd be 8b bc 0c 3e e2 bd 13 bf
       0.26677805 -0.43278015 0.13743798 -0.57711613
000040 a9 eb cc be 5e 29 e8 3e 20 d5 3f bf ea 24 04 3f
       -0.40023544 0.4534406 -0.7493458 0.51618826
000050 ee c4 52 3f 76 cb 5e 3e 39 50 fa 3e 2f 94 d7 3e
       0.8233174 0.21757302 0.4888933 0.42105243
000060 c0 e0 0c 3e f9 33 9b 3e 13 43 8e be af 16 10 be
       0.1375761 0.3031309 -0.2778555 -0.14071153
000070 65 ef a6 be 99 1a 94 3e 96 95 be be 08 89 e4 bd
       -0.3260452 0.28926542 -0.372235 -0.11158949
000080 41 1b 1a 3f 2a 47 90 bd 97 01 95 3d af c6 56 3e
       0.60197836 -0.070448235 0.07275694 0.2097423
000090 91 bf 12 3e 40 a5 d2 3e 7f e5 92 3e 8b 5d 14 3f
       0.1433089 0.411417 0.28690717 0.57955235
0000a0 a2 5c 2e 3f 1c 1d 5d bd 9a c4 9a bd fd 81 1e 3e
       0.68110096 -0.05398284 -0.0755703 0.15479274
0000b0 85 28 01 3f 2b fc 24 3f 45 84 cf be 6d 3a 0c bf
       0.5045245 0.6444728 -0.405306 -0.5477665
0000c0 50 f6 89 3f 35 04 06 3f 0c c5 64 3f de 52 1d 3f
       1.0778294 0.5235017 0.8936317 0.6145457
0000d0 9d 15 38 3f d1 93 c5 3d 31 ef 08 3f 6c d1 12 bf
       0.7190798 0.09647334 0.5348998 -0.573508
0000e0 98 89 9e 3e d9 b9 8b be eb 6b 47 bc 5f de 12 be
       0.3096435 -0.27290228 -0.012171726 -0.1434264
0000f0 db 55 4a 3d 39 ba 1b bf 94 96 2c 3f a2 d8 39 3e
       0.049398284 -0.6083103 0.67417264 0.18149045

fc2.weight f4 [64, 64]
000000 8c 00 0c b9 27 da 13 3e 22 4b f6 3d 14 41 cd 3d
       -0.00013351644 0.14438687 0.12026049 0.10022178
000010 0c 0e 47 3d aa 68 6f 39 3a e4 05 3e ea e9 fa 3d
       0.04859738 0.00022831807 0.13075343 0.12251647
000020 23 66 1d 3e f5 31 f2 3b 3b 81 f0 3b e8 4e 9a bc
       0.15370993 0.0073912092 0.007339624 -0.018836454
000030 d7 24 19 3d aa 44 20 3e 50 50 eb 3d 36 87 b6 3d
       0.03738865 0.15651193 0.11489928 0.08912508
000040 46 c7 03 be 8d 3e 1a 3e 73 19 13 be 58 44 a7 3d
       -0.12868986 0.15062924 -0.14365177 0.081673324
000050 e6 e1 8e 3e 49 58 38 be 75 c6 38 3e 2d 5a e9 3d
       0.27906722 -0.18002428 0.18044455 0.11394153
000060 53 72 38 3e 60 23 84 3d a6 f2 01 3e 09 34 8d 3d
       0.18012361 0.0645206 0.1269022 0.068946905
000070 fe 8b 0c bd 99 69 85 3d 20 ec 03 3e 1f 50 da bb
       -0.034313194 0.06514282 0.12883043 -0.006662383
000080 1f 88 20 3d 47 75 18 3e 56 00 c8 3d c5 88 93 3d
       0.039192315 0.14888488 0.09765689 0.07203821
000090 db 45 0f be 9f 4d 5a 3e 2d 2c 49 3e e0 67 a1 3d
       -0.13991491 0.21318673 0.19645758 0.07881141
0000a0 82 25 d7 3d 53 79 17 bd 4c f6 e9 bd 41 2f 49 3e
       0.10505201 -0.03698094 -0.114239305 0.19646932
0000b0 fd c1 a9 3e 7e fa a7 3c 3a 21 5b bd 88 92 14 3e
       0.33155814 0.020505186 -0.053498484 0.14509022
0000c0 48 b2 a6 3d 42 6b 03 3d c2 3d 1f 3d 95 7e 56 3e
       0.08139473 0.03208471 0.038877256 0.20946725
0000d0 21 19 c7 3d 76 1f 3d 3d 5e c4 61 3d 7a e1 2f bd
       0.0972159 0.04617258 0.05511891 -0.04293964
0000e0 89 7d 36 bd ed 1a 2c 3e 3e b6 e1 3c 15 f9 da 3d
       -0.044553313 0.16807146 0.02755272 0.1069204
0000f0 c2 67 81 3e 18 d9 d7 3d d2 c7 8f 3e 9c 50 9e 3d
       0.25274473 0.10539454 0.28082138 0.07730219
000100 b9 21 46 3d ac 1b cd 3d 67 61 6f 3d d8 9f ec 3d
       0.048372004 0.100150436 0.0584425 0.11553925
000110 35 5f 8a 3d d6 c7 97 bd 53 18 cc 3d a3 0d 02 3c
       0.067564406 -0.074111626 0.09965577 0.007937822
000120 57 1f 8d bc 4c 20 3c 3e 3b 6a f5 3b 86 87 c7 3d
       -0.017226858 0.18371695 0.0074894703 0.09742646
000130 41 44 6a 3d 04 f2 0f 3d ca d2 2e 3e 56 35 bb 3c
       0.057194 0.035142913 0.17072597 0.022852581
000140 8b d0 91 3c 9d d9 72 3e 85 17 81 3d f7 63 78 bd
       0.017799636 0.23715825 0.06303314 -0.06064221
000150 91 46 38 3e 70 85 a8 ba 04 3a 49 3e 20 e0 8e 3d
       0.17995669 -0.001285715 0.19651037 0.06976342
000160 17 8e 56 3e 3f 07 1a 3e 5c 92 03 bc 71 c1 1f 3d
       0.2095264 0.15041827 -0.0080305 0.03900284
000170 b2 78 cf bd 9e e6 c3 3d 28 9f f6 3d ef ff 40 3d
       -0.10130443 0.09565471 0.120420754 0.047119077
000180 2f 55 48 3e e8 0f e4 3d bb 94 7f 3d 90 1d 92 3c
       0.19563745 0.111358464 0.0623977 0.017836362
000190 a7 65 56 bc f7 6e b1 3d f2 14 90 3d 10 10 a8 3d
       -0.013085759 0.08663743 0.07035245 0.08206189
0001a0 17 1f 26 3d a4 be 8a bc d7 2d 94 bd da 3f 36 3e
       0.040556993 -0.016936608 -0.07235306 0.17797795
0001b0 31 d4 15 3e 0e af ee 3d ab 3b cf bd 78 3a ba 3d
       0.14631726 0.11654483 -0.10118803 0.09093183
0001c0 f9 d5 c8 3d a3 c4 63 3e ab 7d 00 3e 5f a7 33 3e
       0.09806437 0.2224298 0.12547939 0.17544316
0001d0 2b ef a1 3d e5 ab 93 bd 11 53 52 3d 30 0e 0c 3e
       0.07906946 -0.07210521 0.05134875 0.13677287
0001e0 32 82 91 3d 94 a4 d6 3d fa 8b 09 bd 0d 5c 17 3e
       0.07104911 0.104806095 -0.033580758 0.14781208
0001f0 25 d2 8a 3e 53 b8 7a bd 23 5c a3 3d 2a 05 61 bd
       0.27113453 -0.06121094 0.07976558 -0.054936565
000200 8e 05 8c bd c3 ae 17 be 02 00 87 be d5 32 72 bd
       -0.06836997 -0.1481276 -0.26367193 -0.05913051
000210 76 52 45 be 3c cb 00 3c b6 25 fb bd a4 00 b7 3c
       -0.19269738 0.007860955 -0.12263052 0.022339173
000220 43 5c 01 bd e9 29 82 3d f3 63 69 be 9b 5d e5 3d
       -0.03158213 0.0635565 -0.22792034 0.111994945
000230 e6 19 76 3e a5 0c 1a 3e 8c 14 0e be 11 79 52 bd
       0.24033317 0.15043886 -0.13875026 -0.05138499
000240 5c 4f c1 3c 63 e0 29 3d ba aa bd be 86 88 fc 3b
       0.023597412 0.041473757 -0.37044317 0.0077067045
000250 85 6f ed bd aa 86 7c 3d 8e 7c df bd e3 d2 ea bd
       -0.11593536 0.061651863 -0.10912429 -0.11466005
000260 9c 64 04 bd 0f 38 08 bc f0 88 ac 3b 7b 5c 6e bd
       -0.03232251 -0.008314147 0.0052653477 -0.058193665
000270 11 37 72 bd e5 9c 48 bd e7 bd a7 bd 96 49 df 3d
       -0.059134547 -0.04897775 -0.08190518 0.10902707
000280 3f df a1 bb 61 e4 11 3e 8b 79 1c 3e 06 0c bf 3d
       -0.004939943 0.14247276 0.1528074 0.09328465
000290 69 dd 88 3e 4b d7 66 be 33 8e e9 3d fc c6 d7 3c
       0.26731423 -0.22543065 0.114040755 0.02634
0002a0 cf 62 fc bd e1 ac f0 3d b7 34 e3 3c 92 c0 fb bd
       -0.12323534 0.11751724 0.027735097 -0.12292589
0002b0 e9 11 18 be 8e 40 2e 3e 35 2a ef 3d 89 7d a0 bc
       -0.14850582 0.17016813 0.11677972 -0.01959111
0002c0 34 7e 20 3e 01 01 dd 3d cf fe 41 3e f2 f9 43 3d
       0.15673143 0.10791207 0.18944858 0.04784579
0002d0 76 c9 d3 bd c4 7b 5d 3d 5a ec d3 3d 0d 2c e7 3d
       -0.1034116 0.05407311 0.10347815 0.11287699
0002e0 a7 82 fb bd c7 bc 1a 3d 53 06 d2 bc ca 67 aa 3d
       -0.12280779 0.03777769 -0.025637781 0.083205774
0002f0 47 44 81 bd 5f 82 2a 3e 9c cb c1 3d 45 c2 c2 3d
       -0.06311851 0.16651295 0.094626635 0.0950971
000300 87 ae 10 bf 2c 85 52 3e 74 23 b7 be 2f be 68 be
       -0.5651631 0.20558614 -0.35769236 -0.227288
000310 a6 2e a9 be a6 af 92 bd 37 b6 b0 3c e0 9a 4a 3d
       -0.33043402 -0.071624085 0.021571262 0.049464107
000320 cb b8 16 3e 11 d0 aa 3d 84 68 ff 3b 89 d5 e4 3d
       0.1471893 0.08340467 0.0077944417 0.11173541
000330 0b 6a f6 3d 97 11 5d 3e ae 66 af 3e eb b7 35 3d
       0.12031945 0.21588741 0.34258026 0.04436485
000340 8c 82 e3 bd 53 2b 85 3d 29 9f fe be 9c 94 7a 3e
       -0.11108884 0.06502404 -0.49730805 0.24470752
000350 4f eb db 3d d3 68 1d be cc 36 91 3e d1 cb 4e 3e
       0.10738241 -0.15372019 0.2836212 0.20194937
000360 82 08 19 bc 44 1e 5f bd 5c 85 10 be 91 fe be 3b
       -0.009340407 -0.054472223 -0.14113373 0.0058286865
000370 79 ce 27 bf 11 de 43 3e 23 af 76 be 30 0c 53 3e
       -0.6554943 0.1912768 -0.24090247 0.20610118
000380 32 18 84 3c 99 59 95 be a0 04 98 bd 22 d6 37 be
       0.016124818 -0.2916992 -0.07422757 -0.17952779
000390 72 a7 e1 bd 3b a4 2f 3e e5 af 8e 3d 60 0b 57 3c
       -0.11018266 0.17152493 0.06967143 0.013125271
0003a0 36 c2 f3 3d d7 af 1a be 98 c5 df bd e6 52 88 3e
       0.11902277 -0.1510614 -0.1092636 0.26625746
0003b0 75 58 6d 3e 54 1d f5 bd 66 ea 4a be 0e 68 d9 be
       0.23178275 -0.119684845 -0.19815978 -0.424622
0003c0 f5 d2 a8 bc 85 59 fb 3d 5e d9 c2 3d a7 cc 83 3e
       -0.020608405 0.12272934 0.09514116 0.25742075
0003d0 36 2e ac 3c 97 76 38 bc 1c fa f6 3c 41 ac 10 3d
       0.021018129 -0.011258743 0.030148558 0.035320524
0003e0 59 93 2b 3d 9d 08 69 3b 69 8b a0 bd f1 ca f1 3d
       0.04188857 0.0035558112 -0.078390904 0.11806286
0003f0 6a b6 b9 3e 86 8b 47 3c c3 28 97 3c 85 ac c9 3d
       0.36271983 0.012179261 0.018452054 0.098473586

fc2.bias f4 [64]
000000 23 32 cf 3e a3 b4 10 3f aa 37 ba 3d d8 41 90 3e
       0.4046794 0.5652563 0.09092648 0.28175235
000010 e1 91 25 bd 47 6b ac 3e 17 b9 0e bd 7b 93 cf be
       -0.040422324 0.33675596 -0.034844484 -0.40542206
000020 ba ce 02 3f da 9b 83 3c 2d 70 81 bd 64 56 06 3f
       0.5109669 0.016065527 -0.06320224 0.5247557
000030 27 9e 99 3d 9b f7 e5 3e 26 b9 a8 3e f7 ae f6 3e
       0.07500868 0.4491547 0.32953757 0.48180363
000040 e6 28 51 3e a8 35 81 3d 71 2f 87 3e 50 d1 ad 3d
       0.20425758 0.06309062 0.26403382 0.08487189
000050 5d b7 eb 3e 5e 7a e9 3e bb 66 0c 3f b8 c6 e0 3e
       0.46038333 0.4560117 0.54844254 0.4390161
000060 41 8e e1 3e 07 54 04 3f e0 4e e3 3e bd cf 0c 3f
       0.44053844 0.51690716 0.44396114 0.55004483
000070 68 f9 d1 be 19 76 ca 3e e4 46 ed 3e 49 ee fb 3e
       -0.41010594 0.39543226 0.46343148 0.49205235
000080 31 de 48 3e 47 63 91 3e 6e 3b e7 3e 45 a2 28 be
       0.1961601 0.28396055 0.4516253 -0.16468151
000090 26 49 4b 3b 40 01 b2 be f7 ca cc 3e d9 0d 5e be
       0.0031018942 -0.3476658 0.399986 -0.2168497
0000a0 c1 04 97 3e 36 2b 6d bd 31 b2 2a 3e 54 75 fc bd
       0.29495814 -0.057902537 0.16669537 -0.12327066
0000b0 ab 12 e6 be bd 54 cb 3d 3a 80 db 3e ba 8e e0 3e
       -0.44936118 0.09928272 0.42871267 0.43858892
0000c0 52 3d 2e 3e aa a3 49 bd d9 e7 cb be 2b 60 0b bd
       0.1701558 -0.049228348 -0.39825323 -0.03402726
0000d0 9f 54 e9 3e d0 d4 1a be b9 69 04 bd 5d 0c f1 3e
       0.45572373 -0.15120244 -0.032327387 0.47079745
0000e0 8f c9 c0 3e dc b3 c7 3e bb c9 c0 bc 2f f2 bd 3e
       0.37653777 0.3900441 -0.023533693 0.37098834
0000f0 58 8c 05 be 98 a9 be 3e 3f 2f 82 bb c8 1e 93 bd
       -0.13041818 0.37238765 -0.0039729173 -0.071836054

fc3.weight f4 [1, 64]
000000 d0 cf 33 be b7 42 10 be 47 ff 80 be 18 57 59 3e
       -0.17559743 -0.1408795 -0.2519476 0.2122463
000010 2e 22 b2 3e c2 20 80 bd 56 34 cb 3e 8b d3 f4 3e
       0.34791702 -0.06256248 0.39688367 0.47817644
000020 50 86 c6 bd c5 e6 25 3e f6 71 9c 3e 17 3b 2a be
       -0.09693587 0.16201313 0.30555695 -0.16624103
000030 0c 22 64 3e 39 45 a3 bd f9 04 8a bd f9 5f 2b be
       0.22278613 -0.079721875 -0.0673923 -0.1673583
000040 73 39 89 3e fe 29 9b 3d 03 88 8e 3e bb 03 c1 be
       0.26801643 0.07576369 0.27838144 -0.3769816
000050 f7 fb 1d be b4 5e b9 bd 77 1c c4 bd 6e 9d de bd
       -0.15428148 -0.09051266 -0.09575742 -0.10869871
000060 62 96 c5 bd 25 5b 91 bd 37 8a c5 bd a2 bb b2 bd
       -0.09647824 -0.070974626 -0.09645503 -0.08727194
000070 cc da 02 40 74 61 dd bd 99 84 83 bd d2 1e b4 bd
       2.0446043 -0.10809603 -0.06421775 -0.08794941
000080 9e 92 43 3e 7b 7e 1f be 9e 5f 00 be b6 3d 7f 3e
       0.19098899 -0.15575592 -0.12536475 0.24925885
000090 a5 e6 bb 3e 69 15 83 3e 4e ba 1e be 08 bd 8c 3e
       0.36699405 0.25602272 -0.15500757 0.2748797
0000a0 e7 ee 8a 3e 21 54 e3 3c dc 5d 6b 3e e1 32 ca 3e
       0.27135393 0.027750077 0.22985023 0.39491943
0000b0 10 bc be 3f b4 a3 8b 3e e6 14 20 be 7a bc 2e be
       1.4901142 0.27273333 -0.15632972 -0.17064086
0000c0 41 4c b4 3e d9 1e a7 3e 75 f5 c7 3e 2c 38 0f 3e
       0.35214427 0.32640722 0.39054456 0.13986272
0000d0 1b 88 a7 bd 2d 63 59 3e 93 be c5 3e 8f 17 05 be
       -0.08180257 0.21229239 0.3862196 -0.12997268
0000e0 bf 77 4c be 82 6b 24 be ec 64 c6 3e ce de 00 be
       -0.19967555 -0.16056636 0.38748872 -0.12584993
0000f0 dd d9 52 3e b5 43 33 be cf 0c a1 3e b6 83 ab 3d
       0.20590921 -0.17506297 0.31455085 0.08374731
