SAC/sac/critic1_checkpoint_4.pth (torch, 23178 bytes, 5 tensors)

fc1.weight f4 [64, 13]
0	0xbca1161e	-0.019663867
1	0x3f43773b	0.76353806
2	0x3d8c42f6	0.06848709
3	0x3e7829d1	0.24234702
4	0xbf1968fa	-0.59925807
5	0xbef0e3eb	-0.47048888
6	0x3da3371b	0.07969495
7	0xbd6e2379	-0.058139298
8	0x3d902953	0.07039132
9	0xbde1ad81	-0.11019421
10	0xbe585304	-0.21125418
11	0x3d92c634	0.071667105
12	0xbc84daaa	-0.016217548
13	0x3e71c280	0.23609352
14	0x3e97a426	0.29617423
15	0x3da4fdf7	0.080562524
16	0xbdde8dfb	-0.108669244
17	0x3bab9de5	0.0052373284
18	0x3efe74d8	0.4969852
19	0xbd8f49f2	-0.06996526
20	0x3e25f622	0.16207173
21	0x3f0abe51	0.5419665
22	0x3dfb63b6	0.12274878
23	0x3db4ada4	0.08822182
24	0x3c72717b	0.014797564
25	0x3de2078b	0.11036595
26	0x3f097ebe	0.5370902
27	0x3edee2fc	0.4353255
28	0xbe04ca61	-0.12967826
29	0x3e45073a	0.19241038
30	0x3e015806	0.12631235
31	0x3e2600a5	0.16211183
32	0xbddeba8b	-0.10875424
33	0xbdd75cce	-0.10515748
34	0x3e3af7e2	0.18258622
35	0x3da588bf	0.08082723
36	0x3d9a5d01	0.0753727
37	0x3eb92bf5	0.3616635
38	0x3e416c68	0.1888901
39	0x3e519ed9	0.20470752
40	0x3e00901a	0.1255497
41	0x3daf1615	0.08549134
42	0xbea8f4e5	-0.3299934
43	0xbe9f3e89	-0.31102398
44	0x3d2a5d41	0.04159284
45	0x3cd76c92	0.026296888
46	0xbe8bbdcf	-0.2729325
47	0x3ee80507	0.45316336
48	0xbd8c3639	-0.0684628
49	0x3d13f286	0.03611996
50	0x3dc40d08	0.09572798
51	0xbdf203b7	-0.11817115
52	0xbeac8e37	-0.3370225
53	0x3db36027	0.08758574
54	0xbd9da2e4	-0.076970845
55	0xbe227957	-0.158666
56	0xbf067d55	-0.5253499
57	0xbe531a14	-0.20615417
58	0xbb698f29	-0.0035638309
59	0x3e8349de	0.25642294
60	0xbe1fdf1b	-0.15612452
61	0xbd1cb545	-0.03825881
62	0x3e2d7cde	0.16942164
63	0xbd33b0de	-0.043869846
64	0x3be65b5c	0.007029934
65	0xbe60da29	-0.21958221
66	0xbe8c9277	-0.27455494
67	0xbe282806	-0.16421518
68	0xbf8a1774	-1.0788407
69	0xbf742507	-0.95369
70	0xbf0af782	-0.54283917
71	0x3e2782c0	0.16358471
72	0x3ecfd0e0	0.40589046
73	0xbe6460d5	-0.22302563
74	0xbe4f8247	-0.2026454
75	0xbd2d1666	-0.04225769
76	0xbdfcd527	-0.12345343
77	0xbdaabe16	-0.08337037
78	0xbe817d8e	-0.25291103
79	0x3df2024d	0.11816845
80	0xbe8cab27	-0.2747433
81	0xbe665585	-0.2249356
82	0xbe6e86f3	-0.23293667
83	0x3e868bc5	0.2627851
84	0xbdba8cf6	-0.091089174
85	0x3d7bfc91	0.061520163
86	0x3d9c7cb4	0.07640973
87	0xbd96166d	-0.07328496
88	0x3e1b11a1	0.15143444
89	0x3e1544bc	0.14577001
90	0x3c9e7a71	0.019345494
91	0x3e0e886d	0.1391923
92	0xbe8d4383	-0.2759057
93	0x3b82a5b5	0.003987039
94	0xbf4c6dff	-0.7985534
95	0x3e27a840	0.16372776
96	0xbe442058	-0.19152963
97	0x3e5ace9b	0.21367876
98	0xbe19011c	-0.1494183
99	0xbd18d3da	-0.037311412
100	0xbdd4b4ec	-0.103860706
101	0x3dcdcf74	0.10049334
102	0xbda3951b	-0.07987424
103	0xbd825d3c	-0.06365439
104	0xbd875544	-0.0660806
105	0x3e65bafe	0.22434613
106	0x3d47dd2d	0.048794914
107	0x3e0a63ed	0.13514681
108	0xbf0efaec	-0.55851626
109	0xbe2228ec	-0.15835923
110	0x3e90c29b	0.28273472
111	0xbe1da61a	-0.15395394
112	0xbe8318da	-0.25604898
113	0xbe352224	-0.17688805
114	0x3e96b290	0.29433107
115	0xba671a95	-0.0008815912
116	0x3ddc51aa	0.10757764
117	0xbd26a59f	-0.040685292
118	0x3dd94dfa	0.10610576
119	0xbc78e199	-0.015190505
120	0xbe58206d	-0.2110612
121	0xbde8821b	-0.11352941
122	0x3ebc80c8	0.36817002
123	0xbd7c977c	-0.061667904
124	0x3d52871f	0.051398393
125	0x3ecfe42f	0.40603778
126	0x3e380c3e	0.1797342
127	0x3d8b7289	0.06808955
128	0x3dd69030	0.1047672
129	0x3d538776	0.051642857
130	0xbe6a9cef	-0.22911428
131	0x3f22d1b9	0.6360126
132	0xbab6bd45	-0.0013941905
133	0xbea66370	-0.3249774
134	0xbe769464	-0.24080044
135	0x3dad6291	0.08466066
136	0xbe698ee5	-0.22808416
137	0x3de9e04e	0.11419736
138	0x3eab257e	0.33427042
139	0xbdc5f0cb	-0.09665068
140	0x3cc21f16	0.023696464
141	0x3d56cf2c	0.05244367
142	0x3ca09a89	0.019604938
143	0x3e953dfc	0.29148853
144	0x3da9f162	0.08297993
145	0x3e2c5ec4	0.16833025
146	0xbeb728a5	-0.35773197
147	0xbe40fc78	-0.18846309
148	0xbdc85844	-0.0978246
149	0x3e1b4680	0.15163612
150	0x3ce5fb5a	0.028073955
151	0x3e6fee1b	0.23430674
152	0x3e8d7592	0.27628762
153	0x3ec372b8	0.3817346
154	0x3e91d35b	0.28481564
155	0x3e60989b	0.21933214
156	0xbd204660	-0.039129615
157	0xbe3bb5ea	-0.18331113
158	0xbe55fdb6	-0.20897564
159	0xbf00b48a	-0.5027548
160	0x3c837ad9	0.01604979
161	0x3b92c602	0.004479171
162	0xbdc611ab	-0.09671339
163	0xbd964ae8	-0.07338506
164	0xbe26546d	-0.16243143
165	0xbe0ba1dc	-0.13635963
166	0xbd2c590e	-0.042077117
167	0xbd8863f3	-0.06659689
168	0xbde71b10	-0.11284459
169	0x3e935480	0.28775406
170	0x3ed43fbf	0.41454884
171	0x3d97b409	0.07407386
172	0xbef083c5	-0.46975532
173	0x3dc38183	0.09546187
174	0x3e9388e2	0.2881537
175	0xbed1ec25	-0.41000476
176	0x3e8d959c	0.27653205
177	0x3e508c69	0.20366062
178	0x3ec72a5c	0.38899505
179	0xbd41c5f1	-0.047307912
180	0x3e1d8207	0.15381633
181	0x3ddf0017	0.10888689
182	0xbe16cdaf	-0.147269
183	0x3e8d8877	0.27643177
184	0xbe263ac7	-0.1623336
185	0xbe8b7716	-0.27239293
186	0x3d5f26c8	0.054480344
187	0x3ee3cdb8	0.44492888
188	0xbbc62151	-0.006046452
189	0xbe5ac605	-0.21364601
190	0x3eae6e02	0.34068304
191	0x3eb20f6d	0.34777394
192	0x3d2b197d	0.041772354
193	0x3dcdc2a9	0.10046894
194	0x3be49c43	0.0069766357
195	0xbce6b06f	-0.028160302
196	0x3e44471c	0.19167751
197	0x3dd02edf	0.1016519
198	0x3e2d9290	0.1695044
199	0xbca6cf0c	-0.0203624
200	0x3ec39cab	0.38205466
201	0xbdf45aae	-0.11931358
202	0x3d8e4fe8	0.06948835
203	0x3defb950	0.117052674
204	0x3e5f5bba	0.21812335
205	0x3da45ffe	0.080261216
206	0x3e0ed752	0.13949326
207	0x3e77c306	0.2419549
208	0x3eec4537	0.46146557
209	0x3db8b0c0	0.090180874
210	0xbde1ad4e	-0.11019383
211	0xbce38991	-0.027775558
212	0xbf1158d1	-0.5677615
213	0x3c0eccc8	0.008715816
214	0xbdbef09c	-0.09323236
215	0x3eca1a25	0.39473072
216	0x3da9e2f3	0.0829524
217	0xbe13e0dd	-0.14441247
218	0xbc8502e9	-0.01623674
219	0xbd273405	-0.040821094
220	0xbbc065a4	-0.0058714915
221	0x3e5875eb	0.21138732
222	0xbc673a55	-0.0141130285
223	0x3dfcdc0f	0.1234666
224	0xbddb3be7	-0.10704785
225	0xbdcbe8de	-0.09956525
226	0x3e4e8db5	0.20171244
227	0xbe091b75	-0.1338938
228	0xbe069a2e	-0.13144752
229	0x3ed03bc1	0.4067059
230	0x3e75dd46	0.2401019
231	0xbd17ca2d	-0.037058044
232	0x3d65fd62	0.056149848
233	0x3d8abb6f	0.06774031
234	0xbd7b311f	-0.061326142
235	0x3f1d40ae	0.6142682
236	0xbc8e7f88	-0.017394796
237	0xbea7443c	-0.32669246
238	0xbdcf5c42	-0.10125019
239	0x3d15653e	0.036473505
240	0xbda3db75	-0.080008425
241	0x3d79e79f	0.061011907
242	0x3e1fd862	0.15609887
243	0x3e78e81e	0.24307296
244	0xbdce5df4	-0.10076514
245	0xbdba7b26	-0.0910552
246	0x3e02d861	0.12777855
247	0x3dc2aed0	0.09505999
248	0xbd8fd486	-0.070229575
249	0x3e8f4757	0.27984115
250	0xbee35da7	-0.4440739
251	0x3dfe40a8	0.12414676
252	0x3e90a6eb	0.28252348
253	0xbe5040cc	-0.20337218
254	0xbe18978f	-0.14901565
255	0x3ebe84fa	0.37210828

fc1.bias f4 [64]
0	0x3ec8f051	0.39245847
1	0xbee7bed0	-0.45262766
2	0x3e25d3a8	0.16194022
3	0x3e379084	0.17926222
4	0x3f14e6ef	0.58164877
5	0x3f26c7b4	0.6514847
6	0x3f1bd356	0.6086935
7	0x3f04f5a6	0.5193733
8	0x3ea2153b	0.31656823
9	0x3e435911	0.19076945
10	0x3ea2c9b9	0.31794527
11	0x3e419cdb	0.18907492
12	0x3f41ec39	0.7575107
13	0x3e8fa6ee	0.28057045
14	0x3d4cd19d	0.05000459
15	0xbe0a390b	-0.13498323
16	0x3ea6d06e	0.32580894
17	0xbe771f16	-0.24132952
18	0xbebf0dc8	-0.37315202
19	0x3ebe5dca	0.3718093
20	0x3f09dac6	0.53849447
21	0xbe187dc5	-0.14891727
22	0x3e604229	0.21900238
23	0x3cf94ba1	0.03043157
24	0x3d8dbab6	0.06920378
25	0xbd487fba	-0.048949935
26	0x3f78bb62	0.97160923
27	0x3f146d1e	0.57979
28	0xbf1e409e	-0.6181735
29	0x3d9e1ed4	0.07720724
30	0x3e1432e6	0.14472541
31	0x3eaac50d	0.33353463
32	0xbebf62f5	-0.37380186
33	0xbe8828aa	-0.26593524
34	0x3b826162	0.003978894
35	0x3f2a44e7	0.66511387
36	0x3ee4182b	0.4454969
37	0xbd356103	-0.04428197
38	0xbe0a861f	-0.13527726
39	0x3eedcda2	0.46445948
40	0x3e1881b1	0.14893223
41	0xbe6d3842	-0.23165992
42	0x3e10c595	0.14137872
43	0x3f22bf3e	0.6357306
44	0xbe1e7767	-0.15475236
45	0x3e0fbc8f	0.14036773
46	0xbe915961	-0.28388503
47	0x3e487aa7	0.19578038
48	0x3f4f91f2	0.8108207
49	0x3e885e27	0.26634333
50	0x3ea5f17a	0.32410794
51	0x3dfd1981	0.1235838
52	0x3f772b37	0.96550316
53	0x3efcfb6a	0.49410564
54	0x3d8dee13	0.06930175
55	0x3ea21ead	0.3166403
56	0x3f4c7a3d	0.7987402
57	0x3f51ab1e	0.8190173
58	0x3f357edf	0.70896715
59	0x3efcba6f	0.49360988
60	0x3e11802e	0.14209053
61	0x3f1fd1ec	0.6242969
62	0xbd724bf7	-0.059154477
63	0x3ec3bac9	0.38228443

fc2.weight f4 [64, 64]
0	0x3ddc5583	0.107584976
1	0xbd51dacc	-0.05123405
2	0xbe228ac6	-0.1587325
3	0x3d5f6b7c	0.054545864
4	0x3dba02a8	0.09082538
5	0xbcacc96d	-0.021092141
6	0x3e4b0c88	0.19828999
7	0x3e410db6	0.18852887
8	0xbdcfa206	-0.101383254
9	0x3e83ac61	0.25717452
10	0xbe580383	-0.2109509
11	0x3d82faf4	0.06395522
12	0x3d5d9a5a	0.05410228
13	0x3d40bb83	0.047053825
14	0xbcc69571	-0.024241181
15	0xbd862c3c	-0.06551406
16	0x3dbf7216	0.09347932
17	0xbe0f5076	-0.13995537
18	0x3e081f91	0.13293292
19	0x3dd842c3	0.10559609
20	0xbd6a58eb	-0.057213705
21	0xbcf2845c	-0.02960413
22	0x3cb8f28f	0.022576598
23	0xbd466127	-0.048432495
24	0x3df10795	0.11769024
25	0xbe080dc3	-0.132865
26	0xbdbf469d	-0.0933964
27	0x3e1bbc02	0.15208438
28	0xbb6cdb6b	-0.0036141525
29	0x3d32ee47	0.04368427
30	0xbd1e7a05	-0.038690586
31	0x3e2ff2f3	0.17182522
32	0x3de948eb	0.11390861
33	0x3eb53904	0.35395062
34	0x3e30fede	0.17284724
35	0xbdac24cc	-0.08405456
36	0x3e861288	0.26186013
37	0x3dfc5bd4	0.12322202
38	0x3ca938a4	0.020656891
39	0x3db40b3d	0.08791206
40	0x3d6679b5	0.056268413
41	0xbd9fda82	-0.07805349
42	0xbe6d99d5	-0.23203214
43	0xbe93daac	-0.2887777
44	0x3e7302d0	0.23731542
45	0x3e5ec8b7	0.21756254
46	0x3e3bdb3c	0.1834535
47	0x3e91c0d1	0.2846742
48	0xbd90fb81	-0.070792206
49	0xbe1e1e75	-0.15441306
50	0x3c691f64	0.0142286755
51	0x3d5250fb	0.05134676
52	0x3d47dee9	0.048796568
53	0xbe04d28b	-0.12970941
54	0xba3af702	-0.0007132144
55	0x3d9368a7	0.07197695
56	0x3e8c8200	0.27442932
57	0xbdb9ff85	-0.090819396
58	0x3da9b4fc	0.08286473
59	0xbd6ef55e	-0.05833947
60	0x3c8289dc	0.015934877
61	0x3e73e88e	0.23819181
62	0xbc6b8042	-0.014373841
63	0x3e8862bb	0.26637825
64	0xbb1dd23a	-0.0024081604
65	0x3d15be34	0.036558345
66	0x3d338e93	0.04383714
67	0xbd3ca6a1	-0.046057347
68	0xbdc4ee36	-0.09615748
69	0xbdaeef3e	-0.085417256
70	0x3c99b313	0.018762147
71	0xbe889fb2	-0.26684338
72	0x3e612a68	0.21988833
73	0xbe59f24b	-0.21283834
74	0xbeb119d5	-0.3459002
75	0xbd5796ba	-0.05263398
76	0xbf0e3209	-0.555451
77	0x3d9f7d07	0.07787519
78	0x3b9cf68f	0.0047901343
79	0x3dab2a30	0.08357656
80	0x3df9c8c2	0.12196495
81	0x3d1bfa56	0.038080536
82	0x3c943aa2	0.018094365
83	0xbee58cbb	-0.4483393
84	0xbe1410ff	-0.14459608
85	0x3dc91b92	0.09819712
86	0xbda7374e	-0.081648454
87	0x3e1c645b	0.15272658
88	0xbe5ed763	-0.21761851
89	0xbc4c654c	-0.012475323
90	0xbebad52c	-0.36490762
91	0x3e003fce	0.1252434
92	0x3daaeec0	0.08346319
93	0x3ead1ece	0.33812565
94	0xbf1eae34	-0.6198456
95	0xbd08cd82	-0.033399113
96	0x3e347d94	0.17626029
97	0x3e5aba98	0.21360242
98	0xbed8e4ad	-0.42361966
99	0xbed0a65a	-0.40751916
100	0xbe83586c	-0.25653398
101	0x3e030cb9	0.12797822
102	0x3d3cf49b	0.04613171
103	0xbea06752	-0.31328827
104	0xbe85d511	-0.2613912
105	0xbd05ed11	-0.032696787
106	0xbed5a5d1	-0.4172807
107	0xbe73e356	-0.2381719
108	0x3c5b5ab9	0.013388329
109	0x3c4bf47f	0.012448429
110	0x3e3fbb78	0.18723857
111	0xbe7eb3fb	-0.24873345
112	0x3d8aacd3	0.06771245
113	0xbd61df92	-0.055144854
114	0xbe18da10	-0.14926934
115	0xbf003919	-0.50087124
116	0x3da20386	0.07910828
117	0xbe22e383	-0.15907101
118	0x3db4c33d	0.08826301
119	0xbd558056	-0.052124344
120	0xbe9887d2	-0.29791123
121	0xbdce4aba	-0.10072847
122	0xbf289da7	-0.6586556
123	0xbe0b93da	-0.1363062
124	0x3d5b4b16	0.053538404
125	0xbcfb9f4b	-0.030715605
126	0xbd991f82	-0.07476713
127	0x3a1d7041	0.0006005802
128	0x3db61d79	0.0889234
129	0x3e45730a	0.19282165
130	0x3e339089	0.17535605
131	0x3e027280	0.12738991
132	0x3ea7dd2f	0.32785937
133	0x3b0a294c	0.0021081744
134	0x3d57cf16	0.052687727
135	0x3d89cbf6	0.067283556
136	0x3e58d5c8	0.21175301
137	0x3eb2dcd0	0.34934092
138	0x3d7a1c7e	0.06106233
139	0x3d6691b9	0.056291316
140	0x3e042bc8	0.12907326
141	0x3d9aeab6	0.07564299
142	0x3dabe845	0.08393911
143	0x3e1cefc5	0.1532584
144	0x3decf8d5	0.115708984
145	0x3dca858f	0.098887555
146	0xbd6e3015	-0.058151323
147	0x3d37ff52	0.044921227
148	0x3dfb117d	0.12259195
149	0x3c44bcd5	0.012007912
150	0x3e4d1c86	0.20030412
151	0x3e00b312	0.1256831
152	0x3c0272b3	0.007961917
153	0xbc5eed48	-0.013606377
154	0x3c839ce9	0.016066032
155	0x3e4573cc	0.19282454
156	0xbdcda537	-0.10041278
157	0x3e3cf720	0.18453646
158	0x3e07acf0	0.13249564
159	0x3d6269d3	0.055276703
160	0xbcbea1e3	-0.023270553
161	0xba2a631d	-0.00064997544
162	0xbd3fe87c	-0.046852574
163	0x3e4d152d	0.20027609
164	0x3e92a4f9	0.2864149
165	0x3d80fc3b	0.06298109
166	0x3dde852c	0.10865244
167	0x3dd3690b	0.1032277
168	0x3e9248e6	0.28571242
169	0x3dcadd91	0.09905542
170	0x3d386fd6	0.04502853
171	0x3e3b1435	0.18269427
172	0x3ddcd7d2	0.10783352
173	0x3e1d06ce	0.15334627
174	0x3d4cc8bf	0.049996134
175	0x3e5d7399	0.21626128
176	0x3d9ec0ec	0.07751641
177	0x3e07e7a9	0.13271965
178	0x3e0a942a	0.13533083
179	0x3e07f5db	0.1327738
180	0x3e2260df	0.15857266
181	0x3e3eab60	0.18620062
182	0x3e5191fe	0.20465848
183	0x3cda0239	0.026612388
184	0x3e6cca05	0.2312394
185	0x3e3ef2f9	0.18647374
186	0x3e1fa4d4	0.1559022
187	0xbce153aa	-0.027505714
188	0x3e76be36	0.24095997
189	0x3e0d2425	0.1378332
190	0x3ca7358f	0.02041128
191	0x3dd78ef0	0.1052531
192	0xbda5b8a8	-0.08091861
193	0xbc76744e	-0.015042378
194	0x3d8ce79c	0.068801135
195	0xbdd7c3b2	-0.10535373
196	0xbe0fc7d6	-0.14041075
197	0xbd5bce04	-0.05366327
198	0xbe0dc97f	-0.13846396
199	0xbdc3103b	-0.0952458
200	0x3c8a2588	0.0168636
201	0x3cdc4b21	0.026891293
202	0xbcfc8d5c	-0.030829124
203	0xbcb959be	-0.0226258
204	0xbd0a5d47	-0.033780362
205	0xbdf96156	-0.121767685
206	0x3d37646d	0.044773508
207	0xbd9e4214	-0.07727447
208	0xbe157fbe	-0.14599511
209	0xbc8b6c70	-0.01701948
210	0x3dde7f04	0.1086407
211	0xbd262db0	-0.040570915
212	0x3d8e7043	0.06955006
213	0xbc7b6e90	-0.015346184
214	0xbd9077f8	-0.07054132
215	0xbc0f1fa0	-0.008735567
216	0xbd070248	-0.03296116
217	0xbd19719c	-0.037461862
218	0xbca25038	-0.019813642
219	0xbdcc7bab	-0.09984525
220	0xbc0b3962	-0.008497568
221	0x3d295546	0.04134109
222	0x3d27d550	0.040974915
223	0x3d188d38	0.03724405
224	0xbd1399f2	-0.036035486
225	0x3d153310	0.03642565
226	0xbda47562	-0.080302015
227	0xbd868211	-0.06567777
228	0x3d5e526c	0.054277822
229	0xbdc72220	-0.09723306
230	0x3dc04d03	0.09389689
231	0x3cddb6da	0.02706473
232	0xbd6bec2e	-0.057598285
233	0x3d731d4a	0.059354104
234	0x3d5b5c72	0.05355496
235	0xbd35fba2	-0.04442943
236	0x3b9533ae	0.00455328
237	0xbd78c072	-0.060730405
238	0xbd03a6dc	-0.03214155
239	0xbcf17178	-0.029473051
240	0x3daddca4	0.084893495
241	0xbbf1b5c0	-0.0073764026
242	0x3d44a7e8	0.04801169
243	0x3dbb9d96	0.091609165
244	0xbdafbdea	-0.08581145
245	0xbd98901a	-0.0744936
246	0x3d0e334f	0.0347169
247	0x3d4d2afa	0.050089814
248	0x3c494916	0.012285491
249	0xbdf5c7c2	-0.120009914
250	0xbd9094a8	-0.07059604
251	0xbd680296	-0.05664309
252	0xbccbe84f	-0.024891047
253	0xbdfaed27	-0.122522645
254	0x3b129814	0.0022368478
255	0xbdd09e61	-0.101864584

fc2.bias f4 [64]
0	0x3dafc343	0.08582165
1	0xbe543723	-0.20724158
2	0x3f09205e	0.53565013
3	0xbe18dadf	-0.14927243
4	0x3ebb04d7	0.3652713
5	0xbec6e30b	-0.38845095
6	0xbdd32972	-0.103106394
7	0xbdb44294	-0.08801761
8	0x3ee00085	0.43750396
9	0x3ef6e050	0.48218012
10	0x3e5b5218	0.21418035
11	0xbd812c38	-0.06307262
12	0x3ed9e62e	0.42558426
13	0x3e9e24cb	0.30887446
14	0x3eba137f	0.36343
15	0xbdf18e1c	-0.11794683
16	0x3e72988d	0.23691006
17	0x3d5b100a	0.053482093
18	0x3ea3a181	0.31959155
19	0xbd27bceb	-0.04095165
20	0x3ec54256	0.38527173
21	0xbeaaf91e	-0.33393186
22	0x3e6ef399	0.23335113
23	0xbe9370b1	-0.28796914
24	0xbda1de6f	-0.07903754
25	0x3eec8a88	0.4619944
26	0x3eb02536	0.3440339
27	0x3e9eacbb	0.30991158
28	0x3d17ee11	0.037092272
29	0x3ea5466e	0.32280296
30	0xbdedbd46	-0.11608367
31	0xbd974da5	-0.073878564
32	0x3ef720b4	0.48267138
33	0x3ea0e24c	0.3142265
34	0xbe13b3b9	-0.14424028
35	0x3ecf62c4	0.4050504
36	0x3ec06443	0.37576494
37	0x3eae5e1c	0.34056175
38	0x3eeed561	0.4664717
39	0x3ede944f	0.43472525
40	0x3ea2acf8	0.3177259
41	0x3ed09ca8	0.4074452
42	0x3eb99f71	0.36254457
43	0x3eeaa6d1	0.45830396
44	0x3eecfddf	0.46287438
45	0xbe802695	-0.25029436
46	0x3e961a76	0.29317063
47	0x3ed809fc	0.42195117
48	0x3ef45512	0.47721153
49	0xbba981bc	-0.0051729362
50	0x3e9d598f	0.3073239
51	0xbe95192a	-0.2912076
52	0x3ecdb9cf	0.40180823
53	0x3d81a95d	0.063311316
54	0x3db85306	0.090002105
55	0x3e82a77e	0.2551841
56	0x3ec395dd	0.38200274
57	0xbea1d1a1	-0.31605247
58	0xbdfe9823	-0.124313615
59	0xbeb138f1	-0.34613755
60	0xbd8aa796	-0.06770246
61	0x3eb9fbd7	0.3632495
62	0xbe838c5c	-0.25693023
63	0x3ec101d6	0.37696713

fc3.weight f4 [1, 64]
0	0x3ee22790	0.4417081
1	0x3ea56b4e	0.3230843
2	0xbd8779df	-0.06615042
3	0xbd63cca7	-0.055615094
4	0xbdfa9977	-0.12236302
5	0x3ef74577	0.48295185
6	0x3f51a50f	0.81892484
7	0x3ecbed8c	0.3982967
8	0xbdc01671	-0.0937928
9	0xbd998bf7	-0.07497399
10	0x3ef13512	0.47110802
11	0x3ec0f7ca	0.37689048
12	0xbda83d15	-0.082147755
13	0xbe577127	-0.21039258
14	0xbd5b19ed	-0.05349152
15	0x3ddcf47e	0.10788821
16	0xbd82ab7d	-0.06380365
17	0x3ee0b871	0.43890718
18	0xbe30e255	-0.17273839
19	0xbefa187b	-0.48846802
20	0xbdfedd94	-0.124446064
21	0x3eae40d9	0.3403385
22	0x3eaf969f	0.34294602
23	0x3eca637d	0.3952903
24	0x3eca4a98	0.39510036
25	0xbe21d467	-0.15803681
26	0xbe39bde1	-0.1813884
27	0xbe45c839	-0.1931466
28	0x3ee6bca1	0.45065787
29	0xbe13a7a2	-0.14419416
30	0x3d961758	0.07328671
31	0x3e45208d	0.19250698
32	0xbd96821d	-0.07349036
33	0xbdd1b2fa	-0.10239215
34	0x3dcaa181	0.09894086
35	0xbdcec0e1	-0.100953825
36	0xbdb471a4	-0.08810738
37	0xbdd7e1b4	-0.10541096
38	0xbdf42e4b	-0.11922892
39	0xbe17dde9	-0.14830746
40	0xbdead150	-0.114657044
41	0xbda490d8	-0.08035439
42	0xbddd2453	-0.10797944
43	0xbe252bb3	-0.16129951
44	0xbd5dd2fd	-0.054156292
45	0x3ec83ce3	0.39108953
46	0x3ea766f6	0.3269574
47	0xbda6e5f4	-0.08149329
48	0xbe09371d	-0.1339993
49	0x3ec41a16	0.38301152
50	0xbd64d84d	-0.055870343
51	0x3e6a33ab	0.22871272
52	0xbe1226ac	-0.14272565
53	0x3eda132f	0.4259276
54	0x3c55c60f	0.013047709
55	0xbef1b4fe	-0.472084
56	0xbdc64b5a	-0.09682341
57	0x3fff0855	1.9924418
58	0x3e980b10	0.2969594
59	0x3e913d77	0.28367206
60	0x3ecf3615	0.4047095
61	0xbe34e004	-0.1766358
62	0x3fb0d994	1.38164
63	0xbdb173f6	-0.08664696
