SAC/sac/critic2_checkpoint_1.pth (torch, 23178 bytes, 5 tensors)

fc1.weight f4 [64, 13]
000000 b5 fc db 3e 5c dc fa be 99 57 bd bb 89 d8 1f 3c
       0.42966238 -0.48996246 -0.0057782647 0.009756216
000010 c1 f8 10 bf 13 73 bb be 07 5c 10 3e a2 09 39 be
       -0.5662957 -0.36611232 0.14097606 -0.18070081
000020 c5 28 27 be 95 cf 1e 3f a1 a9 4a 3e 2e 3f f1 3d
       -0.16324146 0.62035495 0.19791271 0.11779629
000030 bb fb 4c 3e 6f cf 9a 3c d5 01 1b 3f 0e 87 04 3e
       0.20017903 0.01889774 0.6054967 0.12942144
000040 bc dd 47 bf 70 f4 28 bf 13 d1 8d be 70 bb 30 3e
       -0.78072715 -0.6599798 -0.27698573 0.17259002
000050 1d 2a 17 3e 14 94 21 3d c2 d6 cc bd 7b c7 c3 be
       0.14762159 0.03944786 -0.10001899 -0.3823813
000060 e2 72 a0 3c 12 da 19 be 45 32 44 3e 6d 65 04 be
       0.01958603 -0.15024593 0.19159801 -0.12929316
000070 0d 66 1b 3d 34 fa d1 be 1c 23 43 bf a4 8b 95 be
       0.03793912 -0.41011202 -0.7622545 -0.292081
000080 a0 18 1f 3f f0 a6 79 be b9 63 9d be 7f 70 56 3d
       0.6214695 -0.24380088 -0.30740145 0.05235338
000090 86 38 8a bd a6 c1 4e bd 43 fe 89 3e e9 62 e2 3e
       -0.06749062 -0.050477646 0.269518 0.44216087
0000a0 b9 f2 4d 3e 14 04 49 3e a6 81 89 3d c4 73 60 be
       0.20112123 0.19630462 0.067141816 -0.21919161
0000b0 9c a2 b1 3e d6 b9 17 be 24 c6 8d 3e 85 88 a8 3c
       0.34694374 -0.14816985 0.27690232 0.02057291
0000c0 be 77 80 3e dc f3 f7 3c 22 3d 81 bd ea b1 60 bd
       0.25091356 0.030267648 -0.06310488 -0.054857172
0000d0 55 ee 5a be 0e 7d 44 bf 50 a3 2d bd 8a 2a d4 3d
       -0.21379979 -0.7675332 -0.042392075 0.10359676
0000e0 16 82 88 3d b2 26 2c be 30 0c 0d bd 8f 3a b9 3d
       0.06665437 -0.16811636 -0.03443545 0.09044372
0000f0 3b 3e dc bd ab 9f 62 3e 17 11 01 be cb 27 40 be
       -0.10754057 0.22131221 -0.12604176 -0.1876518
000100 b7 1e 8d bc 82 b2 ab 3e a6 72 24 bf 0e a4 77 3d
       -0.01722656 0.33534628 -0.6423744 0.06045919
000110 10 87 0e be 6f f8 12 3e 44 3b 0e be 90 28 9c 3e
       -0.1391871 0.14352582 -0.13889796 0.30499697
000120 ec 97 5a 3e d2 85 01 bf 35 e2 96 bd a9 b3 7f be
       0.21347016 -0.5059482 -0.07367364 -0.24970879
000130 47 8f 3c bd 4e d8 52 be f8 72 ee be 1c bf 2b 3e
       -0.046035077 -0.20590326 -0.4657209 0.16772121
000140 91 64 84 bd 72 4c 15 bf 23 95 a5 3d 45 9f b2 be
       -0.06464494 -0.5831977 0.08085086 -0.34887138
000150 75 d2 96 3e 37 3c f3 3d 1d 64 98 be fb 22 c8 bd
       0.2945744 0.118767194 -0.2976388 -0.09772297
000160 8a 72 6a bc 6f ba e0 3d b8 04 27 3d ac 47 bd be
       -0.014309535 0.109730594 0.040775985 -0.36968744
000170 d3 e9 af be a6 f1 d3 be a5 b8 60 bf 4c 0c be bd
       -0.3435808 -0.413953 -0.87781745 -0.09279689
000180 31 37 25 be 7c 98 81 3f 02 b2 00 3e dd 4e 00 be
       -0.16134335 1.012466 0.12567905 -0.12530084
000190 74 ea c2 be fd e0 cb 3d 2e d7 8d 3b 86 d6 58 bb
       -0.380695 0.099550225 0.00432863 -0.003308685
0001a0 4c ec bb bd 3d 8e 12 3f d7 db f0 bd ed 74 07 bf
       -0.091759294 0.5724829 -0.11760681 -0.5291279
0001b0 85 76 2b bf 63 11 ce bd 1e cd 9f be b5 6f a6 3e
       -0.6697772 -0.1006191 -0.3121118 0.325071
0001c0 d4 fc 0d 3d 2b e7 86 bd d7 aa c9 3c 07 7c 87 3e
       0.034664944 -0.065870605 0.024617596 0.26461813
0001d0 f4 58 43 bc cf 1d 04 be 0e 62 1c bf 46 51 aa bd
       -0.011923064 -0.12901996 -0.6108712 -0.08316283
0001e0 89 0b 7f 3e 84 33 84 be f8 20 b6 bd a3 88 91 bd
       0.24906744 -0.25820553 -0.08893007 -0.071061395
0001f0 2d 37 fe 3d 49 ea ff be 10 ec 5e be 43 20 e7 bd
       0.12412868 -0.49983433 -0.21769738 -0.1128545
000200 ee 1e 64 be 53 57 5f 3c bb b2 d9 3c 45 8d 0f bd
       -0.22277424 0.01363166 0.026574483 -0.035046834
000210 fb 96 88 3e 5f 31 85 3d 2c 36 48 bf b1 c3 85 be
       0.2667769 0.065035574 -0.7820766 -0.26125863
000220 da b8 58 3e 63 9f 13 3e 5b 6e 40 be ce ac d4 bd
       0.21164265 0.1441627 -0.18792097 -0.103845224
000230 41 0c d3 3e 40 71 86 3e f0 47 09 be 7c dd d4 be
       0.41220286 0.26258278 -0.13406348 -0.4157523
000240 1a d2 90 3c 0f 3f 5d be 4b 96 30 bf 5d e2 6c be
       0.01767831 -0.21606086 -0.6897933 -0.23133226
000250 46 de a6 be 27 ef 21 be 63 80 17 bd e7 48 bc bd
       -0.32591456 -0.15813886 -0.036987673 -0.091935925
000260 53 b9 2a be 11 b3 09 3e 1e 97 3a 3c 9f 69 0c be
       -0.16672258 0.13447215 0.011388568 -0.13712166
000270 b8 6a d7 be 44 50 12 bf c2 d0 cc be 6f 76 bf be
       -0.42073607 -0.57153726 -0.4000302 -0.37395045
000280 81 70 c2 3c f6 ae af 3d 57 f3 83 be 78 e1 90 3e
       0.023735287 0.08578293 -0.2577159 0.2829702
000290 39 23 b8 be 44 09 bf bd 0c 84 cd bd 5b e1 fd 3e
       -0.35964373 -0.09327939 -0.100349516 0.49585995
0002a0 a5 36 fd bd e1 07 10 3e 72 97 08 3e 83 da 48 3e
       -0.12363938 0.14065506 0.13339022 0.19614606
0002b0 43 ba e6 be 77 52 d4 be 29 e9 48 3e ae 6f 81 3c
       -0.4506398 -0.41469166 0.19620194 0.015800323
0002c0 f9 3f 25 be 47 5d 9e 3e fa 2d d7 3e 2d f2 e6 bc
       -0.16137685 0.3093054 0.42027265 -0.02819165
0002d0 50 0a 3a 3e f6 60 aa bc b0 19 3d be e5 df a4 3e
       0.18167996 -0.020798188 -0.1846683 0.32202068
0002e0 8f 5b 2b 3e d5 fd 05 be 9b 80 a8 be 19 33 21 be
       0.16734146 -0.1308511 -0.32910618 -0.15742148
0002f0 8b a7 91 be a2 23 8a be c8 43 2c 3e 4c 84 22 3e
       -0.28448138 -0.2698031 0.16822731 0.1587078
000300 65 fa a2 bd c4 99 f3 3d 86 d7 34 3e 94 9e 30 3c
       -0.07957915 0.11894563 0.1766034 0.0107799955
000310 c5 1b 68 3f a6 3c fd bd 36 48 17 3e c3 7f 84 be
       0.9066737 -0.123650834 0.1477364 -0.25878724
000320 86 7b 74 be 83 f1 08 bf d3 f3 09 bd 7c 0a 81 3a
       -0.23875245 -0.5349352 -0.033679795 0.0009845044
000330 81 71 34 3e 70 14 75 3e 07 6d 0f be b2 de 15 be
       0.17621423 0.23933578 -0.14006434 -0.14635733
000340 e6 6b 14 be b1 01 e7 3e 10 cc 9c 3e 79 43 bf be
       -0.14494285 0.45118478 0.30624437 -0.37356165
000350 21 38 bf 3d 87 6d 67 bd ac 61 be be 6d ad 29 3e
       0.093368776 -0.056500938 -0.37183893 0.16570063
000360 93 36 96 bc 9f 4f 80 bd c1 ad 34 be 00 cd 45 be
       -0.01833657 -0.062651865 -0.17644407 -0.19316483
000370 56 45 d1 3d 1c 79 b6 be 02 91 cf 3e 2c 77 9f bc
       0.10218303 -0.35639274 0.4054032 -0.019466005
000380 8b 7c 96 be 2a 34 37 3e dd 7c 95 3d 13 f0 4d 3d
       -0.29391894 0.17890993 0.072992064 0.05027778
000390 2d 31 94 3e 6b 55 7c be e6 62 79 bd 36 df 28 be
       0.28943768 -0.2464196 -0.060885333 -0.16491398
0003a0 f1 9d 65 3e 9b b1 81 3e aa 36 48 be 2f ad 54 3f
       0.22423531 0.25330815 -0.19552103 0.8307676
0003b0 da a8 e1 3d b7 6e b6 be f4 3b 3a be 54 5c 9b be
       0.11018534 -0.35631344 -0.18186933 -0.30343878
0003c0 e4 5c 7b be 17 53 f3 3e ac fa 7b 3d fe 85 e1 3c
       -0.24547154 0.4752433 0.061518356 0.027529713
0003d0 93 8e 75 3e a0 36 35 3c 26 6d c0 bd 35 cd 22 be
       0.23980169 0.011060387 -0.093958184 -0.15898593
0003e0 cb ce 0b 3f 44 92 35 3e 30 3d d6 be b8 94 99 be
       0.54612416 0.17731577 -0.41843557 -0.29996276
0003f0 18 54 c1 bd 16 c8 52 be 8c 88 3f be 04 bb a7 bd
       -0.09439868 -0.20584139 -0.18704432 -0.08189967

fc1.bias f4 [64]
000000 a2 71 99 3e 23 fd 60 3f e0 90 d1 3e d7 cb 55 3d
       0.29969507 0.87886256 0.40930843 0.05219635
000010 e6 1a 5a be a5 f1 49 3d 4e b2 bf 3e 13 aa e2 3e
       -0.21299323 0.049302716 0.37440723 0.4427038
000020 08 bb c3 3e 33 30 ea bc a2 e1 3f 3f ab 98 71 3e
       0.3822863 -0.028587436 0.74953663 0.23593394
000030 2e c9 93 3e 43 00 37 3e 94 87 dc 3e 89 0d ef 3c
       0.28864425 0.17871194 0.43072188 0.029181259
000040 22 22 f2 bd 33 e9 2f 3f 2b 98 3e bd 80 5f 36 3f
       -0.118229166 0.6871521 -0.046531837 0.7123947
000050 f9 5e 6d 3f 61 22 8b be 6d f8 56 3f 80 39 1f 3f
       0.9272304 -0.27174667 0.8397282 0.62197113
000060 68 dc b8 3e fc f6 36 3f 04 45 09 3e 2b d2 bb 3e
       0.36105657 0.7147062 0.13405234 0.36683783
000070 b0 71 af bd c2 96 54 3f 94 d8 53 bd 41 b5 43 3e
       -0.08566606 0.8304254 -0.051720217 0.19112112
000080 ef 81 4c 3f 87 59 db be 5c 47 eb 3e 96 77 a6 3e
       0.7988576 -0.4284174 0.4595288 0.32513112
000090 80 cd 3d be 14 90 10 3f 47 e6 af 3e fe 16 f0 3e
       -0.18535423 0.56469846 0.34355375 0.46892542
0000a0 e1 51 44 3f e0 86 7e 3e a1 a6 70 bd 36 11 d3 3e
       0.7668744 0.24856138 -0.05875266 0.41224068
0000b0 b7 61 4d 3f db 82 c2 3e b1 83 84 3e c7 01 6a bd
       0.80227226 0.3799046 0.25881723 -0.0571306
0000c0 e5 f5 1b 3f 4a 7e 37 3f 57 77 60 3f 4e ef 36 3f
       0.6092208 0.71677077 0.876821 0.714589
0000d0 7f 13 18 3f 6d 90 59 be ca 71 1a 3f 44 96 cd 3d
       0.5940475 -0.212465 0.6032988 0.100384265
0000e0 d6 d1 97 3e 18 4a 60 3e cb ec 27 3f 18 f9 01 3f
       0.2965228 0.21903265 0.6559569 0.5077071
0000f0 25 c0 33 3f 85 ee 56 3e e7 b7 4b 3f 33 62 62 3e
       0.70215064 0.20989425 0.7957749 0.22107773

fc2.weight f4 [64, 64]
000000 fd 24 6d bd eb b3 8c 3e fc 4d 19 3e f5 e9 fb 3d
       -0.057896603 0.27481017 0.14971155 0.12300483
000010 4c 31 b5 bd 24 96 3d be fd 92 19 3e 18 23 9b 3d
       -0.08847293 -0.18514305 0.14997478 0.07575053
000020 1b 28 85 3e 16 5f 01 be 6b ee 0c bc f5 fb 86 bc
       0.2600716 -0.12633929 -0.008601765 -0.016477564
000030 9c fb 08 bd 43 81 3f 3e f8 91 29 3e cd 40 f9 3d
       -0.03344308 0.18701653 0.16559589 0.12170563
000040 fd 68 1e be 24 9c 94 3e 88 0f 0f be 5a 50 23 3e
       -0.15469737 0.29025376 -0.13970768 0.1594862
000050 75 cc f2 3e 8e 7e bc be 47 91 8a 3e fe f5 02 3e
       0.47421613 -0.36815304 0.27063963 0.12789151
000060 2a 22 90 3e 70 80 72 3d 8a 17 0e 3e 88 27 d8 3c
       0.28151065 0.05920452 0.13876167 0.026386037
000070 4f ce 40 be ac f6 c9 3d b2 0c 63 3e a1 4c 06 3d
       -0.188287 0.09861502 0.22172812 0.032787923
000080 4d c3 95 3e 3f 50 6c 3e 25 c3 06 3e c0 92 ec bc
       0.29250565 0.23077486 0.13160379 -0.02887857
000090 a5 fc 67 be 22 b1 87 3e 41 c6 a8 3e 44 e0 a8 3d
       -0.2265497 0.2650233 0.32963756 0.082459
0000a0 b0 66 8b 3e f4 03 be 3b b5 1a a1 be f2 c6 99 3e
       0.27226782 0.005798811 -0.31465688 0.30034596
0000b0 30 9c d6 3e fd 9b f4 bb 55 28 79 bd 5b ed 4e 3e
       0.41916037 -0.0074648843 -0.06082948 0.20207731
0000c0 ed 69 76 3b be cd d7 3c 6d 1d 39 3d 5e 67 7c 3e
       0.0037599758 0.026343223 0.04519408 0.24648806
0000d0 a4 ce c9 3d f7 36 c1 3d b5 04 78 3d f1 a2 b5 bc
       0.09853867 0.09434312 0.060551364 -0.022172423
0000e0 98 15 bd 3c 1f 03 81 3e 07 2f 33 3e 3f 07 27 3e
       0.023081586 0.25197694 0.17498408 0.16311358
0000f0 35 70 0b 3f e0 ff f9 3d ad 62 96 3e df cb e9 3c
       0.5446809 0.122070074 0.2937216 0.028539596
000100 00 75 1b bc c9 ad 6d 3e 87 64 b4 3d c2 57 0d 3e
       -0.009488344 0.23210825 0.088082366 0.13803008
000110 f7 30 8d bd ea 16 84 be a2 f8 f4 3d 54 c1 1b bd
       -0.06894105 -0.25798732 0.119614854 -0.03802617
000120 4e 8d b9 3d 1f 7d 53 3d 1a ff 07 bc c2 eb cf 3d
       0.09060155 0.051632997 -0.008300567 0.10152389
000130 68 c4 48 bc c1 fd 85 3d 7c 87 62 3e c2 8a 68 3d
       -0.012253858 0.0654254 0.22121996 0.056772955
000140 e1 ca 00 bc d8 96 c1 3e 3d d3 88 3d d4 42 8e 3c
       -0.00786087 0.37810397 0.066809155 0.01736585
000150 55 c3 c0 3e c2 66 40 be e9 3a 93 3e 41 20 ae 3d
       0.37649027 -0.18789199 0.28755882 0.08502246
000160 8e c4 9f 3e 02 60 14 3e bf f3 7a 3b 92 67 76 bb
       0.31204647 0.14489749 0.0038292257 -0.0037598354
000170 78 9f 82 be a0 1f 05 3e 2c 5e 5a 3e 07 f4 b0 3d
       -0.2551229 0.13000345 0.21324986 0.086402945
000180 c8 4a e6 3e f3 51 47 3e b8 71 c7 3d f6 7e a9 bd
       0.4497893 0.19464855 0.09738487 -0.08276169
000190 ca 17 ca bd 4c 0b 0f 3e 76 14 50 3e 4f 7a b2 3d
       -0.09867819 0.13969153 0.20320305 0.08714735
0001a0 98 7d 56 3e bc 7b d1 3c a3 0f 8b be 1e 93 90 3e
       0.20946348 0.025571696 -0.27160367 0.28237242
0001b0 e0 af 70 3e c4 d6 b8 3d 9c 27 de bd df 4c 17 3e
       0.23504591 0.09025338 -0.10847399 0.14775418
0001c0 e8 53 b4 3c 3e 2e 5f 3e 2a a4 08 3e 05 cb 5a 3e
       0.022012666 0.21794984 0.13343874 0.21366508
0001d0 99 91 a7 3d 65 d0 bf bc b9 4f 6f 3d 52 43 22 3e
       0.081820674 -0.0234148 0.05842564 0.15845993
0001e0 e5 9d 0f 3e 06 d1 41 3e ee 00 e9 3d ca 38 51 3e
       0.14025076 0.18927392 0.113771304 0.2043182
0001f0 d4 12 10 3f a3 5d 35 bd d7 1e c0 3d bb f0 d3 bd
       0.5627873 -0.044278752 0.09380882 -0.1034865
000200 3f 76 32 3d bf 69 fc bd 27 43 44 be c2 4d be bd
       0.0435698 -0.12324857 -0.19166242 -0.09292175
000210 b9 a5 6e be 9f 30 36 be d3 e4 39 be 84 40 90 bd
       -0.23305406 -0.17791985 -0.18153696 -0.070435554
000220 fb 52 ca 3c c1 f1 91 bd c2 7a 1f be 27 84 23 3d
       0.024697771 -0.07126189 -0.15574172 0.039920952
000230 22 d7 41 3e 0a 3b 39 3e d2 e6 6c bd 93 c2 a9 3d
       0.18929723 0.18088928 -0.057837315 0.08289065
000240 77 fe c3 3d 7d 41 14 3e 6a 15 b4 bd 29 1a dd 3c
       0.0957002 0.14478107 -0.08793147 0.026990013
000250 50 62 9b 3c f7 ff c1 bd 8b ae 27 bd 0a 9c 16 be
       0.018967777 -0.094726495 -0.04093794 -0.14707962
000260 ce 55 8b bd 42 47 e9 bc 07 fa 7e bc ec 31 fe bd
       -0.06803475 -0.028476361 -0.015562541 -0.124118656
000270 67 e9 f4 bc ba 10 bf bd d4 be ed 3c 06 25 08 3e
       -0.029896451 -0.09329362 0.029021658 0.13295373
000280 c3 f7 0c 3e 27 23 52 3e aa 28 00 3e 80 51 ee bc
       0.13766389 0.20521222 0.12515512 -0.029091597
000290 42 e3 36 3e a8 c5 22 be 5c dc e6 3d 1e 6c 9e 3c
       0.1786013 -0.15895712 0.11272499 0.019338664
0002a0 a8 f9 db bd 4b ec f5 3d f0 2b b6 bc 22 69 7c bd
       -0.107409775 0.1200796 -0.022237748 -0.0616237
0002b0 44 00 c4 bd 5e d0 a9 3d f3 90 6f 3d e0 11 c5 3b
       -0.09570363 0.08291696 0.058487844 0.0060140938
0002c0 68 fb 8f 3d 55 97 a4 3d dc b4 0b 3e 66 42 31 3d
       0.07030374 0.08036677 0.13643211 0.043276213
0002d0 c1 80 21 be 1a fe 7c bd 55 2b c5 3c 47 c2 1f 3d
       -0.15771772 -0.061765768 0.024068514 0.039003637
0002e0 bc cb 93 bc b3 fa 07 3d 89 52 83 3d d9 63 2b 3d
       -0.018041484 0.03319807 0.06412227 0.04184327
0002f0 4e 4f b9 3d d1 5b 10 3e 55 d4 8f 3d 65 b3 49 3c
       0.09048329 0.14097525 0.07022921 0.012310837
000300 6c 90 43 be fa cf 59 bd 2e 2e 26 bf 75 9b 30 bd
       -0.19098061 -0.053176858 -0.64914215 -0.043117005
000310 0e b3 5a bd c6 86 34 3d fa e8 6a bc 02 39 f1 3d
       -0.053393416 0.044073842 -0.0143377725 0.117784515
000320 3d 4a cc 3d c6 94 67 3e e7 30 f6 bd 02 22 e7 3d
       0.09975097 0.22615346 -0.12021046 0.11285783
000330 3b 98 6e 3e 62 cd d7 bd 05 39 e7 3c b4 d0 c5 bd
       0.23300259 -0.105372205 0.028225431 -0.096589476
000340 3b 94 f9 bd 19 f5 ea bd ca ed 18 bf 2a cb 00 bd
       -0.12186476 -0.1147253 -0.5973784 -0.031443752
000350 14 69 01 be 2a 20 84 3d e5 4e 1c 3e 59 a6 54 3e
       -0.1263774 0.06451447 0.15264471 0.20766582
000360 25 55 44 3d 4c 07 09 be 9d 07 94 be c7 2a ed bd
       0.047932763 -0.1338169 -0.28912058 -0.11580425
000370 2a c5 3f be 1d 86 1e 3e 20 b3 00 be 1b b6 b4 bd
       -0.18727556 0.15480848 -0.12568331 -0.08823796
000380 20 27 87 be 4f 21 a7 be c7 d5 dc bd 7f 69 b3 be
       -0.26397038 -0.326426 -0.10782962 -0.35041425
000390 0a f4 0d 3d f1 21 b1 3d 0b 4e d0 bd 1e ea b9 bc
       0.034656562 0.08649052 -0.101711355 -0.022694644
0003a0 62 df 29 be 8e 71 69 be 49 84 6e 3e 7c bb c3 bb
       -0.1658912 -0.22797224 0.2329265 -0.0059732776
0003b0 c2 27 47 3d e3 76 2b bd 4d 47 af bd 61 ef 01 bd
       0.0486219 -0.041861426 -0.085585214 -0.03172243
0003c0 25 4b b5 3d bd 9a 13 3e a2 b8 12 3e 5d 9a 61 3e
       0.08852223 0.14414497 0.14328244 0.22031541
0003d0 97 0d 1d 3d d6 db f6 bd 12 ca 63 3d 4a 49 18 3d
       0.03834304 -0.12053649 0.05561263 0.03717927
0003e0 93 0f b0 bd e7 6a 7c 3c 37 6e 11 bf c4 c8 70 be
       -0.085967205 0.015406347 -0.568088 -0.23514086
0003f0 06 91 2b be 8f 39 a6 3c e5 fb 9c 3d 74 ce 67 3d
       -0.16754541 0.020291118 0.076652326 0.056593373

fc2.bias f4 [64]
000000 90 da f2 3e f6 e9 22 3f aa 15 07 3e 7d f0 a0 3d
       0.47432375 0.63638246 0.13191858 0.078583695
000010 53 a6 df bd 3a c6 d3 3e 80 15 25 be a5 55 67 be
       -0.10920396 0.41362172 -0.16121483 -0.22591265
000020 19 ce 15 3f e2 48 22 bd 5e 89 fc bd 38 42 18 3f
       0.58517605 -0.039620288 -0.12330888 0.5947604
000030 f4 d9 8d 3d 42 25 06 3f b5 46 d0 3e 4c 4e 0d 3f
       0.06926337 0.524006 0.40678945 0.55197597
000040 ff ea 24 3d a8 35 81 3d 9c 38 05 3d e2 6b 98 3e
       0.040263172 0.06309062 0.03252469 0.29769808
000050 38 e7 07 3f e8 b5 07 3f 44 5b 1f 3f 5a 34 05 3f
       0.53087187 0.5301194 0.62248635 0.5203301
000060 74 ba 03 3f c3 0d 18 3f 4a be 04 3f 08 ef 1f 3f
       0.5145638 0.59396 0.5185286 0.6247411
000070 28 f9 97 be bf de ef 3e ad 57 0a 3f d4 1e 11 3f
       -0.2968228 0.4684963 0.5404003 0.56687665
000080 b9 e0 4e bb 3f 98 b5 3e c3 e2 06 3f a6 be 10 be
       -0.003156705 0.35467717 0.5268976 -0.14135227
000090 ba 96 00 be e5 1e e1 bd 6a f6 f0 3e 98 79 15 be
       -0.12557498 -0.10992221 0.47063 -0.14597166
0000a0 94 81 23 3d 82 b3 02 be 6d db a4 3c 06 b2 3c be
       0.039918497 -0.1276379 0.020124162 -0.18427286
0000b0 2f 8e ad be 00 bd c8 bd fc c3 ff 3e 72 36 02 3f
       -0.3389754 -0.09801674 0.49954212 0.50864327
0000c0 e4 3d 29 3b dd 91 3e be 30 be 07 be 6a 95 74 bd
       0.0025824243 -0.1861033 -0.13256145 -0.059712805
0000d0 89 f2 07 3f 14 8a d9 bd 6d 8a df bd 89 db 0a 3f
       0.53104454 -0.106220394 -0.109150745 0.54241234
0000e0 9e 2a e4 3e 8a a4 eb 3e c1 39 ad bd d7 c7 e2 3e
       0.44563764 0.4602397 -0.08458281 0.4429309
0000f0 ee c9 3e bd 08 ab e2 3e 17 dd 7e bd c8 1e 93 bd
       -0.046579294 0.4427111 -0.062222566 -0.071836054

fc3.weight f4 [1, 64]
000000 09 c8 b3 be 43 55 8f be 2b ec 46 be 7f 98 9c 3e
       -0.35113552 -0.27994737 -0.19426028 0.30585095
000010 45 df e6 3e 2c 3c 3c be e5 32 03 3f 9b ae 03 3f
       0.45092216 -0.18382329 0.51249534 0.514383
000020 ba 26 46 be 7b 13 c0 3e 51 77 ca 3e be ed 94 be
       -0.1935071 0.37514862 0.39544156 -0.29087633
000030 1d 60 75 3e 4a b8 58 be a7 f7 48 be 53 c6 95 be
       0.23962446 -0.2116405 -0.19625722 -0.29252872
000040 1e 4f a6 3e fe 29 9b 3d 23 54 98 3e 4f f8 dd be
       0.32482237 0.07576369 0.2975169 -0.43353507
000050 fb 3b 8b be 28 d7 5e be 5f 74 6a be 62 96 87 be
       -0.271942 -0.21761763 -0.22895955 -0.2648192
000060 f2 62 50 be d4 39 38 be a0 14 83 be b5 58 56 be
       -0.20350245 -0.1799081 -0.25601673 -0.20932277
000070 00 30 0c 40 07 73 82 be c5 5a 4e be 9d f8 62 be
       2.1904297 -0.25478384 -0.20151813 -0.22165151
000080 b2 c8 65 3e dc 41 96 be 52 b8 8d be 58 b9 d3 3e
       0.2243984 -0.29347122 -0.27679688 0.41352344
000090 89 33 e7 3e b9 2a 0a 3f a4 c3 90 be 8f aa bc 3e
       0.45156506 0.5397144 -0.28274262 0.36848876
0000a0 73 5c a1 3e 58 94 c6 3e ab d0 e4 3d 84 47 f9 3e
       0.31515846 0.38785052 0.11172613 0.48687375
0000b0 cf 25 e5 3f a8 d8 aa 3e 38 92 8f be 23 b4 9b be
       1.7902163 0.3336842 -0.28041244 -0.3041087
0000c0 78 af da 3e 57 85 bf 3e 8e c4 f1 3e ca 4d cd 3e
       0.42711997 0.37406418 0.47220272 0.4009841
0000d0 a4 08 4b be d9 53 ef 3e f3 49 fc 3e 0e a5 7a be
       -0.19827515 0.46743658 0.4927517 -0.24477026
0000e0 20 de ac be 58 da a5 be 4d fa f0 3e 07 74 7c be
       -0.33763218 -0.32393146 0.47065964 -0.24653636
0000f0 65 64 c5 3e be 41 91 be 2f 99 db 3e b6 83 ab 3d
       0.38553157 -0.2837047 0.42890307 0.08374731
