SAC/sac/critic1_checkpoint_1.pth (torch, 23178 bytes, 5 tensors)

fc1.weight f4 [64, 13]
00000000: 3795 a3be 0b85 273f 0512 203e 77e3 693e
00000010: 967b e3be 4945 d3be a48b a13e 18de 683d
00000020: 2eb6 f0bd 1ce8 57be a637 8ebe 1d30 f13d
00000030: d418 07bd 5e3d 863e 93c5 cc3e 8704 2e3e
00000040: 33f6 11be c06e 7fbe 0b2d f33e 5f10 4abe
00000050: ccda 543e ce84 cc3e 2da6 3a3e 5808 2bbc
00000060: a8c8 d1bd 19c7 813e b880 913e 839f 1d3f
00000070: 39eb 47bd f21b 763e a76a a53d 3cac e7bc
00000080: 9cca d4be 414a aabe 2338 553d 0a65 db3d
00000090: 8aa3 0bbe 717f d93d 0573 903e 0e5a 6cbd
000000a0: 3474 fb3e 87d9 dc3d 736d 3dbf 4192 38bf
000000b0: 6d8d 87be 1c32 b7bd d2fb b1be fabd 443e
000000c0: c44d 16be a29e 673b bf6c b83d 0e4c 84be
000000d0: 975c 85be 5398 c73e bc30 3cbd d57b 7dbe
000000e0: 7f3e 1dbf 7280 52be 18e3 773c 1675 b43e
000000f0: e48c c6bd 8747 e6bc eed7 543e 5292 6dbd
00000100: 4a13 20bd 3a45 a8be ae36 0abf 0179 b4be
00000110: 2e02 4abf 883b 2dbf 1527 88be c36d eb3d
00000120: ce33 0c3f 9835 ebbd 1ade 92be 5ca6 2c3c
00000130: dd2c b2bd 67a9 c5bd b628 a7be e750 1f3f
00000140: f334 85be aba2 d7be ffff ecbe 4180 2e3d
00000150: d944 633a 5ffa af3e e331 303e d3e5 e33c
00000160: 1c8e 7c3e 36fd 923e a8bd a3bd face b83e
00000170: bda4 72bd 076f a43d fd41 34bf 9392 443e
00000180: 5921 82be e7b0 753e 1070 cebe 6083 b93b
00000190: e956 6abd 5501 1f3e 4781 95be 7c47 d9bd
000001a0: 0a8f 19be 1d60 733e 2917 88bc f16a 2f3e
000001b0: 95e8 10bf de12 b1bd 01f7 793d 737e bbbc
000001c0: bb62 00be 7c6c 78be 781c 7f3e 652c babd
000001d0: 25fb 2abd 9c6b 95bd fe4d 193f 6164 513d
000001e0: 2377 3ebf e4fc 64bf 8d77 2bbe 6d6a 56bc
000001f0: d60c 893d c852 983d c9e5 b83c 5cb9 3c3e
00000200: 4e97 1c3c cab0 25bd 7990 bebe 02ba 153f
00000210: 6cc0 94bd b25f e0be d246 b5be a8ba 06be
00000220: 9d27 9bbe 0d65 5a3e c146 eb3d 28b2 c9bd
00000230: 9d0a 19be 44b4 6ebe aa5e a13d 71c0 7e3e
00000240: fec0 b0bd bd03 863e 3fe9 bbbe 0258 8abe
00000250: 5ecb fcbd c0ef d7bd bccf 8e3c 8f74 f13d
00000260: 3434 d23e 2d04 363e 225a 183e 64e3 fd3d
00000270: 6da5 8d3d df2b 16be f34b c2be fd1b 48be
00000280: 29cb db3d c761 963e ee0f 05be 8832 383c
00000290: b0c4 103e d269 dcbd 260e a03d 5530 563d
000002a0: 56d2 b1bc 7657 063f 9f2a b2bb ee9f 073e
000002b0: 05b3 dcbe 641d 043e 04dd dbbd 8663 d7be
000002c0: 5ac2 ae3e 6c96 01be d98d f03e 6067 33be
000002d0: 4b63 12be c20d 06be 1d4f 48bc 52c6 823e
000002e0: eec3 eb3d 1193 8fbe 07aa 86bd f42d 8e3e
000002f0: 8482 0abe 6f1b a4be 5c80 553e 9f3c b83e
00000300: d82b 5ebe d539 2dbe 018d 0dbe 363a 44be
00000310: 841f e23e 27cd 953e 2ed7 873e 8986 c3bc
00000320: 28f0 ca3d 2931 c3be 5bb9 8c3e 1fd7 fe3c
00000330: 5203 e03d fcde 35be 442d ba3d 8df5 263e
00000340: cd77 333f 8999 843e 0791 2bbe 45d1 393b
00000350: 31e7 0fbf 21b0 753c e990 f6bd 8b3b b63e
00000360: 42b5 ad3d db2f 37bc 0198 9abd aa6d 9e3d
00000370: e729 8abb a657 103e ce50 da3e 6032 603e
00000380: 8368 00be f0a1 82be c7f6 933e ab5f 89be
00000390: 50a5 fdbd 0fef 573e be99 923e 0a59 e5bd
000003a0: 428e 423d 852e 37be 947e 3ebd 528c 6e3f
000003b0: 7a91 e33b 9916 dbbe 3831 fabe b3fa debe
000003c0: 0816 d5bd 85fc 193e 24f8 e03c 6722 3c3e
000003d0: 55e6 6ebe babb 89be 648e a1bd 29be 813d
000003e0: 5bce 4a3d 5cda 873e fcba 06bf 2cbd 273e
000003f0: bd64 0ebd f09e 50be c1f8 c4be c827 603d
-0.3194978 0.6543738 0.15631874 0.22840677 -0.44430226 -0.41263798 0.3155185 0.05685243
-0.11753498 -0.21084636 -0.2777683 0.11776755 -0.032982662 0.26218694 0.39994487 0.16993915
-0.14254074 -0.24944592 0.47495303 -0.19732808 0.2078659 0.39945072 0.18227454 -0.010439001
-0.1024335 0.25347212 0.28418517 0.6157152 -0.04880831 0.24034098 0.08076983 -0.02828037
-0.4156083 -0.33259776 0.05205549 0.10712631 -0.13636604 0.10620011 0.28212753 -0.05770307
0.49112093 0.107836775 -0.7399513 -0.72098166 -0.26475087 -0.089451045 -0.34762436 0.19213095
-0.14678103 0.0035342355 0.09005117 -0.25839275 -0.26047203 0.38983402 -0.045944914 -0.2475427
-0.61423486 -0.2055681 0.015129827 0.3524558 -0.096948415 -0.028110279 0.20785496 -0.05800087
-0.039080895 -0.32865316 -0.53989685 -0.3524857 -0.78909576 -0.6766896 -0.26592317 0.11495545
0.5476655 -0.114848316 -0.28685075 0.01053771 -0.08699963 -0.096514516 -0.32648247 0.6223282
-0.2601696 -0.42116293 -0.4628906 0.04260278 0.0008669622 0.34370705 0.1720653 0.02781955
0.24663585 0.2870881 -0.079951584 0.3609541 -0.059239138 0.08028989 -0.7041319 0.19196539
-0.25416067 0.23993264 -0.40319872 0.005661413 -0.05721179 0.15527852 -0.29200193 -0.10609338
-0.14995971 0.23767133 -0.016612606 0.17130639 -0.5660489 -0.08646177 0.061026577 -0.022887444
-0.12537663 -0.24260134 0.24913204 -0.09090499 -0.041743416 -0.072959155 0.5988463 0.05112112
-0.7440054 -0.8944838 -0.16744824 -0.013086897 0.066919014 0.07437664 0.022570508 0.18430084
0.009557558 -0.040451802 -0.372196 0.5848695 -0.07263264 -0.4382301 -0.35405594 -0.13157141
-0.3030366 0.2132761 0.114881046 -0.09848434 -0.14945455 -0.23310953 0.07879384 0.24878098
-0.0863056 0.26174727 -0.3670139 -0.2702027 -0.12343477 -0.105437756 0.01743304 0.1178981
0.41055453 0.1777503 0.14878133 0.12396887 0.06916318 -0.14665173 -0.3794857 -0.19541927
0.10732109 0.29371473 -0.12994358 0.011242516 0.1413753 -0.10762371 0.078151986 0.052292187
-0.021706741 0.52477205 -0.0054372097 0.13244602 -0.4310533 0.12901837 -0.10735515 -0.42068118
0.34132653 -0.12655038 0.4698322 -0.17519903 -0.1429569 -0.13091186 -0.012225893 0.2554193
0.1151198 -0.2804189 -0.06575399 0.27769434 -0.1352635 -0.3205218 0.20849746 0.3598375
-0.21696413 -0.16916592 -0.1382332 -0.1916283 0.4416467 0.2925808 0.26531357 -0.023867862
0.099090874 -0.38123444 0.27485165 0.031108437 0.10938133 -0.17760843 0.09090665 0.16304608
0.70104676 0.25898388 -0.16754542 0.0028353494 -0.56212145 0.014995606 -0.12039358 0.35592303
0.08481838 -0.011180843 -0.07548524 0.077357605 -0.004216421 0.14095935 0.42639774 0.21894217
-0.12539868 -0.25514174 0.28899214 -0.268308 -0.123850465 0.21087287 0.2863292 -0.111986235
0.04749895 -0.1788884 -0.046507433 0.9318286 0.0069448324 -0.42790678 -0.48865676 -0.43550643
-0.10404593 0.15037735 0.027462073 0.18372498 -0.23330052 -0.26901037 -0.07888487 0.06335098
0.049513202 0.26533782 -0.52629066 0.16380757 -0.03476404 -0.2037313 -0.38471034 0.05472544

fc1.bias f4 [64]
00000000: a531 733e d25c 3fbe 9dd8 783e dad9 163f
00000010: 42a8 2b3f b93c b93e 3510 4e3f bf93 d93e
00000020: 38f1 a53e fbc2 783f 58c6 dc3e 95a8 8a3e
00000030: 117b e63e f0e8 e43e 89e9 8f3e 5c5a 5b3e
00000040: 6eeb a33e f935 95bd 8f74 1c3d 1f77 e83e
00000050: 8e0e b63e b69e c03d 51df 233f 362c fa3e
00000060: 4a1c 933d 2ab5 65bd e3fb 5e3f 0861 233f
00000070: 7e91 8fbe 3b5f 5b3d a822 9c3e e03f 1d3f
00000080: 60c5 453d 4742 573e 820c 2dbe 9064 183f
00000090: 8a57 153f 86f1 a33e aa00 07be 5876 a23e
000000a0: 4f32 213f f67b 94bd 3cc6 40be 2a6a 253f
000000b0: c329 2f3e b799 4c3e 0058 dfbc f386 933e
000000c0: db83 273f 539c 963e 2432 bf3e 0fa1 433e
000000d0: 5a9f 393f 90d8 8b3e d21e 093f 26c4 523e
000000e0: f99a 1d3f 0ff5 2e3f 3665 433f ccb3 1c3f
000000f0: cc6d ba3e 409e 4f3f 8784 dd3e 6c9e 123f
0.23749407 -0.18687752 0.24301381 0.58926165 0.67053616 0.3617914 0.8049348 0.42495534
0.32410598 0.97172517 0.43120074 0.27081743 0.45015767 0.44708967 0.2810786 0.21421188
0.32015556 -0.07285685 0.038197096 0.45403382 0.3555798 0.09405272 0.6401263 0.48861855
0.0718313 -0.056080975 0.871031 0.6381993 -0.2804069 0.053557616 0.3049519 0.6142559
0.048283935 0.21021377 -0.16899303 0.59528446 0.583367 0.32020205 -0.13183847 0.31730914
0.6296739 -0.07250206 -0.1882562 0.6461512 0.17105775 0.19980513 -0.027263641 0.28813896
0.6543557 0.2941614 0.37342942 0.19104408 0.72508776 0.27313662 0.53562653 0.20582637
0.61564595 0.6834268 0.7632631 0.6121185 0.36411893 0.81100845 0.43265173 0.5727298

fc2.weight f4 [64, 64]
00000000: 3015 2d3d 28f6 06be 5ac3 2ebe 8e62 9ebd
00000010: c9b4 0b3d 9d75 e4bb c24e 173e 3665 133e
00000020: df2c dcbd acc1 8fbe 7bce 97be 98c1 de3d
00000030: 5cbc ce3c fcfa 093e 1d87 6cbc ff7d 80bd
00000040: 946d 7dbb 0ac3 42be f878 153e 6071 333d
00000050: d93b 5dbd 0734 023d bc9d a33d 8121 9bbd
00000060: 88bc 393e 02ec 173c 9dd8 1fbe eb22 11bd
00000070: 0c2b 233e ba32 593e d8f7 4ebe 6a88 2d3e
00000080: c7b9 0b3e 6f9c d23e 024f ad3e 29e7 20be
00000090: 6014 a23e 915f 9e3c f23e 8ebd ed22 273d
000000a0: 2ecd 85bd 2f18 253e bb0b 5cbe db72 b8be
000000b0: e205 4b3e d54e 873e 941e b63d ebe5 a63e
000000c0: b52b f2ba a9c0 07bd b253 3f3d 922c 0c3e
000000d0: 115f a63d a50a 36be 2122 a23c ed60 aa3c
000000e0: 00a9 8a3e 89e6 00be ff6f 1e3d b69a 4cbe
000000f0: 8c75 a3bc dd52 643e c318 24be e295 8b3e
00000100: 6fbf ea3d d8d4 3abd cea4 b93d 04c8 343c
00000110: e9bf cf3c 507d 863c bddb d73d 08c1 a83a
00000120: 855a 003e 6de3 82be c9ca 99be cf39 413c
00000130: 6236 e4be a8bd 943d 47ba bb3d 41fc 8a3d
00000140: e490 2d3d 9cc8 eb3c e2f6 663d 2207 4bbe
00000150: 46dd 99bd d1ff 303d 8e1d c63d 6f6a ba3d
00000160: b140 90be c4fc 283d 9d05 6abe f772 3abd
00000170: 2d6a 1d3e 396e b83e 812a b8be 8181 1d3e
00000180: 215f 2c3e 3b44 4e3e 8d26 9cbd 7fc9 933d
00000190: 5cd1 013e 17d0 ed3c daa5 5bbd 2600 e13d
000001a0: fbf3 92be 88b6 8b3d 20b3 abbe ee52 61be
000001b0: 91ff 3dbd bc96 5b3e 87c4 a73d f616 0a3e
000001c0: 9bf6 243e 3b5a a03d a74a 30be 5461 113e
000001d0: 81e7 693e 7fb5 a6bd 662f 953d 0cf9 4c3e
000001e0: 2c9c 8e3c 7b12 30bd c238 09bf ce1a 2ebd
000001f0: 6041 19bc 0368 343e cbcb 61be 6254 15bc
00000200: 8ec6 f23d f499 8c3e 6661 533e 09cd 873e
00000210: 0836 df3e 76dc 1ebd 0a46 063e f4f0 f23d
00000220: 73d2 593e 3cf3 663f 7bac 1b3e 3e66 3a3d
00000230: 92a1 cc3d 0ee5 833d e3ef c73d 977d 203e
00000240: 92c0 4e3e d601 2b3e a613 87bc 50b2 c03d
00000250: 0612 c83d 86ac b13c 494e 613e e056 0e3e
00000260: 20de 4ebd e0d0 08be c2b8 243d a346 aa3e
00000270: 99dc 51be 80e0 913d 753d 703e f16b 613d
00000280: aa0d 84bc 2a7a 35bd 570b 80be cc16 853e
00000290: 392c a93e b2a5 b53d 4b9f 413e 64ca 0d3e
000002a0: 4aad fe3e 43bc ddbd 9e6b 9cbd dff3 863e
000002b0: 487b 1d3e 1613 053e 083c d63d ff84 713e
000002c0: 0f7b 823d d0d2 e53d 24c1 283e b9c6 013e
000002d0: ac00 d73d 918d 283e a2b8 4e3e d95f 0a3e
000002e0: 6afb 6f3e 09b5 7b3e b723 2f3e c468 8a3d
000002f0: ee34 ac3e 19c0 583e 1743 603d f5ee c43d
00000300: a8b8 a5bd 4e74 76bc 9ce7 8c3d b2c3 d7bd
00000310: d6c7 0fbe 04ce 5bbd 7fc9 0dbe 3b10 c3bd
00000320: 8825 8a3c 214b dc3c 5c8d fcbc be59 b9bc
00000330: 475d 0abd 5661 f9bd 6d64 373d 1442 9ebd
00000340: be7f 15be 706c 8bbc 047f de3d b02d 26bd
00000350: 4370 8e3d 906e 7bbc f877 90bd a01f 0fbc
00000360: 4802 07bd 9c71 19bd 3850 a2bc ab7b ccbd
00000370: 6239 0bbc 4655 293d 50d5 273d 388d 183d
00000380: f299 13bd 1033 153d 6275 a4bd 1182 86bd
00000390: 6c52 5e3d 2022 c7bd 034d c03d dab6 dd3c
000003a0: 2eec 6bbd 4a1d 733d 725c 5b3d a2fb 35bd
000003b0: ae33 953b 72c0 78bd dca6 03bd 7871 f1bc
000003c0: a4dc ad3d c0b5 f1bb e8a7 443d 969d bb3d
000003d0: eabd afbd 1a90 98bd 4f33 0e3d fa2a 4d3d
000003e0: 1649 493c c2c7 f5bd a894 90bd 9602 68bd
000003f0: 4fe8 cbbc 27ed fabd 1498 123b 619e d0bd
0.042256534 -0.13179839 -0.17066708 -0.077336416 0.034107957 -0.0069720284 0.14776137 0.14394078
-0.10750746 -0.28077447 -0.2964972 0.10876769 0.025236301 0.13474649 -0.01443651 -0.06274032
-0.003867005 -0.19019714 0.14596927 0.043809295 -0.054012153 0.0317879 0.0798907 -0.0757475
0.18138325 0.009272577 -0.15609975 -0.03543369 0.1593439 0.21210757 -0.20211732 0.16946569
0.13645087 0.41134974 0.3384934 -0.1571318 0.3165617 0.019332679 -0.069455996 0.040804792
-0.065332755 0.16122507 -0.2148885 -0.36025128 0.19826463 0.26427332 0.08892551 0.32597288
-0.001847616 -0.03314272 0.046710677 0.13688877 0.08123601 -0.17777498 0.019791665 0.020798171
0.27082062 -0.12587942 0.038681027 -0.19980893 -0.019953512 0.22297235 -0.16025071 0.2726279
0.11462294 -0.04561314 0.09064637 0.011034016 0.025360065 0.016417176 0.105399586 0.0012874911
0.1253453 -0.25564137 -0.30037525 0.011793568 -0.4457274 0.072627366 0.09166389 0.06786395
0.042374507 0.028782181 0.05638779 -0.1982694 -0.07512908 0.043212716 0.09673606 0.09102332
-0.28174356 0.04125668 -0.22853704 -0.045519795 0.15372534 0.36021593 -0.35969928 0.15381433
0.16833164 0.20143215 -0.076245405 0.07216167 0.1267752 0.029029889 -0.053624965 0.109863564
-0.28701767 0.068219244 -0.335351 -0.22004291 -0.046386305 0.2144422 0.081917815 0.13485321
0.16109698 0.0782971 -0.17215978 0.14197284 0.22842218 -0.081400864 0.07284431 0.20016879
0.017408453 -0.042986374 -0.5360223 -0.04250603 -0.0093539655 0.17617802 -0.22050397 -0.009114357
0.118542776 0.27461207 0.20642623 0.26523617 0.4359591 -0.038784467 0.13112655 0.118623644
0.21271686 0.90214896 0.15202515 0.045507662 0.099917546 0.06440173 0.09762552 0.15672909
0.20190647 0.16699919 -0.016488861 0.094090104 0.09769063 0.02168871 0.2200252 0.13900328
-0.050504804 -0.1336093 0.04021526 0.33257017 -0.20494308 0.07122898 0.23460944 0.05503458
-0.016119797 -0.044305958 -0.25008652 0.25993955 0.33041552 0.088694945 0.18908422 0.13846737
0.49741584 -0.10826924 -0.07637714 0.26357934 0.1537906 0.12995562 0.10460669 0.2358589
0.06371128 0.1122185 0.16479927 0.12673463 0.10498175 0.16460253 0.2018762 0.13513125
0.2343575 0.24580778 0.17103468 0.06758264 0.33634132 0.2116703 0.05475148 0.0961589
-0.08091861 -0.015042378 0.068801135 -0.10535373 -0.14041075 -0.05366327 -0.13846396 -0.0952458
0.0168636 0.026891293 -0.030829124 -0.0226258 -0.033780362 -0.121767685 0.044773508 -0.07727447
-0.14599511 -0.01701948 0.1086407 -0.040570915 0.06955006 -0.015346184 -0.07054132 -0.008735567
-0.03296116 -0.037461862 -0.019813642 -0.09984525 -0.008497568 0.04134109 0.040974915 0.03724405
-0.036035486 0.03642565 -0.080302015 -0.06567777 0.054277822 -0.09723306 0.09389689 0.02706473
-0.057598285 0.059354104 0.05355496 -0.04442943 0.00455328 -0.060730405 -0.03214155 -0.029473051
0.084893495 -0.0073764026 0.04801169 0.091609165 -0.08581145 -0.0744936 0.0347169 0.050089814
0.012285491 -0.120009914 -0.07059604 -0.05664309 -0.024891047 -0.122522645 0.0022368478 -0.101864584

fc2.bias f4 [64]
00000000: 41db 963d 19b3 c0bd 043a 123f dfda 18be
00000010: 3093 cb3e ad4c 32be ba04 b1bd 9b04 02be
00000020: 7132 fa3e e3ba 083f 1180 a53b 7bac 4bbe
00000030: 8e59 f33e a81b b73e 8d88 d23e 1c8e f1bd
00000040: aca7 c43e 327c 343b 26d2 ca3e cbb1 b2bd
00000050: 2eaf de3e a232 53be a88a e23d 756f 27be
00000060: a173 f2bd e57f 023f 8e26 c03e d539 b43e
00000070: 2a61 2c3c fcc0 bc3e 46bd edbd e4f7 04be
00000080: d54e 073f c712 b23e 5339 0dbe bd0b e63e
00000090: 95f3 da3e 1357 bf3e f172 ff3e 2ced f73e
000000a0: 50de c73e 2c5b ef3e a785 d03e 6eee 013f
000000b0: 5683 ff3e 313d fbbc 9da5 ae3d 857e e93e
000000c0: ba6b 023f f44f e0bd aae4 c23e 6560 53be
000000d0: c739 e43e 19ac 9a3c 42fd bd3d 148d a03e
000000e0: 0edb dd3e 4af4 53be f319 abbc 92db 80be
000000f0: 0c29 cbbd 231b d33e 5c73 34be 8069 d23e
0.07366038 -0.0940916 0.57119775 -0.14927243 0.39760733 -0.17412062 -0.0864348 -0.1269707
0.4886661 0.53410167 0.005050667 -0.19890015 0.47529262 0.35763288 0.41119805 -0.11794683
0.38409173 0.0027539846 0.39613456 -0.087253176 0.43493026 -0.20624784 0.11061603 -0.16351111
-0.11838461 0.509764 0.37529415 0.35200372 0.010521213 0.36865985 -0.11608367 -0.12985188
0.52854663 0.3477995 -0.13791399 0.4493083 0.42763963 0.3737112 0.4989238 0.48423135
0.39036798 0.46749246 0.4072697 0.5075444 0.4990489 -0.030668827 0.08527682 0.4560434
0.5094563 -0.1095275 0.38065082 -0.2064224 0.4457533 0.01888089 0.09276821 0.31357634
0.43331188 -0.20698658 -0.020886397 -0.2516752 -0.099199384 0.4123164 -0.17622131 0.41096115

fc3.weight f4 [1, 64]
00000000: 8f8c 1c3f c944 a13e bc97 28be a7cc 63bd
00000010: d66d 7ebe 4445 f13e 6567 a63f 254c 043f
00000020: f427 50be 0753 53be 3c35 fe3e 2879 da3e
00000030: fc7f 5fbe 16ad acbe 905a 55be 7ef4 dc3d
00000040: e9a3 90be 07a4 9c3d 5553 9dbe 0a1f 9abe
00000050: 10bf 82be 9c4e 083f af17 dd3e fb10 0b3f
00000060: 112b 013f d097 88be c7fa 95be 8caf 9ebe
00000070: 9068 053f 4b8a 80be 5817 963d dea6 c63e
00000080: bd03 2dbe 40c8 72be 8064 d73d 01da 70be
00000090: 586c 41be 2d61 5ebe 1f74 82be 9553 8bbe
000000a0: 5ea0 7ebe ad4d 93be ca51 68be 4ded 93be
000000b0: 16eb 34be 6cad f13e 4498 b73e 51e6 3bbe
000000c0: f8df 66be f4ae ee3e b45c 46be b180 d13e
000000d0: 5ffb 7cbe 081a 0a3f f07d 843c d5c3 bebe
000000e0: bcca 5fbe c95f 0840 0a80 c53e ddaa 013f
000000f0: f702 013f fe35 92be d012 c83f d2d6 4abe
0.61151975 0.3149779 -0.16464132 -0.055615094 -0.24846587 0.47123158 1.3000304 0.5167869
-0.20327741 -0.20637141 0.4964999 0.4267056 -0.21826166 -0.33725804 -0.20835328 0.10788821
-0.28250054 0.07648473 -0.3072764 -0.30101806 -0.25536394 0.5324495 0.43182132 0.54322785
0.5045634 -0.26678324 -0.2929289 -0.30993307 0.52112675 -0.2510551 0.07328671 0.38799185
-0.16895957 -0.23709202 0.10517216 -0.23520662 -0.18888986 -0.21716757 -0.25479218 -0.27212206
-0.24865863 -0.287702 -0.2268745 -0.28891984 -0.17667803 0.47202623 0.35858357 -0.18349577
-0.22546375 0.46617854 -0.19371301 0.40918496 -0.24705265 0.5394597 0.016173333 -0.37258783
-0.21854681 2.1308463 0.3857425 0.5065134 0.5039515 -0.28556818 1.5630741 -0.1980851
